checkpoints/CNN.NINO.0324122010.pth (torch_old, 260112 bytes, 10 tensors)

cnn1.weight f8 [4, 1, 5, 1]
0	0x3fd1fed3c8e2ccd3	0.2811784230972993
1	0xbfba010654e29de4	-0.10157813618081196
2	0x3f90495c57c7fdeb	0.015904848916759844
3	0x3f9a73f6b1ed2bf6	0.02583299122788315
4	0xbfc9f0c0ebd4bc06	-0.202659716750958
5	0xbfc52ed4c47c53dd	-0.16549167245889765
6	0x3fcbfdb7c7365c70	0.2186803553310912
7	0x3fb9e2842f49400b	0.10111261515089624
8	0xbfda106b67dc3b81	-0.40725217001539
9	0x3fcd2f496a4783e7	0.22800557794019413
10	0x3fd246b37477e7c5	0.28556524633279096
11	0x3f8047d2a70c9729	0.007949491236626098
12	0xbfdb890b16228afc	-0.4302394596253831
13	0x3fc65663b5238549	0.1745113977877202
14	0x3fbc0e519fbee691	0.10959348821679728
15	0x3fd2c0107ebd6b33	0.2929726827330114
16	0xbfc9027b7a6eb5c4	-0.19538825491092215
17	0xbf9972744fe50a6e	-0.024850671173462784
18	0xbfd0c828151980a1	-0.2622165876437155
19	0x3fbee9da9cd124e8	0.12075582817591946

cnn1.bias f8 [4]
0	0xbf90e3ce3405126c	-0.016494008946454405
1	0x3f956db7062f76a3	0.020926341774489498
2	0xbfc06f80d462ef0c	-0.1284028088610899
3	0x3fae79b5fa4c40e6	0.05952233009713996

cnn2.weight f8 [8, 4, 13, 1]
0	0xbfb70c8ba4247f3a	-0.09003517873179315
1	0x3fb6396f00856910	0.08681386721346862
2	0xbf807ceb325eb333	-0.008050763582866693
3	0x3fb81ffd031821bf	0.09423810315650537
4	0x3f91ad0002f63f89	0.0172615052993588
5	0xbfc1bdff7fe436d8	-0.1386107801885632
6	0xbfb0b4b7f7d50823	-0.06525754738416416
7	0x3fb2d6641be93800	0.07358384782239114
8	0xbfb1c49adcd92365	-0.06940620319177311
9	0x3fb90daa4e4afe32	0.09786476527642021
10	0x3f83d466925f7100	0.009682465879386815
11	0xbfb65b1dd1395c46	-0.08732782705315953
12	0x3fb6bc8c98b5fa6c	0.08881453254978461
13	0xbfb8bc3f719f0e17	-0.0966224338908933
14	0x3fab2300547cf566	0.05300141364430537
15	0x3fa76e67bd09647f	0.0457642000444105
16	0x3f855b9805ff75d7	0.010428607638398297
17	0xbfb26073d67ce6bc	-0.07178424822350399
18	0xbfa399d8c42d7ae0	-0.03828313250300197
19	0x3fb7a620d9129719	0.0923786668741652
20	0xbfa8f0ffa1c1c7f7	-0.048713673110697124
21	0xbfbe9705204abee0	-0.1194918826902227
22	0xbfb27c20cf3c323d	-0.07220654544307421
23	0xbfa0814a4188a8f9	-0.032236404895529654
24	0x3fb7545336662246	0.09113044813251134
25	0x3fc4fc1d8191c403	0.16394394709234925
26	0xbfb4d84da5f09909	-0.08142552663102633
27	0x3fb5370f7aacd1f7	0.08287140603062669
28	0xbfa28683f3411ee4	-0.03618252128995694
29	0xbfb6c5f339fb0b5c	-0.08895797887366313
30	0xbfbabc671d94caee	-0.1044372985095767
31	0x3fb33fefa87f3bd7	0.07519433845230537
32	0x3f87f03ca9a59aa4	0.011688684394085165
33	0x3f93027ecd62f266	0.018564206395910075
34	0x3f9b50b35d16981e	0.026675036007553492
35	0x3f9ade8ce5546def	0.026239587304287267
36	0x3fb557d3d3a72b09	0.08337139050778943
37	0xbfb04c5b7fcf3ee1	-0.0636651217494051
38	0x3f814c5bb8391dc2	0.008446423110526239
39	0x3fb06aabe457dcde	0.06412767720017906
40	0x3fabd4545bcf7ae2	0.05435432072385084
41	0xbfb42ff8845e1dd6	-0.07885697585708526
42	0x3fab9bea62909893	0.053923916370238655
43	0x3fb944894126f628	0.09870202866201139
44	0xbfb921feffa16f5c	-0.09817498913747386
45	0xbfac4a1655008a5f	-0.05525274074195318
46	0x3fb1501cc095352b	0.0676286668942409
47	0x3f89fa80d16161ae	0.012684828176291098
48	0xbfa929fd68391513	-0.04914848229649684
49	0xbfba25d5d6f1016b	-0.10213982102960066
50	0xbf8a2213b932b30b	-0.012760309304519454
51	0x3fa858b3fc927e71	0.047551750737736216
52	0x3fa9d6bec5cc598d	0.050466500897687096
53	0xbfc013399085bf34	-0.12558669621238894
54	0xbfb91d290609e6fc	-0.09810120007923823
55	0x3f980c07043e58fd	0.023483380922322706
56	0x3f9038716092b730	0.015840312499384612
57	0x3faeb63b620e40d0	0.059984069556891506
58	0xbfb66de485212449	-0.08761432886343913
59	0x3fba7c49d7b9b330	0.10345899121030011
60	0x3f913064b8a5b252	0.01678616883275403
61	0x3f8e2c8730f2462b	0.014733368092751572
62	0xbf50d55fc36f1b69	-0.0010274348439780151
63	0x3f88adf93ef87d74	0.012050578340732733
64	0x3faa605b6fee0ffa	0.05151639691669625
65	0x3faabfd0e0fb1e4a	0.05224468942975287
66	0x3f7ebb79147af653	0.007503006905321979
67	0x3f94a792a7e0b396	0.020170489784664257
68	0xbfb5a50c9850c1c7	-0.08454970091475565
69	0xbfa26804502e912e	-0.035949835574941566
70	0xbfa1d67c62b1ccb0	-0.03483952240721899
71	0x3f59abbe3e89e7f9	0.0015668256620799943
72	0x3fb8a6f142aeb675	0.09629733922948865
73	0x3facc3adbc51a6f4	0.05618040965857843
74	0x3f5003a5e8f97a1b	0.0009774322715184805
75	0xbf8732c12d2b7693	-0.011327275458309393
76	0xbf8dc2969e0ac71b	-0.014531304071485665
77	0xbf9c85d9d888b2e9	-0.02785435089224367
78	0xbfaf0a9bcaad1bc4	-0.060627811899898215
79	0x3fafccecb2e6983d	0.0621103256592481
80	0x3f74067fbb2ff11d	0.0048890103816996685
81	0x3fa58302306de938	0.042015140926155714
82	0x3fba3edd6580d76f	0.10252174118144607
83	0xbf831d368606e649	-0.009333063092401466
84	0x3f986b82e25e0497	0.023847622934685644
85	0xbfb900c4aa889d89	-0.09766797221583635
86	0x3fada14d5256aa83	0.057871261883822654
87	0xbfa08fc6f833f332	-0.03234693317242544
88	0x3f858123f5cf84cf	0.010500222147984321
89	0xbf942d39257763d4	-0.01970376292397076
90	0xbfaf928461a0b47c	-0.061664711873484074
91	0x3f8d3049c3703fc5	0.01425225856476676
92	0x3f954ef48df637ed	0.020809003033313834
93	0xbf91f14e4d6c7a68	-0.01752207133824371
94	0x3fb04f0eb10ec569	0.06370632002542255
95	0xbf9309627ece0102	-0.01859048747019277
96	0xbf9c0697b03a7a54	-0.027368898516778664
97	0x3fb5ffe26ad47086	0.0859357367339176
98	0xbfb3ea57aff59878	-0.07779453321345098
99	0xbf85d74d9d0ea649	-0.010664564471727494
100	0xbfafbfe99af82271	-0.06201105133738317
101	0xbf8dd6cf0c21cf64	-0.01456987148069517
102	0x3fb04add0d09217f	0.06364232605222318
103	0xbf9aa49a06821406	-0.02601853050920868
104	0x3f9bb53ce4902d47	0.027058555078878468
105	0xbfa3920a040e0fe5	-0.03822356509684236
106	0x3fbbbdc7d1f6c8a5	0.10836457134317586
107	0xbfa58e842592cf9e	-0.0421029373041215
108	0x3f9a84f690e5ddd3	0.02589783915888495
109	0xbf99a4b2831e686b	-0.025042332890372537
110	0xbf924f99d069cb39	-0.017881778092895238
111	0xbf8e01a17db33afa	-0.01465154805046386
112	0x3fa46ec9f39b1f4e	0.03990775202470208
113	0x3fb1375b96095315	0.06725094235418923
114	0xbfb50523a9101553	-0.08210966947088609
115	0xbfaee62abf1762db	-0.060349784685689044
116	0xbfabe5b933b65cd7	-0.05448702579740832
117	0x3fabfa368e905c6c	0.05464334955484493
118	0x3f9f6482e76e7c77	0.030656857848609022
119	0x3fb43f5e96c81a9e	0.07909194165413644
120	0x3faab024584cb16a	0.05212510660053023
121	0xbfc4bae13cdc3e34	-0.1619531199616958
122	0x3fb026afafaad069	0.06309030569792785
123	0x3f9c3e5b1eddabf9	0.027581619032769542
124	0x3f9905f06d9960df	0.0244367186445239
125	0xbfbb1913b76ad3be	-0.10585139491997972
126	0x3fa107302483b9fc	0.03325796552404722
127	0xbfbef5064b9d652a	-0.1209262785536295
128	0xbf97a0221beec512	-0.023071797327877404
129	0x3fac63ae4d883d11	0.055448004688623105
130	0x3fb86398b8eae734	0.09526972307767495
131	0xbfb9e2fc384d1ece	-0.10111976980726498
132	0x3fbe1b726d1e0d78	0.11760630764006474
133	0x3f95ac592beb8a4a	0.02116526918951881
134	0x3f9bd608f094a377	0.02718366592776841
135	0x3fb55dafc23ce315	0.0834607934201695
136	0xbfaae079664c8e0d	-0.05249385236518487
137	0xbfbf16a9101b711a	-0.12143952029459051
138	0xbfb9ac83cdfcf962	-0.10028861788757618
139	0x3fa081cedc95af31	0.032240356852382475
140	0xbf913949a4f0f5f5	-0.0168200976297523
141	0x3facfc4ed29e53ff	0.05661245652223811
142	0xbfa9e60cebd3fc08	-0.05058327082405617
143	0xbfa66cc2d289c87a	-0.0437985307697923
144	0x3f9bf86250ac8d9f	0.027314697431518927
145	0xbfa5703861f9f2bc	-0.0418717975235032
146	0xbfb4a4c67b26eaf8	-0.08063927179948027
147	0x3f99cd0fcb73f276	0.02519631079938952
148	0x3fa264ae10f7e41e	0.03592437703259342
149	0x3f9089b3042dae5b	0.01615028107646164
150	0x3fb6c548e1dd455d	0.08894782556787591
151	0x3fb10c9b0e284deb	0.0665985974849758
152	0xbfbe01b70a7929fa	-0.11721366887756082
153	0xbf8664befcff8c29	-0.010934345336812328
154	0xbfadc4981a0af09f	-0.0581405193129012
155	0x3fb2335f5a692037	0.07109638173381048
156	0xbfaccbcb664d6b1f	-0.05624232887085711
157	0xbfa337a72f01f7ee	-0.03753397415947278
158	0x3fb45ae1cfdc15dc	0.0795117504568092
159	0xbf9ac5efe1f3698b	-0.026145694890922704
160	0xbfa143ee57f5f349	-0.03372139762630028
161	0x3fb042c3028efe87	0.06351870357957
162	0xbfa16cdd143fb0a6	-0.03403368827989199
163	0xbf7fa304c06ddd50	-0.00772382598994821
164	0x3fb649e985a7a7ba	0.08706531060275227
165	0x3fa1c3f9a26bc2cb	0.03469829662015441
166	0xbfa13909f2d03d6c	-0.03363829697638718
167	0x3fafc7ea6b46d356	0.06207211074380463
168	0xbfb1e6c4abaa66ad	-0.06992749396376992
169	0xbfa2e985a33a87d6	-0.03693788163697291
170	0x3f9d5b88dcc94f0f	0.028669489360551966
171	0xbfafe9a9e905109a	-0.06232958764533798
172	0x3fac2d710ea9e3f2	0.05503419212340778
173	0x3fb4d73d0e4808bf	0.0814092788569125
174	0xbf941e0783f2b144	-0.01964580290648256
175	0xbf9ef3917f3dc99a	-0.03022601451034177
176	0xbfbed0a6752eae13	-0.12037124977967321
177	0xbf937874f2d97c9a	-0.019014193842278183
178	0x3f8bfaccbb080678	0.01366195626997356
179	0x3fb2b613d9c9a9cb	0.07309078280528707
180	0x3fb196a39f68c07d	0.06870482103181703
181	0xbf9ffe56f5f1f912	-0.03124366642122662
182	0xbf76a8846414eb49	-0.005531804229856282
183	0xbfa740f0452e2475	-0.04541731686101339
184	0xbfb484dd2c309735	-0.08015234307148662
185	0x3fbb2af2f228949b	0.10612409984658415
186	0x3f853db824dff7f7	0.010371626496631576
187	0xbfafaa54b950d315	-0.06184639703898235
188	0x3fc1cb422148d21f	0.13901545167176807
189	0xbf98ca5d8aafd412	-0.024209462728283233
190	0xbf9f319ecfe8c8f3	-0.030462724151399233
191	0xbfb165e5e96bdd4f	-0.06796109150660821
192	0xbf88408488c3ea53	-0.01184180776953273
193	0x3f832b078e8c5d2f	0.00935941604397658
194	0x3fa295266882c804	0.03629417444007291
195	0xbfaf2f978d191726	-0.06090997311961947
196	0x3fa3b960876f284b	0.038523689777847446
197	0xbf7d15bf9f2b6561	-0.0071008191323128364
198	0xbf9ed98ac48a3f35	-0.03012673210702062
199	0x3fb1458cab6696a9	0.06746749100292483
200	0xbf9792d6f44d8fcb	-0.023021086369581483
201	0xbf961fdd2e19eacf	-0.02160592645530351
202	0xbf9d7f864c159cb0	-0.028806780237030594
203	0x3fc2005a6cf173bf	0.14063577956667747
204	0x3fc0a04efdcb81dc	0.1298922290070682
205	0xbfb495af52398611	-0.08040900952757847
206	0xbfbc8e4e6a66e45f	-0.1115464219827955
207	0xbf7036305a0faaa6	-0.003957928537583177
208	0x3fbc10a303e2a109	0.10962885708670823
209	0x3f90177ed0b5e654	0.015714627731972478
210	0xbfa71dafbb93b143	-0.04514836468465202
211	0xbfa43f6b8fda3281	-0.03954635745057989
212	0x3fa04564ca33af3b	0.031779431994293415
213	0x3fb1b91306c23807	0.06923026003843812
214	0x3f9d9773e251a056	0.02889805859413771
215	0xbfb7fcd8d382f945	-0.09370188869340719
216	0xbfb47cc50a8604ce	-0.08002883440896655
217	0xbfb96eb74ea3fc1a	-0.09934564275680238
218	0x3fb4e9f695de84e3	0.08169499548832308
219	0xbfa825ddef43e4ed	-0.047163901765040574
220	0x3fb69d94e99a64b7	0.08834200576019922
221	0xbf88dd38854747b4	-0.012140695159278049
222	0xbfa596ee8c54849e	-0.04216714346899518
223	0xbfa23209b62f38c9	-0.03553800915652656
224	0x3fb8b14b582cea27	0.09645529654236694
225	0x3f8f94ff7b27d236	0.01542090983000675
226	0xbf915d1b5a7d5354	-0.01695673694424056
227	0xbf86d9605c610e3a	-0.01115680009764396
228	0x3f7c1c710218e7f4	0.006863061369182678
229	0x3fa601ae632026ec	0.042981576538364624
230	0xbf9f6d20204b8254	-0.030689718218925258
231	0x3fa1abd870082723	0.034514201808703036
232	0xbfb0972a241befd1	-0.0648065889508296
233	0xbf64ae0205ce2df2	-0.0025243796830574034
234	0x3fb1659c7a4105dd	0.06795671448437397
235	0x3fae3219fee7971b	0.05897599445942899
236	0x3f9fe9bcc350fc4b	0.03116507475010292
237	0x3fa9ae4fb01e0597	0.05015801453465512
238	0xbf982144fc300cd7	-0.023564412967982697
239	0xbfa77b771b088c86	-0.045863840150809174
240	0x3fa6bd9c67baf72e	0.044415366804498965
241	0xbfb61b5b2493f9ae	-0.086354919843848
242	0x3fa1d1697cc8040e	0.03480081222733854
243	0xbfc01db20f924afd	-0.12590623627018963
244	0x3fa6703c801a1742	0.0438250452398692
245	0xbfbc5f0b84ee3723	-0.11082527156233062
246	0x3faa722399b6fe42	0.05165206195260598
247	0xbf859665686c856b	-0.01054076409269796
248	0xbfaa880a900786f3	-0.05181916244670317
249	0x3f92cb0046e7c268	0.018352512672154125
250	0x3fa32207130676e7	0.037368985245150026
251	0xbfb37e7c8d740087	-0.07614878133245116
252	0xbfb3edd1ebda8b10	-0.07784759529253571
253	0xbf88621c54b13cf6	-0.01190588124714374
254	0x3f904713fc4b42f5	0.015896141313365104
255	0xbfa1404c94c3904d	-0.03369368854490116

cnn2.bias f8 [8]
0	0x3f3a1eadd7b8155b	0.0003985571308649704
1	0x3f2a2d140913432b	0.00019970769475332584
2	0x3f54c4e1ae395c0e	0.001267643347906636
3	0x3f48543a912b74b2	0.0007424627277391653
4	0x3f3682cf2dda6e6e	0.0003434902008423228
5	0x3f44a86c74d3a7f7	0.0006304292270702384
6	0xbf32ee3ef6bcb104	-0.0002888587684875129
7	0x3f30fb02b293f655	0.0002591020189156347

cnn3.weight f8 [32, 8, 17, 4]
0	0x3fa767ac06a344b1	0.0457128294089072
1	0x3f7590c024c13b6f	0.00526499801715273
2	0x3fb01f3098457f66	0.0629759189373523
3	0xbfa2d361a671c51a	-0.03676896244804535
4	0x3f7f4490f8e0ada7	0.0076337492919650645
5	0xbf93842a0a4f0392	-0.019058853987874942
6	0x3fc47c0ecb61d784	0.16003594332476834
7	0xbfa8011fc948da7f	-0.04688357669913489
8	0x3f656421f7f279fe	0.0026112235496633654
9	0x3f9b50cf80665c79	0.02667545529547197
10	0xbfad90e0a49d66bb	-0.05774595269640544
11	0x3f6aa11f9eca0822	0.0032506578048137206
12	0x3f8409df8f062f9b	0.009784456779719444
13	0x3f89c6a103532662	0.012585885919537524
14	0xbfbe0bb7f830e334	-0.11736631211614396
15	0x3fa81d3ea39c2328	0.04709811923209478
16	0xbf606a08bf89a39c	-0.002003686033550568
17	0xbf9e0e19f3e867e1	-0.029350667488053154
18	0x3fb011ebdcaa90d7	0.062773457883455
19	0xbfa4419e8a699498	-0.039563135524795345
20	0x3f73fa4ccedd26c8	0.004877376586429789
21	0xbf761ca98aefe561	-0.005398428226720626
22	0x3fc019669702d60f	0.12577516912067252
23	0xbfba888474a8ee64	-0.10364559028760706
24	0x3f6a9ed295a0a1cd	0.0032495606401605538
25	0xbf6e34a498566bfc	-0.0036872114894328494
26	0xbfa9e7468412b3fe	-0.05059261667461355
27	0x3faa6f9a1e2208b7	0.051632705858553
28	0xbf9cfa0f32838bb9	-0.028297650774117254
29	0x3faa51f1d994fe93	0.051406438646606344
30	0xbfc0e7aebee9a881	-0.13207039186392325
31	0x3fba783ebf60c99c	0.10339729473415676
32	0x3fa6b6b63bc356c4	0.04436273078469591
33	0xbf9ad96b75e756dc	-0.02622001559378516
34	0x3f912af7b2f819e5	0.016765470789346443
35	0xbfa046668888d093	-0.031787113348770955
36	0x3f92839c8337a3e3	0.018080182560797808
37	0xbfaf8d6eb63b1728	-0.061625919098828696
38	0x3fb7356df3c6c1b9	0.09065901948520762
39	0xbfc1afd361ada924	-0.13817827481700207
40	0x3f8893571a879912	0.011999779221650662
41	0x3f68f102e41b1fe0	0.0030446106401065126
42	0xbfa4fc57386c938a	-0.04098770679255555
43	0x3fb2f61839ea4abb	0.07406760610528355
44	0x3f2af040b0d73faa	0.00020552434618403603
45	0x3fa1cbbcccf10e24	0.03475751878479752
46	0xbfbcb09ce4aad96c	-0.11206989844035825
47	0x3fc2a3b6c34b320e	0.14562115226580413
48	0x3f83ecacbaafd7d7	0.009728764960509935
49	0xbf921f9d49bd4733	-0.017698724389737918
50	0x3fa06c339acadd04	0.0320755125480279
51	0xbfb72784dd29d05c	-0.09044676208014962
52	0x3f87f23c904d8cbb	0.01169249835374441
53	0xbfb0e6fe75970014	-0.06602468844266723
54	0x3fa2798b0a49193c	0.03608355045848774
55	0xbfc449e7c3b0f35f	-0.15850541167483365
56	0xbf229ecc36ffa9c9	-0.00014206164223591462
57	0x3fa9c6d8a0e09999	0.050345201147410985
58	0xbf91d8a30590ca05	-0.01742796632260914
59	0x3fb6e7d3652bb168	0.08947488040911866
60	0x3fa938376056308c	0.04925702143654673
61	0x3fb767052b75706d	0.09141571341518935
62	0xbfa5270afc1864e8	-0.04131349875769691
63	0x3fcc8caf54015478	0.2230433616811387
64	0xbf99c1e081a2cf87	-0.02515364447818016
65	0xbfb2b13ea0ac7ac6	-0.07301703856181083
66	0xbf978a7bc6c39e7d	-0.022989210135078587
67	0xbfbe23513f3f708c	-0.11772640031944287
68	0xbf26f084aa09f22a	-0.00017501468120774524
69	0xbf92f06a08090253	-0.018495232334546263
70	0xbf87caaa7999ff8a	-0.011617023311600656
71	0x3fa21dcb36afb37a	0.03538355867917793
72	0xbf873762e55b415b	-0.011336109756854887
73	0xbf80cf3bf83b88a1	-0.008207767975765558
74	0xbfa7078f9114f6ed	-0.04497955938357543
75	0x3f8ebbe18f510bb3	0.01500679224603183
76	0xbf6e74b8acb60ddf	-0.0037177664686980218
77	0xbf9907e64df8d8bd	-0.024444197186505024
78	0x3fa8ba96734dbd4a	0.048298551154284455
79	0xbf88ea9a26e59f0f	-0.01216621810154053
80	0x3f9e0a81c506bfac	0.029336955690893937
81	0x3f82992fac8a39f2	0.009081242039681723
82	0x3f983eed5fcf36b6	0.023677548382514423
83	0xbfa0c4d2eec003ab	-0.03275164760999102
84	0x3f731b88f05b5ab3	0.004664931218676105
85	0x3f7d485e53b9897b	0.007149094071424829
86	0xbf9b0e8da5340030	-0.02642270394153473
87	0x3fa52696ea0a80d0	0.04131003958650725
88	0xbf9f1ea314802a10	-0.030390308500537755
89	0x3f8c0407a657bd79	0.013679561389806182
90	0xbf9de82d59570b23	-0.029205998018151946
91	0x3f7b339377c59e67	0.006640983625721831
92	0x3f9aa8dd1535f009	0.02603478853187372
93	0x3f86253deae5145b	0.010813220721170127
94	0x3fa770a1aea6f9ec	0.04578118569360243
95	0x3f6516a13bcef05b	0.002574267301012551
96	0x3f7c3b026afb9a81	0.006892213292053585
97	0xbf9b1d14339c6368	-0.026478114748076292
98	0x3f519934d1b3e6d9	0.0010741248905205474
99	0xbf6e47aadb32ae96	-0.003696283057782977
100	0x3f99e51e43bd637c	0.025288079151639206
101	0x3f744d3b786d51e2	0.004956466966934832
102	0xbf7cdbb898653736	-0.007045479846352445
103	0x3fa19fb28ce36141	0.03442151994539922
104	0x3f9536b14fb3033b	0.02071644829698303
105	0x3f50f9f5ef565c0a	0.0010361577709312474
106	0x3f835c14b609fc6a	0.009452974133863108
107	0x3f7df3a95ec9c69d	0.0073124519372968185
108	0xbf91142a2b93e2c5	-0.016678484830637403
109	0xbf47a7251f73a26d	-0.0007218295349079147
110	0x3f9ee9ca5d902889	0.03018871494354206
111	0xbfa4362322e5ea78	-0.039475534448645655
112	0xbf8eff865841a5ea	-0.01513581234776758
113	0xbf7dfc3b2d372096	-0.007320624502831793
114	0xbf73352b1458acdb	-0.004689377097331272
115	0xbf82afb7c44b8546	-0.009124217679927892
116	0x3f9154e29192b702	0.016925373206212242
117	0x3f7c8eaf00d02373	0.006972011190563221
118	0xbf9923eec00743fe	-0.02455113455818391
119	0x3fa13360fd3ab603	0.033595114623818055
120	0xbf61ec81130147da	-0.002187969301339782
121	0x3f83de468398d82f	0.009701300517104354
122	0xbf6188bfa7176b63	-0.0021404021469896713
123	0x3f768f1a865492b3	0.005507567989557915
124	0x3f9782277d351fb1	0.022957436577854377
125	0x3f8bde48258ba3ab	0.013607562681004234
126	0xbf4ab9c31b61b6ad	-0.0008156016035749302
127	0xbfaa9ef1e43c7038	-0.05199390326581049
128	0xbf9e583f84c3d93d	-0.029633514860472266
129	0xbf98642a43eb8706	-0.02381959952879866
130	0xbf9b2833f2e8a3e2	-0.026520549488996077
131	0xbf774286aab648b4	-0.005678678552970041
132	0x3f950a2de5ae6da6	0.02054664339412473
133	0x3fa8dddcb36f1632	0.04856767359119053
134	0x3fa2c543900001b2	0.03666125424206558
135	0x3f9aaf32667f94de	0.026058948045734158
136	0xbf6cb45cc493cb21	-0.0035039722321185273
137	0x3fa05f5406d69810	0.0319772966716273
138	0xbfa12c54c8711d6d	-0.03354134508895865
139	0xbfa71f898c59001e	-0.04516248548725364
140	0xbf6b3edf1c06b40a	-0.003325877915094204
141	0xbf8b7772a7d81179	-0.01341142248839654
142	0xbf5ffed456c43501	-0.0019528459188820626
143	0x3f7c27f17c041ce2	0.006874030397973048
144	0xbf97b328c024b27f	-0.023144375541209513
145	0x3f77a0b78bbf2715	0.005768506027331606
146	0xbf72bb1a6127e137	-0.004572966618518407
147	0xbf619397795a2eaa	-0.002145572517127399
148	0x3f9f0e7bc77b7f60	0.03032868771595021
149	0x3fa1a3a3402a5f5b	0.034451581556992315
150	0x3f9140ef648e4c87	0.016849270355646453
151	0x3f8c5749a5120da6	0.013838363027622713
152	0xbf544800a9a0b8a2	-0.0012378698797977168
153	0x3f6ff5345c27ef8d	0.0039011023193306683
154	0x3f91695af7f3700d	0.01700346125004164
155	0x3f516a1ccaf37255	0.0010628968409981583
156	0xbf9259497fd57dfc	-0.0179187282823232
157	0x3f89dcf0d356ffd0	0.01262844223936091
158	0xbf6a754648f7106e	-0.0032297489885611463
159	0x3fa733880b838126	0.04531502857730833
160	0xbfa1e838c5a97d94	-0.034974836472197485
161	0xbf93bbf4caeeac1c	-0.019271683584218477
162	0x3f82ba29914f6321	0.009144139048588297
163	0x3f84553c095d9256	0.009928196941197214
164	0xbf8fa0fe381f9bf8	-0.01544378861212968
165	0x3fa2d369a98159f3	0.03676920122295604
166	0x3f9296541f16e56a	0.018151583097027503
167	0xbf84653910ab436e	-0.009958692380139769
168	0x3f97210ddb43bcc6	0.022587028987740586
169	0x3f8fd60f98266227	0.015545007544276747
170	0x3f874c5d992e450c	0.011376124608235581
171	0xbfa2558787fa53c2	-0.03580878767858266
172	0x3f986a5c017a6361	0.0238432289030216
173	0x3f831ee42e05b556	0.009336264280785638
174	0xbf81c89f145a177c	-0.008683436211196265
175	0x3f969ceffebfa5d6	0.022083043979284366
176	0x3f886509f4b74887	0.011911466389310966
177	0x3f737045e990148d	0.004745743842254358
178	0x3f9f7182566ae412	0.03070644047213384
179	0x3fa17305589de9e9	0.03408066469906485
180	0xbf9a99b8d987ea1f	-0.0259770281572661
181	0x3f53cc1bd0766066	0.0012083312629780573
182	0x3f817665d73fdb26	0.008526607161895305
183	0xbf70e43c28374696	-0.004123911846777203
184	0x3f9bbaf9f1d0d37c	0.02708044565607136
185	0x3f7340e7f8b9a879	0.004700571192737362
186	0xbf89c8c60325098d	-0.012589976283042837
187	0xbf985cc41992a4ab	-0.023791374264565828
188	0x3f95276fb1bb1ff0	0.020658250067555117
189	0x3fa2804a4267c605	0.03613502560245866
190	0x3f8bd947a0a7dfde	0.013598022070240686
191	0x3fa3fa3e9b282663	0.0390185894394335
192	0x3f83daffa031ec75	0.009695050312293877
193	0x3f9e4f12d0d98548	0.0295985164615378
194	0x3f887542eeebbac7	0.01194240848186946
195	0x3fa1ef482eb313a9	0.03502870149672017
196	0xbf8651377a41e41a	-0.010897096079348901
197	0xbf9083ed59e429b8	-0.01612826214935989
198	0x3f9884889161d182	0.023943075059337023
199	0xbf82e236873b03f5	-0.009220529558094251
200	0xbfb391863d0ea15c	-0.07643927565243785
201	0xbfad684e0a3ec262	-0.05743640780508909
202	0xbf9b51f95f837171	-0.026679893927267388
203	0xbfafaa361aa9bd22	-0.06184548449970807
204	0xbf7d556386cec044	-0.007161511207343155
205	0x3f815724be399663	0.008466994338230898
206	0xbfb1d36682e48ec5	-0.06963196464181028
207	0x3fa16d3f8ca8ff23	0.0340366229252125
208	0xbf70494a9c51ec9e	-0.0039761461713353746
209	0xbf99976a7cb4eeff	-0.02499166856908541
210	0xbf9fed735f4c4c18	-0.03117923993256619
211	0xbf9c9a97dbbe3cb1	-0.027933476244979164
212	0xbfa2b74b8b439bf7	-0.03655468058587268
213	0xbf993eee7e4b8cd0	-0.024654127558176253
214	0x3fb4e7f6d66824d4	0.08166449293652828
215	0xbf7bf1690024c5fc	-0.006822023542825569
216	0xbf80cd293e205c57	-0.00820381375164751
217	0x3f9d3d9230764474	0.028555187423596043
218	0xbf798bd9e0c88193	-0.006236888014001701
219	0xbf98c432403ab4ef	-0.024185929460760865
220	0x3f8e3d1ae5c23108	0.014764986168551278
221	0x3f91b7f5536d11b3	0.017303307740137174
222	0xbfa7a52c50141e9f	-0.046182045722216396
223	0x3fa902d29bb0a4c5	0.04884966040146702
224	0x3f95ee921d2bbd69	0.021417887716720516
225	0xbf95a5367ac3b628	-0.021138049357366878
226	0xbf9a122230fd32fa	-0.02545979904180038
227	0xbf822014ec976d09	-0.00885025355358106
228	0xbf8bff51db431f37	-0.013670577529765289
229	0xbfa15a3f1147e16c	-0.03389165006587089
230	0x3fb49bf4ce23fcb0	0.08050470383385533
231	0xbfa945a428112958	-0.04935944546794485
232	0xbf855570f52e47ca	-0.010416872484515855
233	0xbf80de7ffd3e1fbd	-0.008236884990551968
234	0xbf7c838ce44229f7	-0.006961393697688659
235	0xbfa2793ce2cef647	-0.036081221281602675
236	0xbf920c0fa0f482f5	-0.017624134253426644
237	0x3fa545c36f88059f	0.0415478776594782
238	0xbf9fd61af3fbb41f	-0.031090184346727164
239	0x3f986b54e5cb1ae5	0.02384693768069725
240	0x3f98eade2d17dffd	0.02433344984271456
241	0x3f7dc7a61c87d3f2	0.007270478127328938
242	0xbf9ba4b8a58cd7d6	-0.026995549301510234
243	0x3f900d560baaff2b	0.015675873243480225
244	0x3f8f0cdfae2b1d24	0.015161273482034839
245	0xbf84b02e60943ad5	-0.010101663896901961
246	0x3f9bf8c213307a81	0.027316124364114906
247	0xbfa65add488740bb	-0.04366199026446923
248	0x3f60cf46f41bd152	0.0020519624530327763
249	0xbf539a6ba2dced5c	-0.0011964846739392554
250	0xbf51098c8a017fa6	-0.0010398743106847324
251	0xbf81ae0cf738b618	-0.00863275651416999
252	0xbf96c80a72519950	-0.02224747011896372
253	0x3fa0ac5fb64b6374	0.03256510830187312
254	0xbfab172a9945e925	-0.05291112061509499
255	0x3fb38045202c3fdb	0.07617599521131473

cnn3.bias f8 [32]
0	0xbfcbd4a9ae21a096	-0.21742745401866576
1	0xbfb6af44c391dda6	-0.08861188673642192
2	0x3fb6ad265cf86866	0.08857955713065876
3	0x3f94021e338ab622	0.019539329429497106
4	0xbfaa7f74fec2866c	-0.051753669832817234
5	0xbfb7101412039eb8	-0.09008908691213946
6	0xbfae78490722b6cd	-0.059511453743977684
7	0x3f94215715760b21	0.019658432659990347
8	0x3fba78b2a5e4c71d	0.1034042029393984
9	0x3fc0546f1a4c8e03	0.12757672104008586
10	0x3fb6bf32fff70617	0.08885496853965723
11	0x3fa0c4b0fde9939f	0.03275063609616002
12	0xbf99d0cd285533cd	-0.025210576616973946
13	0xbf9f1ada5b25d03f	-0.030375873387541438
14	0x3f6d79a53af55e0f	0.0035980441240715043
15	0x3fae25b246936279	0.05888135062713657
16	0x3fb9518cef251b68	0.09890061224460356
17	0x3fbabc9ea44d6004	0.10444060813222228
18	0x3fb1f41971c03720	0.07013091113205094
19	0x3fa5265622852b26	0.04130810901059183
20	0x3fbb44ad5e6335b1	0.10651668123610737
21	0x3fc7799074fb5c3c	0.18339734756475135
22	0x3fc97da67a146b99	0.1991470428555118
23	0x3fc11ae65542f657	0.13363341487085975
24	0x3f86079692bf4aa2	0.010756660798425802
25	0xbfb7c03bfecae3a6	-0.09277701349755194
26	0xbfc0d10e4c634aa5	-0.13137987832904688
27	0xbfb0952d981746c7	-0.06477627719075506
28	0x3fad2b8d936ae9d4	0.056972908253971305
29	0x3fc431ba70224d6c	0.15776758647244138
30	0xbfb3025ae19c25b1	-0.07425468452506469
31	0xbfd19317818ab6e4	-0.27460277224132157

cnn4.weight f8 [1, 1, 3, 3]
0	0x3f6e953683556b17	0.0037332596499885062
1	0xbf9e4814d07f5a00	-0.02957184336249874
2	0xbfb574cefaa8b9bd	-0.08381360644918963
3	0x3fc52d7a3a683f93	0.16545036174693148
4	0xbfbad9a5f80c1e95	-0.10488354974597265
5	0x3fbafffa08fb82d1	0.10546839446352442
6	0xbfa98df92788de91	-0.049911295009619334
7	0xbfbc24e2158b1c7f	-0.10993779207193376
8	0x3faa8c8abf2b398d	0.05185350020984734

cnn4.bias f8 [1]
0	0x3f66ae83c212a0dd	0.0027687619591071203

linear.weight f8 [16, 900]
0	0x3f9913f60f7f13c1	0.024490208335709477
1	0x3fc6142525920b2a	0.1724897798013328
2	0x3fbe141d78f2123f	0.11749443247578827
3	0x3f8061ed032e4cb6	0.007999278697559436
4	0x3fa8229f9bf07159	0.04713915613703774
5	0x3fc3e140d9f0546d	0.15531168595831293
6	0x3fb877e5421dfd12	0.09557946075618798
7	0xbf706e07fca7ebbd	-0.00401118392846461
8	0x3fb6a952ad5c923c	0.08852116329632848
9	0x3fbe18b82c666bd6	0.11756468852983856
10	0x3fb6683276393e48	0.08752742182081719
11	0x3faa00cf86aab2f2	0.0507874347580123
12	0x3fb7b63c8c513c15	0.09262445855823416
13	0x3fc0edba729bc4f7	0.13225489231221108
14	0x3fb408239b086a54	0.07824919257147062
15	0x3f8a0136c37487c8	0.012697627868479958
16	0x3fb30e562536622d	0.074437507710521
17	0x3fc42f9e055f29c5	0.15770316374103124
18	0x3fbb7182e4f99181	0.10720079508025117
19	0x3f85e67cb506e006	0.010693525576115814
20	0x3fbe29fb75321541	0.11782809840413667
21	0x3fc1f63efa2acc1a	0.14032733168787176
22	0x3fbc03ad9f8b9b49	0.10943112511777743
23	0xbfb2b4d733813e43	-0.07307190902178555
24	0x3fb82cca48845d00	0.09443344374118467
25	0x3fc8a180e4247a6a	0.19242869510431443
26	0x3fb5e237d4b2c2e8	0.0854830641062666
27	0xbfb3762780b15184	-0.07602164165411379
28	0x3fc32c36ee0e9ab0	0.1497868215930871
29	0x3fc927de59bfa623	0.1965291918016173
30	0x3fc3e09c115c2cad	0.15529204223307627
31	0x3fc52ed03a4d6f56	0.1654911312751845
32	0x3fc3ba6427fdcce2	0.15412570908265538
33	0x3fc39ef342a25a2b	0.15328827623007277
34	0x3fc50f144b667c5c	0.1645226829686831
35	0x3fc76c710c21257f	0.18299687473544776
36	0x3fc908da7c6f5589	0.19558268619463728
37	0x3fc32d65294ac906	0.14982285038201598
38	0x3fc031f359738415	0.1265243708394627
39	0x3fbe6c674c23155b	0.11884160622419897
40	0x3fc955a16399cd2b	0.1979257332164733
41	0x3fbca1d41a4a0f4b	0.11184430734470856
42	0x3fbf654464191871	0.12263896411704579
43	0x3fc68d5686fcfe8e	0.17618829337333292
44	0x3fc080202fb6296f	0.1289100869146966
45	0x3fc0dd288888138b	0.13174921671466353
46	0x3fc34623d168793d	0.15057800030712967
47	0x3fc1481c45c08dae	0.1350131359659889
48	0x3fc70be5ca0cd2e6	0.18005058637358856
49	0x3fc3d3a7cb1b1b69	0.15489671151427878
50	0x3fc2a1017688c9c5	0.14553850448426267
51	0x3fc1d8369663a459	0.13941080420707655
52	0x3fc1bacefde63cce	0.13851344487600276
53	0x3fb572bdf88af5a6	0.08378207509937016
54	0x3fc787c1bd031a74	0.18383046845538653
55	0x3fc2a42e01b76555	0.1456353672390757
56	0x3fc5de02e13ab5a0	0.17083774564291065
57	0x3fc822c9d8253337	0.18856165937395428
58	0x3fccdb3bc2ccb102	0.2254404736680798
59	0x3fb3f45acf905b7a	0.07794730727651525
60	0x3fa3ef81f3fe8015	0.03893667319721331
61	0x3fb6b02cb613a87b	0.08862571187242622
62	0x3fb656d318d0f3c3	0.08726233821739897
63	0x3fc12be3db939202	0.13415191861635384
64	0x3fbd9094cbc0da61	0.11548738455244624
65	0x3fb1afad86ed2162	0.06908688110445874
66	0x3faf4f1c65bd7f78	0.06115044347711679
67	0x3fc12f3120f4d70d	0.13425268277358562
68	0x3fb4a257e0ea4401	0.080602161799348
69	0x3fb7925f72de6483	0.09207722238933695
70	0x3fbe7ef2233352ec	0.119124539941662
71	0x3fb2832484914340	0.07231357800016003
72	0x3fb6f4e596c94507	0.08967432910255378
73	0x3fb6687cb91a61a6	0.087531848136115
74	0x3fc56d4753091b48	0.1673974185416347
75	0x3fb6503b3f6ff044	0.0871617345691798
76	0x3fb64fae62ed7a74	0.08715333857751678
77	0x3faff921fe15fc6e	0.06244760729440989
78	0x3fb38f145702d0bb	0.07640196918765955
79	0x3fb7c5863b9790be	0.0928577323425683
80	0x3fb26c533a6b934a	0.0719654100062829
81	0x3fbc403c840b1e46	0.11035516952244348
82	0x3fb72ca0f5c375d6	0.09052473068319186
83	0x3fba959ac3ec6c0b	0.10384528430260802
84	0x3fb404956842ff33	0.07819494052364177
85	0x3fad98428e60923a	0.057802276496918784
86	0x3fac5f3c93f16de4	0.05541409784265364
87	0x3fc16758eabb5cee	0.13596641026990802
88	0x3fbec43837d5b42c	0.1201815735164053
89	0x3fb3cdb1ec7c1576	0.07735740684082323
90	0xbfa26c2c4175b65f	-0.035981543532085374
91	0xbfa32bed66200234	-0.03744451400416829
92	0x3f74b6f0616ee6c9	0.005057276713097366
93	0x3f6c709fa175da77	0.003471671847076248
94	0xbfa41f781ccac168	-0.03930259086098681
95	0xbfa845bd8c20e441	-0.047407077174689956
96	0x3f8f25afe19e1ba1	0.015208601067355167
97	0xbf22ddf485377e1c	-0.0001439438807286788
98	0xbf62a8ced243ade8	-0.0022777595023535276
99	0x3faaa09bb6cc2a06	0.052006593765401773
100	0xbf83f0382f35aea8	-0.009735526028371425
101	0xbf91e9d4858dc02a	-0.017493553782912986
102	0xbfabb0aa999ac483	-0.054082232714230315
103	0xbf963005cbd17590	-0.02166756683833665
104	0x3f9bd3d26bd685e9	0.027175224143894203
105	0xbfa6d4b271e16d74	-0.04459149971145396
106	0xbf93614ed071cf24	-0.01892588755840942
107	0xbf84261648af1fcc	-0.009838270276205117
108	0x3f6641d7b0295054	0.002716943040733036
109	0xbfa6df879c3a3134	-0.04467414648124404
110	0xbf6636e80b88e1b0	-0.002711728299143533
111	0x3f8107d5bf3826db	0.008315725229312168
112	0xbf909ef6fb6eac8a	-0.016231402488909676
113	0xbfa1acf589514d90	-0.03452269841423139
114	0xbfa35a79253e98f3	-0.03779963092465435
115	0xbf91848435472ea1	-0.017107072593531062
116	0x3fa1ab9e874fde43	0.03451247598416931
117	0xbf9343a57bf1068c	-0.018812738122739023
118	0xbfa608ab9ca24392	-0.0430348995879576
119	0xbf664daadacfe4f8	-0.0027225815779244843
120	0xbfc0f54afcb1d5e9	-0.1324857457981772
121	0xbfc22d8d6c580495	-0.14201514997697431
122	0xbfbbf78641c704a1	-0.10924567323583513
123	0xbfb703bc81cdc266	-0.08990076226269536
124	0xbfb6be0b82b89834	-0.08883735600883896
125	0xbfa740454f610d89	-0.04541222185118971
126	0xbfb8bcc11599f08a	-0.09663016106964242
127	0xbfbbf510717b5ab2	-0.1092081334166817
128	0xbfbbd37dbf473fcf	-0.10869584960823818
129	0xbfb835fd24e0bdc2	-0.09457380438174481
130	0xbfbd12de801f2217	-0.11356917026490297
131	0xbfb967283e38f0a9	-0.09923030394651512
132	0xbfb3ae6442a2a26d	-0.07687975527609021
133	0xbfb4bd8aad3177b9	-0.08101717689848344
134	0xbfb93345bed44cab	-0.09843860539358455
135	0xbfb94814e9ba901a	-0.09875612932461345
136	0xbfb3614160c2a867	-0.07570274936975495
137	0xbfbc3ac671d77075	-0.11027183799109415
138	0xbfb6259642a7dee0	-0.08651103141152872
139	0xbfbb1198bcaad968	-0.10573725324761585
140	0xbfb69edf10063162	-0.08836168423858262
141	0xbfae6df47b25130d	-0.059432640106512925
142	0xbfb4671409e72b3a	-0.07969784967205565
143	0xbfafa7f916ce35c4	-0.06182840731990383
144	0xbfb7657f2a8aa4be	-0.09139246739018156
145	0xbfb957fee4767289	-0.09899895742132449
146	0xbfc0e692dc6d6e69	-0.13203655016956198
147	0xbfbedd85c60e3bbc	-0.12056766591398022
148	0xbfbd9a204f4a8de4	-0.11563302932568537
149	0x3f8d58bcc47900b5	0.014329409356946913
150	0xbfb15d79f3f9f9a2	-0.06783258635002778
151	0xbfb712434f71a18b	-0.09012242021129262
152	0xbfb4b9d0595bce4e	-0.08096029454810003
153	0xbfb72ffa3a32f517	-0.09057582779765415
154	0xbfb11b2273572587	-0.06682029071739325
155	0xbfb086f66f3c4348	-0.0645593663759999
156	0xbfb2a10cbdc19df1	-0.07276992447588505
157	0xbfb9870aa3fbaad1	-0.0997168207501702
158	0xbfb8c217331cd813	-0.09671158788555116
159	0xbfb87e25d8510670	-0.09567486315884266
160	0xbfbc44a6e56e8aa6	-0.11042254544603711
161	0xbfae9966f5c36cb5	-0.05976411581078748
162	0xbfb4f1894236c4c9	-0.08181054941703104
163	0xbf956c3e6bfb34c4	-0.020920729962018894
164	0xbfb43ecd149be3a7	-0.07908326867244729
165	0xbfb4b2e42b6c994e	-0.08085466442262154
166	0xbfb909093410216e	-0.09779412766522963
167	0xbfb1b31246e5b551	-0.06913866263285696
168	0xbfbfe8206e421bcb	-0.124635722082629
169	0xbfb49ef8e5320bb6	-0.08055072398751303
170	0xbfbd3e658078fe74	-0.11423334490336307
171	0xbfb4168e890b34b1	-0.07846918912692293
172	0xbfb2a2e70987a463	-0.07279819471990971
173	0xbfb33e14e3b9e6ca	-0.07516604003640306
174	0xbfb43ff0ac2f285f	-0.07910064891544398
175	0xbfbcb9e01c37e1a9	-0.11221123398707412
176	0xbfc218108d31571a	-0.1413593949716237
177	0xbfad88f57b7b1417	-0.05768553860028918
178	0xbfa922140678db32	-0.049088121213961236
179	0xbf7822cc9b22b478	-0.0058925621434983075
180	0x3f9f1a8641e7364c	0.03037462022057573
181	0xbf94bfe43cd3f13a	-0.020263258183136325
182	0xbf9ffd86bad4a549	-0.031240563538778052
183	0xbf799556c1bd3e55	-0.006245936292387085
184	0xbf8614f43a57b2d2	-0.010782154112314233
185	0x3fa233e9895174f5	0.035552309048151466
186	0xbf4e34bb1802128a	-0.0009218133491378383
187	0x3f8648e0be6df1d8	0.010881191073843263
188	0x3fb0c1cb3977fd38	0.06545705941242808
189	0x3f816d752e7af79f	0.008509555321662364
190	0x3f9ca49ae498b8cb	0.02797166843645797
191	0x3f92f7501fc8138a	0.01852154916743446
192	0x3f96b551c0269c2a	0.022176053383784623
193	0xbf97f7f7e8c553a9	-0.023406861860468507
194	0x3f88262cb15c863d	0.011791562235489933
195	0x3fa3d79bde9af17a	0.03875434009885033
196	0x3f91a9ffb9dde975	0.01725005695286926
197	0x3fa250e150a6f980	0.03577331647419424
198	0x3f87aad8574d4d28	0.011556329883808461
199	0xbf61e5930da67d06	-0.0021846649298847857
200	0x3f86a60daf849e1a	0.011058909338841839
201	0xbf7129f50a9de55b	-0.004190404122590276
202	0x3f79843cce158f1a	0.0062296271511035565
203	0x3fa67beee505a5c6	0.04391428514174893
204	0x3fafd622b513c6c7	0.06218059978881523
205	0x3fa11d2a6ca4c184	0.03342564178672361
206	0x3fa0be0a4920e94f	0.032699891497446225
207	0xbfa0da6e3558c1fd	-0.03291649247364956
208	0x3f8a54906d9af175	0.012856605858694728
209	0xbfb1792c62534269	-0.06825520897405969
210	0x3fbfba30ffdcf547	0.12393480536134859
211	0x3fbdc692504a00a7	0.11631121120626862
212	0x3fb9f8138264742f	0.10144159253509664
213	0x3fb9f565d12f952f	0.1014007220943156
214	0x3fb7a1222e2e9cab	0.09230245234958782
215	0x3fb5153523d74292	0.08235485196133599
216	0x3fb78cc9bd193d44	0.09199200503029653
217	0x3fb9ba5c966d6349	0.10049990341702854
218	0x3fb9a5a97b7d3bec	0.10018405213234843
219	0x3fb80b616aeb66e3	0.09392365322437572
220	0x3fb28284c2093dec	0.07230405556878566
221	0x3fbce8deaeba76ef	0.11292831197576068
222	0x3fb75ef74dfa850e	0.09129281667494046
223	0x3fb6e9a255c2fbeb	0.08950247377195779
224	0x3fb8bbca7467e594	0.09661546079578037
225	0x3fbc912348754d4f	0.11158962744712152
226	0x3fa4bb235b6312a3	0.0404902504974747
227	0x3fb063fdadebbd2b	0.06402574058642034
228	0x3fb9bad72d3d4b5d	0.1005072102973776
229	0x3fb876bed6172ec6	0.09556191183872462
230	0x3fb9d83793bf48b4	0.10095546109303905
231	0x3fba48052546b773	0.10266143951477406
232	0x3fb94f04c91d7f31	0.0988619795803032
233	0x3fbd6994b46a846a	0.11489228634538198
234	0x3fb805d7e67cf694	0.09383916260864061
235	0x3faaf649b84f0b8f	0.05266027808058659
236	0x3fb8b4b5005dcf59	0.096507370557274
237	0x3fbc566f7ea1f89f	0.1106939014589181
238	0x3fb98f4c02a0f83a	0.09984278740100275
239	0x3fbd64afeb695ccb	0.11481761453011356
240	0x3fb712ca65618f6a	0.09013047194599513
241	0x3fb6f659fdcfbfa2	0.08969652601785907
242	0x3fac4690fe067ee3	0.05522587872405695
243	0x3faf8c825953843b	0.06161887493522796
244	0x3fb2248417f093aa	0.07086968979326849
245	0x3fb31cefd7547066	0.07466029173923658
246	0x3fb8cd1a756fcfc6	0.09687962882145404
247	0x3fb37c9e33b2162a	0.07612026941395614
248	0x3fb80d8d3aea8c27	0.09395678223022284
249	0x3fb79e067dafd5c7	0.09225502556349517
250	0x3fb4d196b3de5738	0.08132306948968171
251	0x3fb6502b4795a649	0.08716078279180652
252	0x3fb3275bc9a40ac4	0.07481931374426681
253	0x3fb7c49de2b9d2ef	0.09284388337421111
254	0x3fb69670532a0e53	0.08823301344278293
255	0x3fb24d0288e9500f	0.07148757784426628

linear.bias f8 [16]
0	0x3fd5832019d3df19	0.33612825891712955
1	0x3fdcc2f33ca57545	0.44939881250850916
2	0x3fe02e615d7e4591	0.5056616617240924
3	0x3fe2438e70dd9832	0.5707466320425338
4	0x3fd538f0bc0330f2	0.3316003643092379
5	0x3fdd3a06cdb101ef	0.45666666113905213
6	0x3fe084df569c80be	0.5162197772624706
7	0x3fe2942782a8a570	0.5805852462701022
8	0x3fd657961c40ec8a	0.3490958476938394
9	0x3fdc7b5c51968ee3	0.44502933471288325
10	0x3fe00c808fa802e3	0.5015261464869493
11	0x3fe225ac0c395d5a	0.5670986403228355
12	0x3fd55f3f3fef12d8	0.3339384197573003
13	0x3fdd03b66c5c2a78	0.4533515985682821
14	0x3fdff505381c9427	0.49932985763217846
15	0x3fe2b0ffe9ef1e36	0.5841064042114741
