checkpoints/CNN.NINO.0324154137.pth (torch_old, 260112 bytes, 10 tensors)

cnn1.weight f8 [4, 1, 5, 1]
000000 1f 62 56 49 b9 68 34 bf bf 3d 36 72 2b 15 51 bf
       -0.0003114178046757249 -0.001042644908782239
000010 e7 8f ae 32 8a 46 3d bf 5f fb 43 fc 53 d4 3b bf
       -0.0004467093846705059 -0.0004246430437574912
000020 53 77 ea b3 77 61 22 3f 2c d7 04 3d 49 e1 bf 3f
       0.00014023386207367514 0.12453134288520279
000030 17 27 f0 ac 5e 9d 90 3f 39 01 72 83 83 ce 24 3f
       0.016225318246177425 0.0001587424792184407
000040 6f 52 8d 45 86 5c a2 bf 5a 9d 53 1c 90 83 c1 bf
       -0.035862155904997965 -0.13682748206268053
000050 12 24 09 73 08 f8 40 3f b2 ed e5 d7 fd e2 4a bf
       0.0005178490883476236 -0.0008205165357106274
000060 f5 e2 8b 34 ad 32 52 bf ce 14 6d 11 78 14 5d bf
       -0.001110715051423292 -0.0017748997249367629
000070 63 7c d4 66 86 e7 5a bf 57 9f 0a 55 0e fa 9d 3f
       -0.0016421139255909038 0.0292742003827294
000080 b3 45 d9 8d ed 22 a6 bf 0d 13 45 b7 dd ac 81 bf
       -0.04323522907783275 -0.008630497127009496
000090 a0 9a 74 b2 b3 b8 81 bf d4 53 26 64 9e b1 d0 3f
       -0.008653072246102511 0.26084098606344

cnn1.bias f8 [4]
000000 da d3 64 5a b5 2f 70 bf cb ce 2b f2 fe ef a9 3f
       -0.003951748285818868 0.05065914827528458
000010 79 e0 46 fa 6b ab 77 3f 02 81 13 f5 61 a8 c9 bf
       0.0057787149311750935 -0.20045113054857927

cnn2.weight f8 [8, 4, 13, 1]
000000 bb dc 0e 3d 0f f6 88 3f 28 89 f2 e1 9a f1 8b 3f
       0.012188071299404126 0.013644418735854716
000010 6e 4b d4 d9 83 72 8b 3f 2a e3 2b 98 93 dd 8c 3f
       0.013402013859865138 0.014094498711970955
000020 92 de 5b ca be 14 88 3f 2f 8e cc 7d 64 e2 89 3f
       0.011758318472387761 0.012638840760309382
000030 33 a2 99 6a 9c 7b 8b 3f d0 f7 d6 ae 27 61 8d 3f
       0.013419363024881203 0.014345464728531626
000040 d0 b5 ca ff 0e 5c 89 3f b0 70 41 54 54 1c 8c 3f
       0.012382619076869356 0.013725909062650338
000050 eb e1 c1 3c a6 21 8e 3f d9 4d 48 84 01 5b 8c 3f
       0.014712618569533617 0.013845455026092178
000060 f9 d8 42 cb eb 94 87 3f 10 66 71 69 82 4a 94 3f
       0.011514513149773796 0.01981548088619972
000070 d4 79 b5 4b 6c 53 7b bf 07 e3 b0 62 cb 3c 8a bf
       -0.006671355276323305 -0.012811268758115014
000080 fa 49 35 eb a2 75 76 3f 46 ae 37 23 17 12 90 3f
       0.005483280564777088 0.01569400932741718
000090 f8 09 fd 07 1a 9a 86 3f 2e 12 b8 83 e9 88 8b bf
       0.011036113137042655 -0.013444732982869825
0000a0 26 5e d8 9b 48 e3 42 bf 45 7f 66 bf ae 0b 6d 3f
       -0.0005764107260714565 0.003545609764117249
0000b0 ef 45 cc 03 06 f3 69 bf 6b 82 ca ed 40 09 74 bf
       -0.0031676404454479205 -0.004891637447741996
0000c0 ac 5b f5 22 1d 93 73 bf 27 a2 61 eb 83 5c 9c 3f
       -0.004778970541642485 0.027696667901553475
0000d0 e9 de 87 c6 ce be 6e 3f f3 87 35 6e 59 de 60 3f
       0.0037530935844606217 0.002059149426416157
0000e0 7e 28 9b 66 2d dd 12 bf 9e 94 70 b6 08 a0 44 3f
       -7.196035007975447e-05 0.0006294291059744277
0000f0 e0 3d d8 c0 8e 98 77 3f 01 54 64 74 9f 14 77 3f
       0.005760724668575773 0.0056349018762107414
000100 24 a7 4d 0b 92 a4 62 3f 4e aa a9 b3 db 9d 58 3f
       0.002275738947379662 0.0015024800801720808
000110 e9 1c bb b3 eb 13 6d 3f 58 a6 72 9e f8 2f 59 3f
       0.003549537997830411 0.001537316123896201
000120 57 86 fb c4 1c 34 3d bf 21 ec 1f e1 d5 1c 56 3f
       -0.00044561102275339964 0.0013496483484221127
000130 9d 7c 2d e0 35 22 76 3f 38 81 52 4f 7a b6 6a 3f
       0.005403719379358266 0.003260840307646753
000140 53 77 ee dd 84 4a 6d 3f 2c cd 1e 67 23 83 6a bf
       0.003575572496130977 -0.0032363597356038967
000150 bb f5 c9 95 ca 5d 8d 3f 0e 65 1b d3 3e 39 95 3f
       0.01433904904956306 0.02072618640417994
000160 f7 da bf 92 42 0d 90 bf e1 7c 72 3e 5b 84 91 bf
       -0.015675583083033264 -0.01710646217963763
000170 1d e9 6e 82 d5 d8 85 bf 31 ac f8 84 fe f4 8e bf
       -0.01066748432446168 -0.015115726883854293
000180 5a 76 d3 a9 85 28 5d bf 0d 7a b6 8c cd 9b 90 3f
       -0.001779680758139965 0.016219341004779553
000190 66 f6 1d 8d 4d f0 65 3f 7a 41 e5 9a 01 31 90 bf
       0.0026780619309068497 -0.015811944083283326
0001a0 0a 28 30 ed 59 44 83 bf 18 b5 30 ea 78 8c 80 bf
       -0.009407713461786944 -0.008080429694099098
0001b0 93 e5 2f 1d ad da 7c bf 16 dd a9 54 3e f2 79 bf
       -0.0070444834009263544 -0.006334537009585325
0001c0 1b 99 fe 21 da ed 7d bf c4 4b 2a 94 95 75 7b bf
       -0.007306911545958773 -0.006703933994361703
0001d0 a7 5a 35 d6 a5 47 81 bf 06 06 3e a6 05 0d 82 bf
       -0.008437438583013558 -0.008813900123416662
0001e0 c4 74 17 d0 37 61 82 bf 0f 76 df 1f 29 2b 7c bf
       -0.00897449115557903 -0.0068770986963193744
0001f0 d2 93 a3 a1 fb a0 77 bf f3 3b b1 f3 58 66 7d bf
       -0.005768759665646566 -0.007177684277009699
000200 a3 50 36 73 de 01 80 bf 1d e8 14 45 98 97 60 3f
       -0.007816064730640731 0.0020254110355866343
000210 71 29 e5 01 dd 04 93 3f 12 5a 1a 89 bd 5c 94 bf
       0.01857323955599938 -0.019885026448344396
000220 ee 6c 34 a2 1e 4b 8a bf 7d 21 ff e6 64 08 88 bf
       -0.01283859188565947 -0.011734760570008213
000230 2b 95 e3 fb 99 e0 83 bf e5 a0 5e 78 2e c9 50 3f
       -0.00970573711351593 0.001024527913140055
000240 c0 ce fe e9 d2 1a 7c bf dd 10 68 9b d8 27 88 bf
       -0.006861518748269624 -0.011794750445013264
000250 e6 50 76 50 4a c1 7c bf 63 04 d2 d0 fa c3 78 bf
       -0.007020273485427197 -0.006046275853010294
000260 18 88 0d 90 39 8d 7c bf e4 8b 3d ad 57 e2 90 bf
       -0.00697062001640527 -0.016488428066974495
000270 0f 94 32 4f c3 19 88 3f 9f ab 54 54 69 cb 86 3f
       0.011767888883989412 0.011130164037771282
000280 93 44 80 c8 dc 34 8a 3f a9 d4 86 29 83 90 86 3f
       0.012796139591986033 0.011017822937768722
000290 85 ac 2e 34 cd ef 87 3f 86 ff 30 04 9a 44 88 3f
       0.01168785396096995 0.011849597218428942
0002a0 9a c6 0d c1 18 be 8a 3f 0b 18 ed de 2b 8f 88 3f
       0.013057893172774105 0.011991827717462674
0002b0 2c 0b 50 ca 76 1d 87 3f a1 4e 19 d9 08 ca 87 3f
       0.01128666691693566 0.011615819096881199
0002c0 5b 31 93 58 c3 1c 87 3f a2 ef 80 5f 26 e6 87 3f
       0.011285329952806114 0.011669444837131785
0002d0 2e 80 35 17 9f f6 86 3f 20 f0 7a ce a1 a4 79 3f
       0.011212580581457212 0.00626052098931143
0002e0 c6 2a b1 e6 2a b5 7d 3f 87 f9 b8 4b 4f b2 90 bf
       0.007252852995473352 -0.016305197712648514
0002f0 7e 75 0b e7 d4 8a 73 bf 51 5b d0 3e 3e 5b 6c bf
       -0.00477107205435112 -0.0034614768724269625
000300 5b 34 92 db 27 4f 81 bf 5f df 19 44 c9 3e 88 3f
       -0.008451758754995866 0.011838505163936195
000310 58 34 fd 47 50 2f 69 3f af bc 9f 64 95 bc 76 3f
       0.0030743186943369798 0.0055509410540103684
000320 c1 e7 d7 8c 14 ac 7b 3f 91 77 53 f4 c9 0b 6f bf
       0.006755905412768771 -0.003789801065621164
000330 f9 41 80 21 5b 13 84 bf 64 6f 1f c1 02 b6 8a bf
       -0.009802543601865376 -0.013042470472946106
000340 62 51 8d 40 e8 3e 69 3f de 63 4f 27 bd 06 59 3f
       0.003081754319660999 0.0015274855807005864
000350 cb b7 e4 81 d4 74 66 3f e9 05 12 fc 5f a9 64 3f
       0.0027412558112222866 0.0025221705150790708
000360 2d be 09 51 92 ba 68 3f fc 75 57 11 43 93 59 3f
       0.003018651747247045 0.0015609888990789625
000370 cf c8 ed 8e 58 f4 4e 3f 16 08 1b 8b 64 52 61 3f
       0.0009446556485797289 0.0021144832361139716
000380 c4 51 69 61 63 0b 62 3f 6c 10 44 b5 0c d6 61 3f
       0.002202695944371254 0.002177262134980087
000390 bc 0a a4 04 eb b4 65 3f eb 6a c0 56 50 ea 5e 3f
       0.0026497450063528143 0.0018869194564163315
0003a0 69 89 f2 0e 00 4d 67 3f ac 2b 11 3b 5d e9 98 bf
       0.0028443337574383565 -0.024327713709037788
0003b0 9f 50 ef f2 21 56 92 bf c2 b5 4f da 79 46 6c 3f
       -0.017906694843831002 0.00345157431956153
0003c0 b2 ff f9 49 b6 f0 7e 3f 9c c8 c4 85 38 5f 44 3f
       0.007553779665272419 0.0006217027653632359
0003d0 56 c3 d5 bb 2c 68 8b bf 76 3d 09 10 f5 86 61 bf
       -0.013382291300077103 -0.002139547956438721
0003e0 5a 5c 46 db fb e4 65 3f 07 b2 5e 60 c6 f7 65 bf
       0.0026726645539372597 -0.0026816248454990563
0003f0 41 40 ea e1 e0 f9 84 3f 6f f4 f8 18 16 34 90 3f
       0.01024223031461713 0.0158236935369484
000400 76 8b 7d 30 70 d3 30 3f c0 0a 65 3d 39 c5 92 bf
       0.00025674332618146696 -0.01833047330115778
000410 0e 34 3b b1 ee 93 79 3f 9f 80 78 94 f3 84 75 3f
       0.006244594947657068 0.005253745540841375
000420 9d 1d e1 e9 8f ae 77 3f c3 50 57 15 2a ad 79 3f
       0.0057817098259599605 0.006268658054484347
000430 4f a4 c4 b1 d8 cc 76 3f f4 5f c0 60 f7 0e 74 3f
       0.005566450560118132 0.004897085495052512
000440 cd ed d4 5f 05 3b 77 3f d2 dc f1 b5 fb 1b 7a 3f
       0.005671521180655015 0.006374343152052835
000450 ae 62 6b 48 3a 4d 7a 3f 56 e1 c1 d8 15 c5 75 3f
       0.006421306293042646 0.005314908350662803
000460 5a 7f d7 5f 7a 6f 7a 3f 4d e0 36 95 97 75 76 3f
       0.006453969979219066 0.005483238335209317
000470 3c c5 a9 60 65 16 78 3f dc 98 67 26 4e 76 70 bf
       0.005880733495915277 -0.00401907470084081
000480 f8 d9 ce 0f 06 f8 75 bf e4 59 b8 b2 3a b8 6f 3f
       -0.005363486937247412 0.00387202705838806
000490 6a 10 fd e9 ff 22 86 bf 3d 9d 13 b1 26 c5 54 bf
       -0.010808944061530396 -0.0012677076195418268
0004a0 be 49 b3 5a 48 b6 6a 3f 7d 15 f0 63 c4 d4 3b bf
       0.0032607472581755717 -0.00042466921507896394
0004b0 e3 e0 89 d5 61 ba 79 bf 52 d2 20 0e e3 f2 95 bf
       -0.00628126350840594 -0.021434352624242266
0004c0 d5 c2 e8 52 5f 30 88 bf 76 a4 8b eb fc 0d 67 bf
       -0.011811012952507674 -0.0028142871709531626
0004d0 d1 4b bb 5f c1 5b 83 3f b3 9e 9a 2b 77 b8 84 3f
       0.009452353223798145 0.010117465036571493
0004e0 62 aa 9b 3b ac d6 81 bf 4c c9 3c 29 06 9c 81 bf
       -0.008710237092107668 -0.008598373540369984
0004f0 0a cb 3a b7 b6 3a 76 bf c5 d0 90 d3 6f bb 5e 3f
       -0.005427087529528371 0.001875743108269255
000500 e4 f9 08 3e bd 13 79 bf e4 8e 34 34 30 05 7f bf
       -0.006122340419607106 -0.007573307320203535
000510 a3 7c 4d fe 8c c3 87 bf 06 ff 68 5f 0d d1 78 bf
       -0.01160345221586418 -0.006058742749303075
000520 ff 7a 07 94 cb 8a 89 bf 79 8f 49 7c c9 7e 73 bf
       -0.012471762137406637 -0.004759585430836094
000530 d8 01 3c ad f4 81 43 3f eb 8d 92 f9 15 f3 48 3f
       0.0005953259191926975 0.0007613999652175662
000540 80 57 40 40 0e d2 78 bf 08 ff 42 64 1b a0 e3 bf
       -0.006059699695489473 -0.613294311355248
000550 67 40 fd 29 09 b1 ab bf 37 65 d3 a2 41 ad a2 3f
       -0.054085050941126415 0.03647809136027507
000560 77 78 d7 f1 0a a9 ae 3f 81 79 d0 e7 8a 1d d1 bf
       0.059883443853082356 -0.267428137189107
000570 25 98 42 1d c3 ba a8 3f 28 c3 cf 1a bf cf 7f bf
       0.04829988224200602 -0.007766481879102817
000580 b2 bd e8 2f 76 83 a5 bf bd 90 fc 79 3f 96 c1 3f
       -0.042018597934993976 0.13739770370842122
000590 ff 50 6b de 05 5d aa 3f 49 8b f0 e2 df fc 71 3f
       0.05149095859602148 0.004391550594877122
0005a0 2b 0a 6b b0 5a dd aa bf 94 cb 56 80 79 2d e7 3f
       -0.05247004893819381 0.7243011004087401
0005b0 55 2c f2 c6 23 a6 95 bf ea 2f b4 ca c8 45 98 bf
       -0.0211415853669162 -0.023703706142484217
0005c0 69 83 8c 75 f7 fe 97 bf 2c 7f e8 29 65 b5 94 bf
       -0.023433558034528987 -0.020223217661736445
0005d0 80 3b 77 85 79 c0 97 bf fe 37 96 2c 9d 12 8a bf
       -0.02319517018423367 -0.012730815814190773
0005e0 49 2c 54 28 5a 4e 90 bf a2 0f be 6e 66 85 97 bf
       -0.015923889838671355 -0.02296981860082748
0005f0 6b e3 7b e1 91 99 98 bf 0b c0 ec d1 14 87 95 bf
       -0.024023322474906388 -0.02102310687331514
000600 cb e6 0c 2e e7 9c 96 bf 60 93 6a b9 74 39 8e bf
       -0.02208291262215915 -0.014758026035744443
000610 18 80 95 63 44 b1 74 bf 78 ad f2 a7 f1 5c d7 bf
       -0.005051867622881921 -0.36504784966628945
000620 90 f0 d5 b9 fb 4b a5 bf 95 c0 2f 01 53 e4 c1 3f
       -0.04159533160688611 0.13978040273605488
000630 39 27 eb 3a c4 5c d6 3f 5b 40 fa f5 89 a9 d4 3f
       0.34941201928869564 0.32284783383602694
000640 f1 e1 f1 0f a6 0a c2 3f 6a 1d 50 c2 52 e3 bd 3f
       0.1409499719482166 0.11674992794006803
000650 ed af dd 72 67 b9 c8 3f 63 64 68 b3 23 b1 be 3f
       0.19315808399858217 0.11989043359825895
000660 7e 3e 1c 4f 07 84 c8 3f e7 93 32 ff 1c 46 af 3f
       0.1915291916161443 0.061081796791121516
000670 89 9b 95 5c 4b bb b1 bf 3e b6 7e ac ac e5 f1 bf
       -0.06926413545953215 -1.1185728777012538
000680 21 6f bd b1 f7 e7 75 bf b9 1d 56 a7 c7 db 70 bf
       -0.005348174625250641 -0.00411584844312734
000690 76 9c 45 f5 e1 66 74 bf 8e a8 ed d0 aa 30 6f bf
       -0.00498092903976676 -0.0038073860409229615
0006a0 d4 cd 02 1a c1 06 70 bf 4c 86 77 21 8e d3 70 bf
       -0.0039126914054352264 -0.00410800475899149
0006b0 24 c2 f2 b8 a3 61 71 bf 79 86 17 56 db 3f 74 bf
       -0.004243506947361673 -0.004943711073310924
0006c0 b7 f1 46 bf 7a 73 71 bf 74 25 35 7d f7 73 71 bf
       -0.0042605204402516505 -0.00426098514010086
0006d0 9b 49 40 d8 8f d7 76 bf e7 53 93 9e 45 f9 73 bf
       -0.005576669591408036 -0.004876396132392969
0006e0 a4 bc 00 5e 0b 0a 75 bf 9a 73 c4 14 f7 ea a7 3f
       -0.005136532214279264 0.04671451691158453
0006f0 f5 83 fd 54 20 96 74 3f 3d 19 b5 93 fc c4 7d 3f
       0.005025984093522053 0.007267939213596639
000700 df 64 78 94 ac 4a 9a bf ef f8 2d b5 8e 6e 87 bf
       -0.02567548423948984 -0.011441340355073907
000710 b6 b0 cb 9a e2 c6 6c 3f de 34 44 f0 3c f5 3c bf
       0.0035128045914146434 -0.00044186342007963657
000720 b0 6b e1 35 d8 03 94 3f ac 79 f7 c1 47 d3 91 bf
       0.019545915878875497 -0.01740753289583956
000730 5d 52 f6 f7 03 b8 95 bf 2c f8 69 c0 2a de a0 bf
       -0.021209775933657905 -0.03294499968340889
000740 25 25 8a 7f 5d d1 8b bf 5a 00 cd f7 bf d6 a4 3f
       -0.013582926230145074 0.04070091152107187
000750 10 62 85 63 8a 0d 80 bf 92 19 15 91 4f 82 80 bf
       -0.007838326608792051 -0.008061048140586977
000760 64 cb db fe 09 b5 83 bf 7e 9c 1c f2 58 18 7f bf
       -0.009622648325125112 -0.007591578907329864
000770 d5 98 69 1f 46 18 77 bf e5 56 10 98 34 9f 79 bf
       -0.005638383786026509 -0.006255345769224018
000780 b6 0c 52 7c cc 3e 79 bf 22 96 8f f4 81 73 7b bf
       -0.006163405200939545 -0.006701953542664481
000790 4b 10 32 ae ba f4 82 bf 21 cb 00 06 c3 c0 81 bf
       -0.009255846444155355 -0.00866844522542959
0007a0 bf 8a c9 1b 57 f6 80 bf 88 66 14 6e d4 0c 82 bf
       -0.0082823567728999 -0.008813533410420918
0007b0 98 77 08 b6 70 cd 7b bf e5 61 43 9d 55 0e 94 bf
       -0.006787719991306583 -0.019585931514343975
0007c0 76 98 95 b3 7b 18 8e 3f 03 ea 43 e2 fd bb 92 3f
       0.014695135515193618 0.018295256552827165
0007d0 e8 98 e1 3e 85 e1 94 3f 5c eb 52 32 51 05 95 3f
       0.02039154239937427 0.020528095909621555
0007e0 d5 53 07 e1 83 7a 9a bf be c8 b5 8b cd ab 93 bf
       -0.025857983216912423 -0.01921006360266441
0007f0 52 e8 d8 17 33 1b 76 3f 4f 34 fd 99 c3 36 9a 3f
       0.0053970332933720045 0.02559953334212067

cnn2.bias f8 [8]
000000 1e ac 7c 25 c1 0a 54 bf 92 98 1d cf 3e f7 5c 3f
       -0.0012232671924248327 0.0017679322595199093
000010 b0 d6 72 af 79 6a 54 3f 9c ad e0 0b e1 92 69 bf
       0.0012460888226945403 -0.0031217952191775044
000020 a8 14 8e 06 90 b0 52 bf e5 27 5e 7a 83 8a 57 3f
       -0.0011407286167195805 0.0014368328060947397
000030 04 8f 26 5f 91 c4 59 3f 73 36 9a 68 cd 5c 30 3f
       0.0015727443356831636 0.0002496720777366075

cnn3.weight f8 [32, 8, 17, 4]
000000 66 b3 1b 0d 11 5d 8a bf c0 83 3e 20 6d ae 86 bf
       -0.01287282296422072 -0.011074879213824107
000010 cb 73 cd eb 06 ee 86 bf 57 71 5c 4f cf e0 8b bf
       -0.011196188040850338 -0.013612384423645691
000020 a3 db 35 a3 3f 76 77 bf f1 1d d2 23 60 93 87 bf
       -0.005728005012648393 -0.01151156529728234
000030 69 33 59 06 1f a7 88 bf 2d d6 1c 2d 1f ca 86 bf
       -0.012037508374442134 -0.011127704204777345
000040 26 5a 8f a1 df e3 84 bf 85 f3 bd ca 95 16 89 bf
       -0.010200259321135507 -0.012250108956999526
000050 da 14 81 c0 b4 09 8a bf 16 48 d0 b9 43 8b 8a bf
       -0.012713825344813069 -0.01296093855674844
000060 30 2f 63 00 6b c7 83 bf 0d b2 c4 7f 03 64 82 bf
       -0.00965770335132951 -0.0089798234335712
000070 7e 88 fd fe b4 7e 82 bf 85 ed d6 dd 34 79 85 bf
       -0.009030736953438142 -0.010485089321142347
000080 67 9d 0d 65 30 15 87 bf 96 61 b7 a6 25 d5 7e bf
       -0.01127088364019242 -0.007527491641177516
000090 48 dd 6b cf 6e 94 7b bf 64 ce f2 1d d4 86 81 bf
       -0.006733353474138788 -0.008557946361498377
0000a0 53 8a d9 e9 de 59 74 bf b2 2c 19 5f e0 d6 77 bf
       -0.004968519931568399 -0.0058201565276007495
0000b0 ea d4 a4 ea 8b a2 7e bf 3d 30 38 37 4b 5e 81 bf
       -0.007479235219127059 -0.008480632422127704
0000c0 84 bc f2 25 ae 9d 7a bf f2 2c 1b 5e 6a 4f 85 bf
       -0.006498031870406543 -0.010405379292385029
0000d0 69 00 48 e3 3f 9e 89 bf e7 db 0c 23 c1 55 88 bf
       -0.01250886833531713 -0.011882313615940233
0000e0 d0 0f 62 20 be d1 90 bf 61 a3 f7 55 8c e1 7f bf
       -0.01642510483408427 -0.007783458887822587
0000f0 3c 7d cd 9c 80 ed 78 bf e7 7c bb b9 81 10 80 bf
       -0.0060858749319259685 -0.007843984108545544
000100 ee 35 78 30 ef 58 84 bf 86 6e 4a 4a 11 dd 88 bf
       -0.009935253779100397 -0.012140402869867072
000110 c3 17 12 d4 6a 6a 8b bf f4 4f fe bf 32 de 8f bf
       -0.013386568638690371 -0.015560528263257802
000120 e9 82 e4 86 82 6f 7c bf d7 be 6e 2d 82 f8 81 bf
       -0.006942281599805902 -0.008774773608677773
000130 1f 1b 95 84 57 55 86 bf 8b 8e 4f ce de cb 86 bf
       -0.010904964192957998 -0.01113103930578709
000140 f9 90 35 32 69 43 83 bf 89 90 93 7c b1 41 85 bf
       -0.00940591988064242 -0.010379206289549596
000150 f1 24 67 46 aa 51 86 bf c7 2e da 4a dc ea 88 bf
       -0.010897951386953571 -0.012166710886297406
000160 0a 9a ac 66 79 59 7d bf 40 17 f6 c0 44 d4 83 bf
       -0.007165407393392895 -0.009682213915549576
000170 27 54 8e c0 e7 b9 81 bf 8b 11 62 e6 60 d5 82 bf
       -0.008655367435304552 -0.009196049719556473
000180 18 2f 0f 20 f6 a4 8b bf 97 38 ef d5 dc 42 83 bf
       -0.013498232701656884 -0.00940487411380912
000190 73 76 52 d0 9b 31 80 bf c9 a2 c0 fd fc e3 81 bf
       -0.007907120985971993 -0.008735634321128132
0001a0 e4 21 a9 a3 af 50 76 bf 5e 33 b9 cf 8c 63 72 bf
       -0.005448042002690976 -0.004489469570739894
0001b0 c3 08 5e 12 3b 48 7d bf 68 7e 22 29 f5 0c 81 bf
       -0.00714896273518856 -0.008325496023018533
0001c0 79 fb 9e e7 58 28 81 bf 61 c9 d5 3d 95 25 85 bf
       -0.008377737587464061 -0.010325590085561389
0001d0 d3 51 e3 c9 de 3c 88 bf 3e 08 fa 47 06 cf 87 bf
       -0.011834850822574438 -0.011625336715273101
0001e0 bf 7c 86 a6 ea c5 8c bf 40 e3 e7 fa 6a d8 82 bf
       -0.014049370963049033 -0.009201846868550967
0001f0 ce 30 11 e4 a5 24 80 bf 25 49 62 64 bb c7 82 bf
       -0.007882400534207436 -0.00917002105805815
000200 c2 15 8f 7a db 23 83 bf 11 ea f2 26 8c 49 89 bf
       -0.00934573619623336 -0.0123473119150406
000210 ff 6d c6 61 c8 88 8b bf 65 53 3b d5 64 bd 8e bf
       -0.013444486125812281 -0.0150096776555217
000220 84 f4 71 f5 6b 08 7a 3f 80 ae f7 29 98 70 75 3f
       0.006355687822290016 0.005234331503270462
000230 19 b0 40 44 20 fb 70 3f 7d fe 6a 87 e4 fb 73 3f
       0.004145742455914835 0.004878895465196484
000240 53 ae e9 d0 7b c6 6e bf db 77 db fc bf 31 47 3f
       -0.00375675375771837 0.000707834953313609
000250 58 8d 41 ec 39 9f 69 3f ad 4e d1 cd 88 4b 73 3f
       0.0031276828104169034 0.0047107070832514255
000260 7a 44 25 36 54 bf 14 3f ef 50 dd 2a b6 ff 51 3f
       7.914496885532028e-05 0.00109856405056968
000270 7b fe 74 2d d3 65 6c 3f 84 2e c2 78 75 9a 7d 3f
       0.0034665226518482673 0.007227381585959262
000280 36 f5 c5 bd 05 fe 69 3f 68 32 59 f9 2c 56 78 3f
       0.0031728851446916296 0.005941558532481218
000290 3d fc 99 8e a7 50 7b 3f f3 39 ac f5 22 09 80 3f
       0.006668715018917357 0.00782992660745394
0002a0 f0 5c dd 3d d1 28 45 bf f0 62 b1 14 06 38 69 3f
       -0.0006457349479473112 0.0030784720197910495
0002b0 82 78 db 8d 74 12 70 3f 65 78 df 7d f2 38 78 3f
       0.003923850335665448 0.005913684113663197
0002c0 49 c2 23 29 fb 4e 65 3f 8a f3 b8 38 29 0b 67 3f
       0.0026011376841028927 0.002812939177401612
0002d0 4f 8b 86 69 f5 b0 72 3f 15 e9 6c f7 7d a5 79 3f
       0.004563292161409673 0.006261341149008244
0002e0 28 99 82 86 c0 50 6a bf a3 6d 62 88 8c 79 61 3f
       -0.0032123337042150486 0.0021331543712912056
0002f0 36 86 48 0a fb 25 72 3f a5 f3 3b 1d be 99 78 3f
       0.0044307523972136244 0.006005995400980267
000300 a1 77 3a 77 90 10 35 3f 77 f4 25 34 23 5e 79 3f
       0.0003214218806791795 0.006193292154759714
000310 a1 78 2c fb fa e0 7e 3f 88 40 e6 c7 52 0a 83 3f
       0.007538776774508233 0.009297034001775964
000320 3b 7d 66 d1 6c f5 7b 3f c4 bd d0 81 22 bc 72 3f
       0.006825852461047883 0.004573950570417155
000330 8e 02 03 da 3a c6 6c 3f 06 81 e5 31 87 55 73 3f
       0.003512492126987183 0.004720237832174462
000340 71 48 49 4e db 10 64 bf c6 0d 75 b3 ca 61 52 3f
       -0.002449444133426453 0.001121948194694565
000350 2a 18 57 a1 84 f6 6a 3f ff 53 22 38 1d fe 72 3f
       0.0032913771089822146 0.004636873376644423
000360 77 86 18 1f da 78 5a 3f 92 87 5f e3 c9 8f 64 3f
       0.0016157274334393215 0.0025099700096555344
000370 64 7f 6e 35 0e 79 6e 3f b5 da 0a d5 26 56 7c 3f
       0.003719833136940952 0.00691809815241722
000380 d2 66 4a ef 3e e6 6d 3f 80 53 a2 c4 e3 29 79 3f
       0.0036498288339544627 0.0061434647742729664
000390 32 3c 0c 22 00 4a 7b 3f 0c 72 16 f0 eb 41 80 3f
       0.006662369269874667 0.007938235535044157
0003a0 b8 7e 7c fa 40 9e 58 3f 32 22 26 0c a7 49 6a 3f
       0.0015025744014067043 0.0032089483876840625
0003b0 65 c9 01 66 4c ae 70 3f a6 d1 12 e9 db 2a 79 3f
       0.004072473937514286 0.006144389176530407
0003c0 3e 40 d5 e2 3b 5b 49 3f 7c f2 0f 29 5c fa 6e 3f
       0.0007738153850969166 0.0037814903266720195
0003d0 c8 cb 81 01 ab be 76 3f a6 15 0c 8d 1d 90 7a 3f
       0.005552928916688189 0.0064850954374881305
0003e0 cc 41 1d 76 48 93 6e bf 9d 1a a9 34 68 23 59 3f
       -0.003732339407101137 0.0015343206056443244
0003f0 2c e2 44 9b 3f d4 70 3f 3c f7 7d 4c 83 f8 77 3f
       0.004108665907829361 0.00585223473160373
000400 7b e0 4f e0 ba a4 63 3f b5 ce 2b b1 d7 76 76 3f
       0.0023978853155278124 0.005484430834929267
000410 37 b2 56 ba 52 45 7b 3f 5e ae 4c 11 9e d4 81 3f
       0.006657908588220843 0.008706316855373316
000420 ea ff 8a 4e 0a 51 6f 3f 06 9c f0 54 cc 92 70 3f
       0.0038228226952412474 0.004046247645454143
000430 8f a6 81 e5 45 9d 68 3f 11 0e ca 05 ea ac 71 3f
       0.0030046811262323734 0.004315294409596785
000440 5c 46 25 74 9a 5e 93 bf 2a 29 aa 39 05 4a 91 bf
       -0.018915570582356586 -0.016883927959988977
000450 df b4 b3 3b c4 62 8c bf a6 1a 2d 6a 8e 39 88 bf
       -0.013860257217368886 -0.011828529944648846
000460 8f a4 b4 94 d0 5c 94 bf a4 e8 0e 81 69 51 8f bf
       -0.019885310245773054 -0.015292000056309547
000470 74 e7 a2 3e 1e 80 8a bf cd cc 20 4b 2b b5 84 bf
       -0.01293967846537545 -0.010111177664020943
000480 52 bd fe 02 98 5d 87 bf 06 9c 9a f5 7a 14 82 bf
       -0.011408984748270488 -0.008828125591504598
000490 c5 7a 7e a0 99 f3 83 bf 6d b9 2c 8e f6 84 83 bf
       -0.009741974077596702 -0.009530950750186585
0004a0 ab 95 cd a8 d1 f3 8e bf e5 17 44 b7 7b 58 8b bf
       -0.015113485301933979 -0.013352362184843211
0004b0 66 b9 83 73 08 f8 8b bf 37 7f 94 77 ba ea 89 bf
       -0.013656679177498087 -0.012654740118307124
0004c0 59 dd 74 4f 02 49 95 bf df f1 dc 9e cc 79 90 bf
       -0.020786319827690167 -0.016089627453071628
0004d0 1c 5c f8 c6 df 5a 8c bf 54 7c 0c 61 94 58 8b bf
       -0.01384520364721991 -0.013352545940106854
0004e0 c9 bf 1e 23 23 ab 91 bf 35 83 7e b1 7d 54 91 bf
       -0.01725439931732334 -0.01692387004698333
0004f0 6c 30 78 4f 2c bc 90 bf 31 3d da ba 9d 61 8b bf
       -0.01634282336276309 -0.0133697817466599
000500 74 85 9f d5 46 02 8f bf 44 e5 4d f7 a5 df 8c bf
       -0.01514106120515877 -0.014098450288417504
000510 61 dc 86 90 5b ec 8b bf 89 43 49 6d d2 08 88 bf
       -0.01363441023646156 -0.011735576591634505
000520 c3 ce 0b 21 b2 de 8a bf 6d 2e 40 e4 31 9c 90 bf
       -0.013120071061599408 -0.016220836216275836
000530 95 6f 0e 90 70 5b 91 bf 2c 71 c1 a2 8a 32 90 bf
       -0.016950377266411094 -0.015817800697150705
000540 8a 41 42 8c 59 fe 96 bf b7 57 99 56 a8 a8 8f bf
       -0.022454642472952403 -0.015458407538215242
000550 f5 32 eb 36 72 fb 87 bf c2 a7 36 ef 45 61 85 bf
       -0.011710064221369868 -0.010439440119473068
000560 b8 27 bd 26 b6 d9 95 bf 7b a9 d8 f8 3f ff 8e bf
       -0.021338316072877922 -0.015135288030326368
000570 ec 26 03 35 ed 06 88 bf 97 5e 9e ac c1 64 83 bf
       -0.011731961422259705 -0.009469521599199822
000580 45 45 a7 61 42 df 8d bf 41 47 eb ad 59 ec 88 bf
       -0.014585989575524603 -0.012169552440727595
000590 4f b1 ca be 82 73 87 bf e7 da 59 b7 e6 b1 83 bf
       -0.011450787971022306 -0.00961666342776142
0005a0 6f 0b 8c 31 91 20 94 bf 55 9d d1 6a 4e f1 8f bf
       -0.019655483864890962 -0.01559697402463082
0005b0 a6 38 11 3f d1 91 8e bf 00 e8 93 c0 60 71 8b bf
       -0.014926562058601722 -0.013399845005995559
0005c0 6d cc 5c 02 cf 3a 96 bf 5c 4a 12 66 d2 e3 90 bf
       -0.021708712119288643 -0.016494071464487767
0005d0 bd 7c 29 3c 26 09 8e bf fd d1 3b c0 ff 24 8d bf
       -0.014665888510704378 -0.01423072629356969
0005e0 6c 8f 9b 83 fe 03 90 bf 1d 3a 9d 6a b7 56 90 bf
       -0.015640236647313996 -0.015955797083103563
0005f0 e5 85 a9 90 8a ca 90 bf 03 9c 10 fa 3b f2 8c bf
       -0.016397633628349246 -0.01413390023124173
000600 e4 89 55 1b c1 6a 8b bf 55 07 2f 7d 3d 17 8b bf
       -0.01338721146266137 -0.013227920897296444
000610 d3 13 e9 f9 69 78 8a bf a4 be 81 04 a2 be 86 bf
       -0.012924983920251798 -0.011105790865456662
000620 9b 1c 6c 4d 7e 08 8e bf 83 f4 0d 5e 32 9b 8f bf
       -0.01466463731550354 -0.01543273305446236
000630 2a e6 ef 82 ba 44 8e bf 2f b3 7a 76 3b fd 8b bf
       -0.014779526825793605 -0.013666595986558143
000640 1e 2d 9a 74 5a ef 97 bf ad ec ca 73 6c a1 8f bf
       -0.023373998038136105 -0.01544460991259763
000650 eb f2 7c 00 4a b6 86 bf 59 de 43 ee 79 10 84 bf
       -0.011089876308341092 -0.009797051032804637
000660 44 a1 6e d6 4a 6a 9f bf 46 50 3e 33 97 9f 8b bf
       -0.030678910577678367 -0.013487988711666909
000670 ff 8e 88 1f ae 76 83 bf 7b d7 65 4c 58 00 68 3f
       -0.009503708207439397 0.002929851968640427
000680 1e 4a 45 e0 8f c7 b3 bf 6c 70 a5 41 fd c4 91 3f
       -0.07726382470472301 0.01735301697895901
000690 8a 9e 58 25 41 2a a1 3f 83 b9 2d 0f d7 e0 a6 3f
       0.033525501068934 0.04468414364133635
0006a0 f6 c0 81 5c 8e 53 80 bf 28 f3 6c 5d 52 fe 7a bf
       -0.007971870611271897 -0.006590196359692858
0006b0 b1 08 01 40 27 9d 58 3f 09 78 1f 64 9d 45 93 bf
       0.0015023120213446923 -0.018820246921556847
0006c0 7d 98 f7 7a b0 99 91 bf 06 d7 57 a5 35 40 a2 bf
       -0.01718784094364211 -0.03564613002155963
0006d0 74 6b a7 3b 75 0d a1 bf e3 d4 e2 5e 14 c3 b0 bf
       -0.03330580094526328 -0.06547667805246564
0006e0 0e b4 12 49 f6 60 a5 3f 04 85 b6 7a eb 10 95 bf
       0.04175538675313116 -0.020572356571965336
0006f0 74 18 4a 59 31 ae 9e bf 2f cb 5c 39 93 41 81 3f
       -0.02996136767844644 0.008425855815948317
000700 b5 80 6f 52 34 46 89 bf 43 57 6b 0f 16 82 92 3f
       -0.012340935483678409 0.018074364367598916
000710 bd b9 f4 77 2d 48 8c 3f 01 d2 b1 4c c4 1d 9c bf
       0.013809542868867259 -0.02745730131251101
000720 09 0b f1 be 73 f9 6a bf ad 47 c5 e2 d8 16 b3 bf
       -0.0032927761708675435 -0.07456737076179705
000730 49 94 bb 76 f9 4e b1 bf ff 01 4b 95 97 69 a2 3f
       -0.06761130474804235 0.03596185395645434
000740 9e 89 74 71 da c8 99 bf 11 80 da 99 82 89 92 3f
       -0.025180257010228517 0.018102684631799152
000750 18 f0 76 12 40 33 9e 3f 8c 13 d9 d5 2c 3f 95 bf
       0.029492379309644517 -0.020748806526416128
000760 54 e4 b8 f1 14 ce 87 3f 6f 3b 44 24 21 ba 71 3f
       0.01162353861501423 0.004327897510178909
000770 ee b8 ba 98 41 d6 86 bf 44 4e ad 99 f1 72 98 bf
       -0.011150848840170782 -0.023875975613306247
000780 9a 58 0d e8 c8 95 90 bf 86 3f ae e9 a9 48 9a 3f
       -0.016196383632028778 0.025667815101371193
000790 2e 27 3c 3a be 29 63 3f 17 f8 22 18 b4 9f 7e 3f
       0.002339240587279876 0.007476523869796046
0007a0 f5 54 19 55 e6 b8 99 3f 9c 73 1e 35 84 e3 96 3f
       0.02511939901736056 0.022352281324504383
0007b0 c8 43 9a 0f 30 ab 87 3f 75 20 a5 bf 44 3f 8e bf
       0.01155698344817492 -0.014769112680952138
0007c0 74 59 8a 04 50 fc 8e bf e2 71 15 b6 b6 24 a5 bf
       -0.015129685534060335 -0.041295728423140124
0007d0 ce e0 5b 9a 79 d3 86 bf fb fa 86 94 56 84 a3 bf
       -0.011145544074210891 -0.03811903536869995
0007e0 e6 95 93 76 63 d3 97 bf 27 33 c5 2c 0b a9 a5 bf
       -0.02326732074006612 -0.04230532571327777
0007f0 81 36 5c e0 b5 ab 96 bf 02 29 a5 73 10 35 9a 3f
       -0.022139398402080793 0.02559304910509131

cnn3.bias f8 [32]
000000 ec 20 c6 ae f5 ee 87 3f 26 42 34 6d fa 05 86 3f
       0.011686248203446735 0.010753590066571905
000010 b8 65 61 d4 67 46 6d 3f d5 c0 ed 97 87 59 74 3f
       0.0035736110612958026 0.004968194639204356
000020 13 64 93 6e 72 f0 7f 3f 71 0c 80 63 19 01 77 3f
       0.007797667503120403 0.005616282629492196
000030 5a 1b d3 c6 1b c7 81 3f 4c 57 ba 79 01 0c 87 bf
       0.008680550580164304 -0.011253367926922352
000040 25 1c f2 cd 04 c4 8a bf c9 b7 be e1 96 96 6d bf
       -0.013069188628163595 -0.0036118456755138456
000050 77 6c c3 aa 04 38 5c 3f a9 35 bd 65 42 f8 67 3f
       0.0017223401619535208 0.002925996477563604
000060 5a 59 61 b7 36 fa 55 3f c7 6b fb f6 56 da 68 3f
       0.0013413938845779545 0.003033799985002503
000070 83 c6 f6 d9 26 99 67 3f 64 89 40 22 44 68 7d bf
       0.002880645639117331 -0.007179514072080149
000080 a6 fc 99 f2 36 ca 82 bf e6 28 af 5f f5 c1 79 bf
       -0.009174756315813614 -0.006288488856578156
000090 5b f0 61 54 11 9e 44 bf 50 a1 12 bd a1 ef 70 3f
       -0.0006291946999819152 0.004134780684730124
0000a0 c8 1b fc 3a c2 10 43 bf 69 80 28 9e c8 ce 81 3f
       -0.0005818317785902744 0.008695189787488471
0000b0 9d 5a 42 35 ce c8 83 3f c4 00 58 26 c3 57 67 3f
       0.009660349846212052 0.0028494655150553567
0000c0 09 f8 1d a1 91 cb 77 3f 38 b0 83 29 8b 36 76 3f
       0.0058093727728856315 0.005423110582551564
0000d0 a8 b5 5d 8e 86 f0 74 3f fb b8 3b 10 9b 3b 8e 3f
       0.00511219559653623 0.01476212638177942
0000e0 f2 5a 79 49 f5 50 84 3f d6 87 cb bb 26 10 77 bf
       0.009920040421247365 -0.005630637457871365
0000f0 67 68 2d 0e bd 5e 6b bf d0 aa 01 6a 27 ff 72 bf
       -0.003341073273458273 -0.004637865029603019

cnn4.weight f8 [1, 1, 3, 3]
000000 e6 97 08 81 3b f7 9a bf 38 12 67 bf e2 3b ae bf
       -0.026333741903861972 -0.05905064188440118
000010 f2 bd a9 51 51 1c b5 3f ed 49 4d 64 e5 31 70 3f
       0.08246334308363837 0.003953834592567135
000020 0f 7d 6a 20 d7 ac 51 3f a8 12 cc 41 fa 8e 71 bf
       0.0010788060041376257 -0.004286744657978993
000030 4c 02 31 a1 33 8b 68 3f aa 4a d3 2b 18 f7 46 bf
       0.00299606403271494 -0.0007008426688578002
000040 4d 9b 9e 2c e6 ec 53 bf
       -0.0012161491199351338

cnn4.bias f8 [1]
000000 2e 5f e9 64 c6 1d 23 3f
       0.00014584585956600157

linear.weight f8 [16, 900]
000000 e0 1a 64 6a a6 87 2e bf 16 3c 38 01 8a 80 50 3f
       -0.0002329245227843035 0.001007208605077419
000010 4f f0 8b 9d 03 72 71 bf ca d5 a7 04 11 b1 8b bf
       -0.004259122965546493 -0.013521321253373925
000020 49 c3 f3 b1 3a 68 91 bf f6 d0 d6 85 7b f8 90 bf
       -0.016999165641155476 -0.016572885555164306
000030 90 7e 18 59 b4 bd a0 bf e4 a4 13 78 2c 68 5c 3f
       -0.032697330356538434 0.001733821322256462
000040 5d 87 f8 b4 5e e2 23 bf 8e da e6 29 0b cd 88 bf
       -0.0001517048462896198 -0.012109839645615208
000050 92 92 2a b8 be 70 8e bf d8 ae 0e eb b3 6d 60 bf
       -0.014863481517133157 -0.002005435373993208
000060 f3 c6 82 5c fc 97 87 bf e5 39 34 23 3d 8e 74 bf
       -0.011520358632285154 -0.00501846200792364
000070 88 95 f5 d0 5d 92 85 bf 65 9e f2 bc 0e aa 98 bf
       -0.010533078135902554 -0.024086218149618328
000080 4c 85 ef c7 69 97 90 bf 02 ee 04 fc cc 0b a0 bf
       -0.01620259554681995 -0.031340032352513716
000090 87 a2 a5 02 fa ff 94 bf ed c6 01 2d 4e a5 89 3f
       -0.02050772324710917 0.01252232622957502
0000a0 c4 69 d8 87 0f dc 77 bf ce 4e 44 f8 41 97 92 bf
       -0.005825100580774071 -0.018155127313618284
0000b0 8a 86 91 f4 e3 31 a0 bf ba 27 a8 92 c8 fd 94 bf
       -0.03163063393072914 -0.02049935717699445
0000c0 a7 a7 c1 21 44 86 78 3f d9 69 44 b4 e8 7b a1 bf
       0.005987421169359942 -0.03414847565200647
0000d0 13 99 21 8b ec bd 90 bf 59 0d 7c ce 83 34 7f bf
       -0.01634950255574903 -0.007618441457228308
0000e0 7f fd 56 3c 54 ae 87 bf 97 78 1e 6a eb d6 82 bf
       -0.011562975016998987 -0.009198989082332338
0000f0 df 4b fa a4 51 cf b1 bf 57 e1 93 0b c2 39 80 bf
       -0.06956968572403309 -0.007922664621660287
000100 42 99 9e 8f 64 a7 ce bf 44 8f 1a d4 d7 9b be 3f
       -0.23948342335388345 0.11956547668756651
000110 e0 02 97 f7 ee dd a2 3f 06 8e aa 3f 60 42 a1 3f
       0.03684946796739097 0.03370953347373633
000120 43 a5 c0 d6 26 bb a0 3f 8d e6 ca 68 22 70 81 3f
       0.03267785426607841 0.00851466066648079
000130 b9 69 29 3e 25 17 96 bf 5a 42 f0 35 1c 97 b0 3f
       -0.021572667998364745 0.06480575863702978
000140 70 80 14 d5 c0 56 be bf 38 3b ab 6b 23 12 b1 3f
       -0.11851124956274517 0.06668301943430499
000150 1f 53 a0 e1 9d c6 b1 3f ed d6 05 b8 66 c3 9f 3f
       0.06943690069631402 0.031018834096776016
000160 b4 2b c2 17 9a e4 c7 bf 4f 5d c2 9b 1e 26 a9 3f
       -0.1866638771064949 0.04911895419462075
000170 2e e5 52 8f 21 1e 9f 3f a4 6d ea 78 a8 08 ab 3f
       0.03038837849883185 0.05280043102285539
000180 46 75 bc c8 b3 42 b8 3f 3a 67 7e df 5e 6b b7 bf
       0.09476779604707017 -0.09148209530249299
000190 63 01 a1 39 d1 64 77 3f 74 84 50 b0 62 bc 23 bf
       0.00571138123092427 -0.00015057282158273714
0001a0 07 45 c5 15 0c dc a7 3f c3 da 28 5f 96 97 99 3f
       0.046600701959173256 0.024992322500305485
0001b0 c4 07 fa 12 a4 d2 ad bf 04 9c b9 a1 b3 e7 95 bf
       -0.05824768764161051 -0.02139168428984918
0001c0 5c c4 43 cf 0a 9e d2 3f 8f 16 ca aa c6 60 c3 bf
       0.290896131903599 -0.15139087046934604
0001d0 de 13 51 5d b1 25 b3 bf 8f d6 2a 53 f0 c6 bf bf
       -0.07479389694442726 -0.12412931471302556
0001e0 7b b1 4e ff 6a 0c 83 bf c4 df 2b 64 bc a3 b1 bf
       -0.009301029125560181 -0.06890466161337289
0001f0 5f 07 d4 d0 84 3d cc bf e3 25 a0 05 96 47 cb 3f
       -0.2206274051350716 0.21312213205992156
000200 12 22 fd a6 56 7a a1 bf a7 b1 74 38 5c bb 20 3f
       -0.034136493572592866 0.00012765408266924886
000210 67 47 a8 16 ae d7 c9 bf bb c0 e4 da 48 d7 cd 3f
       -0.20189453226390272 0.2331324642959823
000220 cb a3 cd ee cf fe ba bf 2a ad eb 5d 87 30 93 3f
       -0.10545062618406502 0.01873981009241025
000230 e4 be 78 2c 0c 2e c1 bf c8 c4 fa 49 10 dc bb 3f
       -0.13421775981395634 0.10882665449277618
000240 31 f3 df 60 76 9c 8a 3f 01 44 d2 3b 68 a2 a8 bf
       0.012993740874657074 -0.04811406831971255
000250 01 e8 9a 63 05 eb a6 bf 63 62 d8 c6 bd b2 ac 3f
       -0.04476181832201576 0.056051188014127694
000260 4c 19 c8 59 b6 4b a0 3f c0 2f b2 ee 43 1a a4 bf
       0.03182763906447636 -0.03926288880128892
000270 51 f7 41 5a e1 88 c9 bf 15 e8 b3 90 6a b9 ba 3f
       -0.19948975474465638 0.10439172776014545
000280 86 c7 be ea d1 71 8f 3f 61 4d 29 2f 16 90 b1 3f
       0.015353813148838002 0.0686048379077895
000290 b6 99 16 15 13 15 c4 bf 7b 07 46 59 55 85 b0 3f
       -0.15689314393712345 0.0645345061257369
0002a0 82 3f 69 14 71 7c 8d 3f 48 ba 9e 21 c5 49 c0 3f
       0.014397509990118133 0.12725128308871292
0002b0 9d 72 7a 08 2a eb e4 bf e2 03 65 d3 e6 cd d0 3f
       -0.6537065663902301 0.26256724018099764
0002c0 c5 b1 a0 1d 2a fb c3 3f df 90 53 6b 4e 41 c1 3f
       0.1561024326960149 0.1348054908804732
0002d0 0a 07 e7 50 4f 0d 46 3f dc 4a 42 41 7b d8 92 bf
       0.0006729733739165588 -0.018403936250772954
0002e0 73 6a cb 96 9e 0c 87 3f 1d a4 5d ca 15 bd 9b 3f
       0.011254538514028333 0.027088489986827214
0002f0 16 67 0b 22 76 2b 96 bf 3c 23 ed 95 47 9d 96 bf
       -0.02165016730109589 -0.02208434918000822
000300 b2 74 cd e5 25 fa 9f bf 87 a7 45 1b a6 f0 82 3f
       -0.03122767653564002 0.0092480637619763
000310 6f f8 0f 65 10 76 94 bf 9c 83 ec 23 51 e2 a0 bf
       -0.019981628578527862 -0.03297666133426633
000320 37 c4 14 f1 f7 2e 89 bf 47 0f a3 98 35 0d 90 3f
       -0.012296616596900829 0.015675389710636336
000330 2e 26 6a 67 e0 e8 98 bf e6 b3 2a 87 ab 67 7d bf
       -0.024325853645257016 -0.007178945571166806
000340 5f ec 03 2f bc 93 74 bf 7f 14 2e fc 4d 67 5b bf
       -0.0050237036632508605 -0.0016725789616612028
000350 5a 75 76 ee 4e cd 82 bf 60 95 c2 36 72 2e a4 bf
       -0.009180657055191933 -0.039416855988103405
000360 90 bb 8a 0e 78 2b a6 bf ed eb b8 a0 2e c2 8c 3f
       -0.04330039193643309 0.014042248039109107
000370 69 b2 d4 87 d9 63 72 3f 56 c4 6b 7c a8 31 82 bf
       0.004489755371917961 -0.008883777901674755
000380 27 d3 5d 46 80 e1 9b bf 7b 4c 77 c8 58 7b 6b 3f
       -0.027227405829267994 0.003354714779314314
000390 eb c4 2c b3 06 d5 8e bf c4 f7 fb 9e 2d da a8 bf
       -0.015054752676947966 -0.0485395676205225
0003a0 1e 34 d6 50 04 af 68 bf bb 37 e7 e7 05 f8 7e bf
       -0.003013142041430785 -0.0075607519815558645
0003b0 5f e1 a2 59 74 20 9d 3f 5a b6 f2 d4 5e a8 90 bf
       0.028444116564715013 -0.016267282244987726
0003c0 aa b0 e2 c8 9b 12 8a bf 9f ba fc 59 46 7c a2 bf
       -0.01273080546192092 -0.03610439156033362
0003d0 81 e1 3a 44 b3 69 90 bf a1 e2 78 27 f1 bf 95 3f
       -0.016028214492253227 0.021240013155166996
0003e0 71 9d a4 d4 5a de a2 3f fd e0 e5 cb 8f 44 42 bf
       0.03685268254985886 -0.0005574895983917746
0003f0 22 bd 40 6e 6e 35 81 3f 36 84 8a f3 80 a5 a1 bf
       0.008402693500186024 -0.03446581814683507
000400 79 0a 52 a3 bb d1 80 bf 87 8c 7b 59 40 e5 7b bf
       -0.008212533876080773 -0.006810428014179532
000410 c0 07 d1 fe 7c d8 84 bf de 67 38 83 c1 ff 83 3f
       -0.010178543592818445 0.009765159432436773
000420 ae 2d fc 82 a2 5c 7e 3f 82 b9 c5 ea 32 4e 8b bf
       0.00741256219022139 -0.013332746305164237
000430 42 3e a4 ab 46 70 78 bf 9f 59 ee ec 90 e9 71 bf
       -0.005966449791472041 -0.004373136630326262
000440 6e d7 83 ba a5 68 78 3f 30 34 c7 1a 51 4d 92 bf
       0.0059591745159560516 -0.017873065242202724
000450 31 41 9d d5 83 e3 85 3f 3e 2a b3 9b 9c 24 84 bf
       0.010687856632700306 -0.009835456372816794
000460 da 5b 78 81 61 83 8d bf b4 19 63 1d 30 cb 78 bf
       -0.014410745395293679 -0.006053150127803542
000470 58 8c be 6d 4a 54 93 3f 34 9b b5 2e fa 3d 91 bf
       0.018876231144201533 -0.016837987042346472
000480 0a ea bc 2b 9f 8c 79 3f bf 69 d3 58 9a 8c 8b bf
       0.006237622986925215 -0.01345177253317764
000490 42 41 ca 52 1c d5 80 3f 74 91 af 7d 4f e7 97 bf
       0.008218976284553595 -0.023343317075970885
0004a0 f8 38 cb 1b 6e 97 91 bf 56 bd 99 71 59 dd 79 bf
       -0.017179222532654997 -0.006314610852867849
0004b0 30 b0 d0 aa 18 3d 85 bf 87 a3 bd 9a de 9a 99 3f
       -0.010370438301912172 0.02500484294378993
0004c0 10 15 af 6f a7 cc 80 bf a7 c3 70 57 0a 0a 7a bf
       -0.008202846618483167 -0.0063572315184935784
0004d0 d6 09 2e bd 76 24 8c 3f 89 59 cf 23 17 4d 8e 3f
       0.013741424225149606 0.014795475750287295
0004e0 2a d8 a4 18 f4 05 82 bf 03 b8 34 aa 3b 22 37 3f
       -0.00880041790206228 0.00035299259816923295
0004f0 c5 79 41 b3 99 12 64 3f de 78 be cc ab 46 84 3f
       0.0024502756078128318 0.009900419412414537
000500 17 ac cc 27 73 65 85 bf 66 97 14 b0 22 af 62 3f
       -0.010447406437000635 0.0022807767387744036
000510 8f e7 05 d2 74 41 73 3f 1e ed 90 21 2e f5 86 3f
       0.004701095895478859 0.011209831618649132
000520 f3 ed 17 88 d3 b2 3d 3f 29 b2 ec db 99 0d 74 bf
       0.00045316376062462456 -0.004895783435852987
000530 f2 f2 ce a6 e8 d4 65 3f 8a 00 b0 7f 7f b0 77 3f
       0.0026649993874044925 0.0057835560246532
000540 34 62 2c 93 c3 bd 71 bf 82 82 16 e6 b4 71 6f 3f
       -0.004331363644063436 0.003838399236613833
000550 95 35 f7 df 1e bb 75 3f 9c 2a 37 9d f8 e2 5c 3f
       0.005305405240006241 0.0017630985138220928
000560 b7 a7 33 9e 4f 49 73 bf 51 e5 50 fd 0e 21 86 3f
       -0.004708586700170095 0.010805241685477059
000570 53 b6 a9 c7 f6 47 85 3f 64 80 24 f3 6f 3c 84 bf
       0.010391166656712835 -0.009880900008795553
000580 64 45 89 57 49 79 58 3f 7c f1 01 5a d0 99 74 3f
       0.0014937607030741313 0.005029500840575071
000590 a7 0a a3 54 fe d9 68 3f 7a 12 0b bd e4 85 90 bf
       0.0030336348910123437 -0.016135763204845756
0005a0 d7 2f 10 4f 65 9e 8d 3f 45 db 7f 53 d4 8d 91 bf
       0.014462272143667505 -0.017142598720933284
0005b0 dd b1 36 a4 66 22 93 3f de 6a 0a 41 1e 0d 6a 3f
       0.018685916683965565 0.003180083360644444
0005c0 6b 61 bb 04 60 48 4c 3f 68 55 12 e3 6b 02 81 bf
       0.0008631199684386142 -0.0083053997680433
0005d0 0a d2 0e f0 99 55 89 3f 5d 72 ff 10 7e 00 8e 3f
       0.012370302809224593 0.01464937676785743
0005e0 0f ec 18 e8 f9 3f 7d 3f 3b 66 32 17 3f 63 6d 3f
       0.007141090581678901 0.0035873634565859714
0005f0 04 1c a5 89 34 1d 6d 3f 79 84 89 b1 6a 0a 86 bf
       0.003553965199134536 -0.010762055914883316
000600 0a 97 16 fa 11 0a 7c 3f 9e 0e b8 66 20 9f 8b 3f
       0.006845541212362036 0.013487103590711865
000610 c0 4f 73 b1 9a fb 85 3f b3 ee 78 e5 8e ad 6a 3f
       0.010733803310735257 0.003256587118611731
000620 f8 5b 26 ad 9f c8 5a bf ad 67 d5 8c cc 19 41 bf
       -0.0016347464885251278 -0.0005218743114412304
000630 b1 1e 8b 08 83 ba 7e 3f 23 01 84 68 da 1e 77 3f
       0.007502090310204033 0.00564465823868002
000640 3c 13 0a e0 8f 80 73 bf 8b a9 d1 68 cd 45 88 3f
       -0.004761278164214396 0.01185188747532064
000650 66 40 75 29 e8 7b 60 bf 63 4f 1c d6 ba c0 73 bf
       -0.002012208405780358 -0.004822473363464616
000660 73 c6 df 7c d0 3c 8f 3f 1c 99 40 79 d7 57 87 3f
       0.01525271302304818 0.011398013484790463
000670 28 cc fb 59 0e 85 81 bf 3f fc 46 5c 9c 6e 57 bf
       -0.00855456554515939 -0.0014301802594756244
000680 35 48 fa 87 31 90 37 bf dc 83 98 6b f6 e3 93 3f
       -0.0003595467496576605 0.019424295727848193
000690 0c 59 15 cd 1e 2b 49 bf 4d 12 15 f2 9c 11 11 bf
       -0.0007680797954588161 -6.511230869416761e-05
0006a0 e7 71 cf b7 4f 48 83 bf 76 1f ce aa 81 22 72 bf
       -0.009415266797014389 -0.004427439224748633
0006b0 f8 f4 5f 95 72 a7 82 bf 20 22 41 65 bb f6 91 3f
       -0.009108443435247512 0.01754277043827035
0006c0 35 f2 7f d7 86 72 94 3f a8 97 b8 e8 ef e2 92 bf
       0.019968134787619902 -0.018443821505705366
0006d0 fb 16 61 7c cb e4 91 bf f1 43 bf b2 a1 9c 70 3f
       -0.01747434565211046 0.004055625566210517
0006e0 30 f8 d2 1b cc b3 87 3f 76 63 34 8e 85 ca 73 3f
       0.011573404883503086 0.004831811619873663
0006f0 62 2e 86 95 4f 99 81 bf be 03 92 12 9c 7d 72 3f
       -0.008593198538412842 0.0045143219550717855
000700 52 0b 25 5e 37 2b 5d bf 6f 51 83 af 0a 34 84 bf
       -0.001780323095389409 -0.009864886742811689
000710 4e fe 36 87 bb c0 71 bf 13 b8 79 7e 40 fd 5f 3f
       -0.00433419469067038 0.001952469809022532
000720 03 16 e3 94 70 b0 7a 3f 3e 62 cf cf de 17 08 bf
       0.006515922328792725 -4.595421521686294e-05
000730 28 f3 9e 9c f3 e8 64 bf ac 8b 0f 0e a4 bb 83 bf
       -0.002552486233041402 -0.009635240248774789
000740 40 ec 05 39 4e e7 39 3f 18 93 92 59 20 4b 70 3f
       0.00039525661215806043 0.003977896086472275
000750 1f d5 9a d6 f6 1e 65 3f 82 dc c5 92 3c 8e 3b bf
       0.0025782414494083384 -0.0004204652675733959
000760 5e 76 3f 55 74 68 6b bf 3f a5 d8 4c 58 d7 8c bf
       -0.003345706189050542 -0.014082612843668072
000770 3c 0c a6 63 9d 5a 74 3f 3a d8 0f 5a 8c ca 68 bf
       0.004969229509131753 -0.0030262700315644405
000780 4a 7c d9 6b e3 36 83 3f 9b d8 45 2f 0f 65 83 3f
       0.009382034996802475 0.009470099096443632
000790 a1 3e f4 ea 38 57 6d bf 07 f3 b3 e5 ae 88 7e bf
       -0.003581629912907961 -0.0074545700001607046
0007a0 12 6a f7 79 a1 8c 65 bf 0e 61 78 9d a5 e5 65 3f
       -0.0026305345379402734 0.0026729807539248645
0007b0 86 54 e1 2c 91 e9 87 3f ef 6a d8 2b e7 93 78 bf
       0.011675962621817481 -0.006000426304604941
0007c0 6d 51 62 d7 73 94 87 3f ce 47 df 38 4c dd 89 3f
       0.011513619432925915 0.012629123197175487
0007d0 ea 35 1d a9 db 6f 91 bf 98 bc dd fb fa fb 5b bf
       -0.017028267094522244 -0.0017080260290318946
0007e0 df 63 05 d8 24 91 78 3f 74 4d 54 d6 4f 0b 72 3f
       0.005997795029849733 0.004405319084315951
0007f0 f7 3f ed 54 6c 05 64 bf 24 61 54 20 79 41 41 3f
       -0.002443992219390619 0.000526603835768778

linear.bias f8 [16]
000000 26 0e e1 e5 66 9c e8 3f a2 22 d4 98 41 93 eb 3f
       0.7690920343233685 0.8617256150183332
000010 f8 5b e1 f7 24 c8 ec 3f f2 37 e2 d3 fd 4c ee 3f
       0.8994316903507515 0.9468983782151084
000020 1f 03 ca ef 1c 92 e8 3f e2 d2 86 6b bf 7a eb 3f
       0.7678360637074525 0.8587338543062197
000030 53 1b f4 cf a0 a3 ec 3f 7c a0 18 a6 f6 2a ee 3f
       0.8949741422264686 0.942744564444197
000040 b0 19 38 4f 0a 72 e8 3f c7 f2 31 2a cc 7b eb 3f
       0.7639209315537325 0.8588620018122918
000050 51 77 2a ed be c0 ec 3f cc cf 1f 63 1a 5c ee 3f
       0.8985285408159404 0.9487430511494437
000060 df 23 a0 eb 32 9e e8 3f 61 f4 fd 45 64 78 eb 3f
       0.769311390119693 0.8584462515860986
000070 85 4d 02 6c 32 b4 ec 3f 4e c0 17 ed a2 4c ee 3f
       0.8969966992903414 0.9468550329893419
