checkpoints/GRU.NINO.0324113105.pth (torch_old, 221116 bytes, 12 tensors)

encoder.weight_ih_l0 f8 [192, 4]
00000000: bc04 9ed3 72d2 c23f 0a8e 05b1 552f af3f
00000010: 4a55 62ba 206f a93f d43f a28b 6fb5 c23f
00000020: 2b51 5258 a540 ca3f af30 970c 841d a4bf
00000030: f813 b3b3 e300 b03f e429 9c01 6450 a53f
00000040: 9b16 5e3c c1ad b3bf 9dd3 7122 b62f aa3f
00000050: dd38 3ad3 192d c2bf c837 f2ee dbc4 a43f
00000060: 918c f92c 864f 8d3f c638 b63c 353b bcbf
00000070: d9b1 dad5 6d77 963f 0010 0563 6a9e 993f
00000080: ff1c 898c 6fb4 c2bf 0776 d366 1326 93bf
00000090: afd1 5f02 73db 83bf f62d 2570 3f60 b3bf
000000a0: 055b f697 bbb8 8cbf 53bf 95fe 090d 7d3f
000000b0: c85c 00fe 0a17 a53f 2094 9fb4 ea84 b9bf
000000c0: 4afd 602c 91be a33f 9301 5100 fbc7 a13f
000000d0: 5c06 cdbc f2fd c33f 65fe acea caa5 b2bf
000000e0: 60b3 47a8 03ff 90bf a932 2066 62e8 94bf
000000f0: c75a 7a6b 2d46 af3f 6235 e730 790d b03f
00000100: eb75 d910 8400 98bf 7ee9 06bb 7e72 9f3f
00000110: f1a9 fb3a 8487 a63f 17f2 078c 7438 b8bf
00000120: 5ab2 c12a 9da9 c3bf acc1 bd11 4b2e b63f
00000130: 3482 2db7 9371 a03f eabc 3c49 af9c b9bf
00000140: f504 df8b 97c5 b33f e696 d390 1469 c4bf
00000150: c061 2698 a8ae a9bf 90c7 813f c14f 68bf
00000160: 2051 1299 9e0b 9fbf 7d90 3232 2a8c c2bf
00000170: a0f8 86e2 50ba c2bf 73db f80b 1c27 cfbf
00000180: 8417 a1d3 574e b5bf 67f7 1abf 5259 a83f
00000190: 2404 741e 1edb c7bf 09f2 7d31 fc72 c1bf
000001a0: fc83 044c c183 b33f 7ced 288c 67d0 a4bf
000001b0: d399 fecf 034d c0bf a79f c217 77f1 ba3f
000001c0: 9d33 7ba7 d715 91bf ae88 2ca4 536b c03f
000001d0: a17f c2b1 2d8f afbf cd6a 475a e445 8abf
000001e0: 8b9a 917a 258e b4bf 1897 6838 6ee2 91bf
000001f0: 70aa ae7c 4c20 b9bf 6fc5 43af 1d24 babf
00000200: b8c1 3bdf 8873 d03f 8042 cf73 22a9 cf3f
00000210: 2244 2da6 f69f c93f 0191 55ad 3d94 b13f
00000220: 043f 36e0 a18f 9b3f b70e 2e11 8f87 af3f
00000230: 920b 9f7d 81b4 9c3f 84d5 227c f1f8 7a3f
00000240: aaf6 babb 8549 483f 5fff ca29 c40c a7bf
00000250: bfa1 85da 00ad b03f 8da1 f1e6 ffe4 b23f
00000260: 52ac 1468 eb47 aabf 872b 7a89 2345 76bf
00000270: a437 e94b 35b8 c4bf 4bfb 643d 2ec5 16bf
00000280: 1881 2ecc 7175 a5bf 8aa9 b32d eb31 a93f
00000290: 876d 6492 5a33 88bf 3480 79ec e97e b8bf
000002a0: f486 75a4 bbcb c13f 4719 de40 355d c93f
000002b0: acfe 2485 6d06 b33f 09c3 b027 2f67 6dbf
000002c0: 009f e805 3db4 973f 888b f77d 6c38 a43f
000002d0: b75d a92c 137e c1bf 12fb e39b b641 b3bf
000002e0: 8c8c 1e65 5e70 c4bf 9937 142a 1c83 a3bf
000002f0: 0f11 1d8d 6d8d b0bf 9a4a e2f1 6c96 c93f
00000300: efd8 85bb 98e3 a9bf bf80 53fe 03d5 9c3f
00000310: b2d1 3d86 1ad0 b4bf 787e 7a96 f854 a73f
00000320: 00af ef06 7732 b23f de7e 9652 f747 b63f
00000330: 3c2a a850 d2a8 b8bf 4cfc 4666 41b5 a33f
00000340: 5c8e 9424 2a11 73bf 36e1 5885 c699 ba3f
00000350: 3447 9b8c 665d ba3f f04d fba0 eb5d be3f
00000360: ba01 311d d2af b7bf f89e 2a93 1133 c7bf
00000370: 26ec 2596 8a26 94bf 212f 7110 2fd2 ac3f
00000380: 5a3b 9f9b fde3 b1bf 73ff 29b0 81af bcbf
00000390: c59e 6692 d4fc c2bf 7aee 2fa2 0015 b83f
000003a0: f95a 69db 3203 c0bf 940b 2d78 2d48 af3f
000003b0: effc 44ce 883a ac3f ac29 8417 242f c0bf
000003c0: 5040 11b6 9b3e b3bf 72d5 4a01 d51a ba3f
000003d0: e5e3 7c51 ccc8 a0bf 3e31 2408 24b8 683f
000003e0: 5a7b e7d1 719d ba3f efab 1883 a33d 92bf
000003f0: d75e 4185 9e03 babf f6e6 1a5e b95d 893f
00000400: c7b2 8880 062d af3f 1a87 a173 deac 96bf
00000410: 2289 6642 ce30 8c3f e3ac 15ca b253 b03f
00000420: 1966 2d9d ceaa bebf 7ebc 1140 e528 abbf
00000430: 4b35 33b6 56aa c7bf 0497 b921 1d2f a7bf
00000440: 4d03 6b8f 70c0 d3bf cc7a 190e 3576 c7bf
00000450: df20 d4db 0026 c0bf 2cbb a2d9 ba6f 833f
00000460: cccc 0b3c b6b9 c4bf 96f5 f7dd d747 c8bf
00000470: e82b 0f9e 261e c5bf 1380 47d5 e550 b3bf
00000480: 0625 9aef b24f b9bf 20f1 37a5 eff9 98bf
00000490: fc31 bb10 c210 c0bf d3e0 908e 9ee6 c1bf
000004a0: ebcb 6d8c 6610 c0bf 21d6 5974 ff9f 9e3f
000004b0: 4321 a345 bd2c 9dbf 4dff 9f09 a137 973f
000004c0: a642 0e1b b6b7 a13f 57bf 8280 aca0 a53f
000004d0: b840 cfdf 24f9 c4bf 4d5a 181b 0f81 b3bf
000004e0: f904 59be 3cb6 b1bf 8f41 3832 c6b8 c2bf
000004f0: 7502 576c 4691 c2bf 0fdd 0b21 6be0 c5bf
00000500: 457c f2cb d697 b73f 0430 c2a7 17b1 b0bf
00000510: a56c ffb9 cbdc a1bf e797 c924 43a1 933f
00000520: d6db 158d 9e63 9e3f b6e6 2189 254f c83f
00000530: d89e 0286 3d83 b4bf 393e eec5 5c02 bfbf
00000540: 5b31 613c d70f a43f 9836 dfb2 66c4 b33f
00000550: 6a00 9f4e 2f90 bbbf 26d1 ad91 ba08 b1bf
00000560: 9435 1039 15c3 b83f 244e e289 6c5d c13f
00000570: 3311 efb1 7f96 b83f e349 d7d6 0f17 b23f
00000580: 1513 8255 6ad9 d1bf fb52 ad7a 0369 bebf
00000590: 22a9 cfaa 4b0c a8bf ccf9 9996 69dd b8bf
000005a0: 4f46 48a3 a730 91bf 053a 0d76 c977 963f
000005b0: 224e b58d 2d6c b13f d2cc 75df f651 ba3f
000005c0: 0651 f71f 75d0 b2bf 80e9 4c1d c087 b2bf
000005d0: 8653 90a2 a804 b5bf 4942 9727 ae89 b4bf
000005e0: 2eeb f1e2 1311 9d3f ae8e 89e7 cb43 c13f
000005f0: 38eb 3df1 0df3 b63f a916 d982 4ca7 c43f
00000600: 25b9 9396 76f9 9f3f 1eec 3fc5 62f3 b9bf
00000610: 6067 4d93 21df b8bf b661 d5ad 15d0 8b3f
00000620: bed2 2014 746b 84bf 5a91 4176 0cdc 6d3f
00000630: 772b 12c3 238b bb3f cd75 d251 c9b9 c13f
00000640: a158 916a 8b7d aabf 5b8b 7109 c2e6 c03f
00000650: ebcf ea9a a033 a4bf 9151 d689 3d60 c03f
00000660: 9438 686c eca0 bd3f ec07 2fde 4515 9d3f
00000670: fff3 5dc0 668e b13f a049 3ca6 bf86 b03f
00000680: f716 71fc 831e ca3f 9cbd 40c4 58a1 5d3f
00000690: 4801 6085 a9cb be3f 06d6 6cca d3b0 c53f
000006a0: c42e 6b0f 1291 c2bf b29b 7084 b3b5 cbbf
000006b0: a7ad 285e b8f4 b3bf 7561 ec50 34fb 953f
000006c0: 0f09 9b4b 5df1 a53f 923d e92b 3ae2 adbf
000006d0: 8042 bcaf fe55 b33f cc26 6e58 bfdf bfbf
000006e0: 07ee 6565 1787 aebf c658 6dd7 e17c c03f
000006f0: 1f77 3559 be75 c0bf a786 c756 c08a a53f
00000700: 72aa 5bf3 09d5 c03f 9a2a e7d6 18b4 bd3f
00000710: bcd3 82d5 e330 933f 2903 f965 1691 aabf
00000720: decf 826f 6ac1 90bf a154 1ec2 9bfe bcbf
00000730: 61cb 904b 9cb6 6d3f 854d 3b0a f193 ba3f
00000740: 805c 5e84 63b2 c3bf b702 70e0 feaf 0f3f
00000750: 1211 ccee b25b b13f 1648 4291 565d b8bf
00000760: 06fb 3b0b 1dfa bebf 9921 6151 607e 9abf
00000770: 1c30 c6bc 7774 c1bf dff9 b7c1 c551 a13f
00000780: b236 dbda 63e8 a53f eb38 cd31 22a9 a93f
00000790: 97a7 de6b a88e 7b3f 5580 1635 86a5 bf3f
000007a0: 8bea 335c b2f8 afbf 2d37 f9ca 597a b3bf
000007b0: 68af 2ca0 a086 bdbf 9357 e16b 5475 9a3f
000007c0: 46b4 2334 5fa2 c2bf 1b9f ad07 5bf1 c3bf
000007d0: e85c 8a48 e8d2 b4bf 2e4f 4414 c08e bbbf
000007e0: 3554 f321 c7cc a2bf faaa 3653 a4dd c2bf
000007f0: 35d2 8aca 9a1b a13f 7d4e 3dc6 eb96 3dbf
0.14704737980722438 0.060908010348409716 0.04967596316525176 0.14616197889381388 0.20509783566070303 -0.03928768781369862 0.06251357209391972 0.04162895698216909
-0.07687003825966558 0.051145259575526604 -0.14200136960830081 0.040564415853722446 0.014311836478731162 -0.11027844173642895 0.0219399606491367 0.025018369954764808
-0.14613146173562794 -0.01869993510341852 -0.009695909986455612 -0.07568737495346753 -0.014024224829694907 0.007092513123424587 0.041191428667099184 -0.0996843996977792
0.038563286464063554 0.03472885493147539 0.15618738383095632 -0.07284229497326462 -0.016597802301407838 -0.020417726023924363 0.06108228623377481 0.06270558780598415
-0.023439467934044982 0.03071020142099589 0.04400265903480605 -0.0946114389298106 -0.15361370647169076 0.08664387877593666 0.032116523848121054 -0.10004706895846352
0.07723376431296798 -0.15945679732902035 -0.05016066415118159 -0.0029677175880857345 -0.030317762463327402 -0.14490249110270162 -0.14631091175937616 -0.24338102898192523
-0.08322667042474846 0.047556482151306416 -0.18637444006893233 -0.1363215676937133 0.07622917276286495 -0.04065250001846274 -0.12735030799849642 0.10524696664890475
-0.01668488464092698 0.12827535167986553 -0.06163924021643586 -0.012828620915504097 -0.080293981956496 -0.017465326493172645 -0.09814909023286034 -0.1021135857479487
0.2570516757978356 0.24734907774702108 0.20019419778921682 0.06866822702210486 0.026915101346786777 0.06158110699382518 0.02803232506972681 0.006585067081848254
0.0007411864275678932 -0.04501927385490378 0.06513982138643025 0.07380675686147793 -0.05132995267407438 -0.005437029663549426 -0.16187158781616262 -8.68615601108239e-05
-0.04191165559245941 0.04920897419818278 -0.011816699593103731 -0.0956865503626439 0.13902993707875277 0.19815698306428883 0.07431683064077771 -0.003589241122903157
0.023148492322575542 0.03949297940905355 -0.1366600006174232 -0.07522145563050867 -0.15967922151057612 -0.03810966504725783 -0.06465801901964972 0.1999031239580134
-0.05056454934212861 0.028156340024793943 -0.08130040910129457 0.04557015263457925 0.07108253402082809 0.08703561559968473 -0.09632601231729948 0.03849224446775476
-0.004655041332884826 0.10390892749353928 0.10298767979409434 0.11862061195579776 -0.09252656185800037 -0.1812459915720337 -0.019678273596110206 0.05629107547483004
-0.06988511132588596 -0.11205301810150363 -0.14834077023009776 0.09407047233247026 -0.12509761537031475 0.06109754650108026 0.05513408201158564 -0.12643862865691113
-0.07517407603268222 0.10197192460585372 -0.03278196806645165 0.0030174926515710567 0.10396491407980815 -0.017813258053290978 -0.10161772492699171 0.012385795769080481
0.06089039153116498 -0.022143817718080695 0.013764964486487733 0.06377713617046114 -0.11979380929314977 -0.053046382971722914 -0.18488582512365279 -0.04528132473642013
-0.3086205864492982 -0.18329489887670147 -0.12615977033443124 0.009490451590264813 -0.16191747600496453 -0.1896924814063083 -0.16498263089883314 -0.0754531522466098
-0.09887235974942507 -0.02439093061364972 -0.12551141564325963 -0.13985044442393377 -0.12550050598983317 0.029907218433853914 -0.02849097955257319 0.0226731454968097
0.034604731371591854 0.04224146908506892 -0.16385327270700656 -0.0761880341673102 -0.06918697020684651 -0.14626386119972465 -0.14505844392808212 -0.17091120828238401
0.09216063002757931 -0.06520221563022238 -0.034887663321307806 0.01916985427887843 0.029676892625015792 0.1899153632728507 -0.08012756845220836 -0.12112979728976193
0.03918335544639958 0.07721559397688293 -0.10766883534870578 -0.06653944069495718 0.09672672885081673 0.13566357357613967 0.09604642957771574 0.07066439623967073
-0.278894980911262 -0.11878988022847274 -0.04696880779359193 -0.09712848593515061 -0.016787165966951453 0.021941325979520716 0.06805691442178177 0.10281317668504933
-0.07349330931112172 -0.0723838874372742 -0.08210233658640051 -0.08022583452771771 0.028385458685515612 0.13488148503812653 0.08964621677106954 0.16135555638372992
0.031225064220899008 -0.10137002292314931 -0.09715471121071806 0.013580483787038893 -0.009970576156868357 0.003644966449473025 0.10759185326075547 0.13848225112171378
-0.051739079245338056 0.13204217396841042 -0.03945638552741556 0.12793702345210226 0.11573674818666496 0.028401462255494822 0.06857912250957553 0.0645561009262452
0.20405626131303453 0.001808487592835784 0.12029513841844619 0.16945884117164683 -0.14505220177522038 -0.2164825817755776 -0.0779528837089659 0.021466081084413575
0.04285708949966437 -0.05836660181068533 0.07553092756666935 -0.12450786503736849 -0.059624415519433475 0.12881110209372632 -0.12859324794674706 0.04207421359366253
0.1315014303466629 0.11602931257872698 0.018741187960319414 -0.05188817972930899 -0.016362822586145735 -0.11326001633854556 0.0036271145477483756 0.1038199090938204
-0.1538814922648477 6.043907711017953e-05 0.06780546503074827 -0.09517422720298926 -0.12100392841601257 -0.02587271210384898 -0.1363668128727803 0.033826999566361364
0.04278862043939337 0.050118511752417515 0.00672784604641121 0.12361944957820133 -0.062444280390953365 -0.07608567433746023 -0.11533550177108298 0.025838202557074984
-0.1455801968180898 -0.1558030879489188 -0.08134319087035957 -0.10764694685741169 -0.03671858109888896 -0.14738897383843846 0.033413731789015 -0.000451500475027823

encoder.weight_hh_l0 f8 [192, 64]
00000000: f2b8 b44c d57c bc3f 5cd6 8d4e 5464 b63f
00000010: a813 af7f 7a6b a53f 6ce5 ecd0 c3a7 b23f
00000020: ed86 f00d b752 a03f f016 74cc d659 bd3f
00000030: abaf 4b34 d9d9 a43f 4136 8ad7 9f5c 97bf
00000040: de14 c344 6c0d bf3f 50a7 a32e 4852 853f
00000050: 9045 143d 502f c9bf faa2 8c8b 1ae8 ab3f
00000060: 57a8 f994 1a15 b9bf 3b29 29d4 79b0 b6bf
00000070: 3c0e 7728 6e10 b6bf ad6c 98b9 24a0 b6bf
00000080: ec1d 4648 8f9b 903f 8c26 47b8 904c c2bf
00000090: f893 59eb 58da b23f 4fb1 c0cc e91b b2bf
000000a0: 4e57 c84a 522b bd3f 14e1 64b1 8921 c8bf
000000b0: e590 aa91 0138 c0bf c68e 805d 6c03 dcbf
000000c0: aca2 c239 29f8 b5bf 6762 3280 8e9b b6bf
000000d0: 7168 0969 077f c1bf 1678 8703 38b8 a7bf
000000e0: 9fc4 b53f 1371 b3bf 2769 e560 def7 af3f
000000f0: db9e 3cca 78e9 babf 4e1c 4fb6 a8e3 8c3f
00000100: ef89 60f6 1c6e cc3f 31ac 8c6a 5229 603f
00000110: 93c7 d63b 2ba2 983f 8d99 016c 5ee6 a6bf
00000120: bc21 26d9 8891 c23f 722f 59b1 9b2a 8f3f
00000130: cf30 c627 bcf5 703f e11b a923 5e9a be3f
00000140: f4e0 fe82 b0f5 96bf 6ed2 4a82 e4e6 c5bf
00000150: 4e61 dd49 b8ad 80bf e9e0 3e0a 337a c3bf
00000160: 9378 8099 7a56 be3f f851 4e69 0180 9abf
00000170: 0180 d37d 4085 c5bf b79a 2b07 6198 b3bf
00000180: cd48 19cb e077 8b3f 290f d455 7bdf b33f
00000190: 3668 499a f26a c3bf 235c 43ed 3457 a8bf
000001a0: 6321 d414 d92b b8bf d4d6 5c5c 6507 943f
000001b0: 197e 711c 657d bebf d616 bc6d 0618 a93f
000001c0: 1e2b 3893 d210 ac3f 71e9 4f77 63f9 b63f
000001d0: 572a 2e09 8897 c43f 1fac c3fe 896e b93f
000001e0: e543 fa98 4601 be3f 45c9 4122 7e9f ad3f
000001f0: bb79 01ad f0ea ac3f b2c4 4904 223e aa3f
00000200: a72e 5ad2 e6cb b6bf 54e4 2663 e9de 7dbf
00000210: dab3 6ead 3f0b c0bf f639 4896 b628 c0bf
00000220: a803 302c 9a1d c3bf f4dd 746f 51f5 aa3f
00000230: c016 3688 d19d ac3f 185d 1372 dd92 b43f
00000240: 8230 8611 7cae afbf a082 9fb4 a6b5 b1bf
00000250: 3e00 ba85 3266 9abf 96d4 ce4f 7cd7 bd3f
00000260: 8295 f923 a915 c33f a795 852f d340 9bbf
00000270: e392 56e7 28ea b03f 0f7f 47ad 7fb0 a13f
00000280: 4a41 142a 4bb9 c53f e40f 4501 fe65 853f
00000290: 5002 0c32 1619 b1bf 88dd 280b a6e4 973f
000002a0: d7cc 7eaa 937d 813f ace1 c6cc f618 babf
000002b0: 79bd 20c7 5909 99bf 16d5 d474 bc8a abbf
000002c0: 7a18 8d5c 1db5 a13f 7c10 47de 2e3d b0bf
000002d0: 58de c1ff f479 b1bf 5d55 380d 717b 80bf
000002e0: b388 a2e0 35e4 97bf 6e1d 8596 1b07 bfbf
000002f0: a85a b716 1771 b83f 79e3 c39a cad4 87bf
00000300: e33d b286 0aa5 963f 959e d363 005b 743f
00000310: a77f 1dba f8e9 7ebf e6de b794 a154 ba3f
00000320: 8e07 118f cd56 b03f 79ee e5d3 b887 9ebf
00000330: 0372 1ed4 4219 c13f fb64 07a2 58d4 c63f
00000340: 226e acaf f54b babf 9858 2ad6 36c4 cabf
00000350: fd4e 264e 9e36 c23f 8eee 916b ee37 c4bf
00000360: 0154 2a64 b665 c63f 9fa9 c523 1f09 a73f
00000370: b0dc 8df6 74ba b2bf d4c1 db2d f514 97bf
00000380: e47b 7c17 b51d af3f 8289 0624 0238 903f
00000390: bd8b c27a 9184 cabf 0dc2 0cff f9d5 b13f
000003a0: b1db 5449 fb2c c03f 0454 a01b 22e0 b73f
000003b0: 308b 7d4b 92a1 a73f 56b9 26c1 4f88 c33f
000003c0: 7745 b04c d334 c43f 8256 0b4b 05a6 a63f
000003d0: 3625 4fa4 9668 6b3f ccb3 d318 ba60 25bf
000003e0: ce1e 686a c2a2 b63f 8a55 a4d9 3735 9b3f
000003f0: 497d 7db5 eb90 b0bf 830c 2eff 324e a7bf
00000400: 5ad6 930a b3aa b7bf d808 0b7f b535 ca3f
00000410: 4cfd b31b 4fd1 babf be15 63f2 7b89 a4bf
00000420: 3301 b7e6 c3cd b03f 93c0 a98b 6586 bd3f
00000430: 299a 925c b408 a53f 09b3 0dec 67d9 78bf
00000440: 846c f6d0 3737 b6bf 0c96 1f14 7c4d afbf
00000450: f3a2 1321 078c bebf 7f22 e0f1 9b5c b6bf
00000460: 1357 c005 3154 923f b844 a745 c37c 81bf
00000470: 6de6 b832 b7b2 afbf 1e47 6435 1afb c0bf
00000480: 0074 be01 645c d13f 4686 e487 cea9 a4bf
00000490: c221 ae29 c844 b83f 7568 528b 0b83 bf3f
000004a0: a4d1 d3ff 327e 753f 09ff 42f2 bd6f 9cbf
000004b0: 2bc9 f2b9 1ded b5bf 1d89 6c02 679e 993f
000004c0: 6d8c 463b 5614 a43f 7d37 0a28 e394 a4bf
000004d0: 5490 5a0a 2fa0 b0bf c1a0 7663 61ec 843f
000004e0: d3ef 2555 504b 633f c052 4865 d28a b6bf
000004f0: 742f 1001 ca42 c0bf a54a 515a 32b1 b9bf
00000500: d138 029c bb83 babf 540e e1c9 b1e9 b03f
00000510: 9aa9 069a 73bd bdbf db84 b849 f599 9e3f
00000520: a80d 529f b611 b33f 9dc8 f9a4 3deb a8bf
00000530: 9104 9021 14c4 b7bf e24e 81dc 9230 b33f
00000540: 312d 6811 54ca 8bbf 6c7e c18c 4c10 a5bf
00000550: c5db 109a cd6f a3bf a1ac c740 15fc c7bf
00000560: a0fd 2dbc 9258 c23f 2fa6 47e0 1457 a6bf
00000570: df47 e264 a16e c5bf 8d4a a377 f813 b53f
00000580: d281 7fc7 a519 a83f 7d2a ed72 2238 bb3f
00000590: b9fa 0a8a 4084 9dbf c7d5 dc26 e9de be3f
000005a0: 20a1 70a0 e7ab b13f de22 faf3 5c62 b6bf
000005b0: a501 95c8 b2ba 9c3f 48a4 413b 915b 6cbf
000005c0: c45e f373 c9c0 953f 94f3 d8b7 b296 bb3f
000005d0: 4d1f bb5d ef34 b53f b15d ef7e 1b16 a53f
000005e0: 0436 9f17 d906 c03f 476c 6164 ee83 7dbf
000005f0: f20a de83 5a60 b73f de99 e1e6 5371 a8bf
00000600: d1cd 0fe9 4025 863f 6603 e8fc 7c14 bc3f
00000610: aa59 6a7e db8b a4bf aca4 1057 a9ca bcbf
00000620: e722 d1f2 f0c5 b53f b1a0 01e6 8154 b23f
00000630: 0531 87fc 748b a33f 2103 e414 68dc b63f
00000640: b917 9ae7 9c6c 763f 783f 1d7e e97b b73f
00000650: b785 484d 6875 b5bf 15e9 d4d8 03af ba3f
00000660: fa91 6eb7 f311 bb3f 31db 65f5 e676 bb3f
00000670: b2c1 b2e9 79e0 b3bf 84b1 4d77 08b8 b0bf
00000680: 3339 7314 ccb6 b63f ec3a f946 14e6 bb3f
00000690: 9aed 5c27 1f9d b7bf 6623 7337 c327 a53f
000006a0: 0701 e503 7500 ba3f 3e42 3399 1cad a6bf
000006b0: e92b e965 9563 c1bf b56e a603 2b86 acbf
000006c0: 18c4 2640 6c8c 90bf e30c 885a 6db5 a5bf
000006d0: eb1b 7509 8e93 b73f 4742 c26e 0d9a b13f
000006e0: 984e e2e7 9fa9 b5bf c393 5369 0f67 7d3f
000006f0: 6d0a 9a48 ebd2 b4bf 5d19 9a9f 8be4 563f
00000700: 6294 e6d0 82ad c43f 8e9c 01a8 1673 a93f
00000710: 4cef 06cb 4e44 a13f d477 8e25 fe30 babf
00000720: ae98 814e 13e8 b03f bc03 0cd3 f323 5dbf
00000730: 022d f565 cc36 9dbf b0c6 0ee4 ce9a acbf
00000740: cd99 47ac 5db1 a53f 70f9 5658 f6c6 813f
00000750: 2d94 abc5 7e62 b7bf ef81 ca34 8fe5 bebf
00000760: 060a d7a0 efcc bf3f e118 8862 85e0 8bbf
00000770: 9ceb 41dd 0dd4 bebf 1bf1 fe03 0e0b bd3f
00000780: 41c7 1b19 067a b4bf 589c a1b9 1f47 b73f
00000790: 60ce f4e4 a36c ae3f 84cf f2b8 95e2 a4bf
000007a0: 071b a185 5e0f b33f aa05 4cd7 a411 bf3f
000007b0: ae66 8d9a 607e adbf 8f97 4702 0935 b6bf
000007c0: 6d84 0d3b 7909 aebf 7d13 2926 b1d6 c23f
000007d0: fd22 3aba 17d8 b53f 8221 ee35 dfe6 5fbf
000007e0: a6e1 4d3c 1ab9 8d3f 4976 c9f0 42ea 7fbf
000007f0: 6d86 288a 377b 9dbf cd4b f162 e427 9fbf
0.11127980349258218 0.08746840398620165 0.041835620962536624 0.0728723893233984 0.03188106579933767 0.11465208522357861 0.040724551805254215 -0.022814271479140173
0.12129856756935761 0.01041084663707506 -0.19675639135725165 0.05450518563731595 -0.09797826897707416 -0.08863030843455004 -0.08618820655743148 -0.08838109522951028
0.016218413149116914 -0.14296158788629432 0.07364421602103721 -0.07073842285962438 0.11394228292223582 -0.18852349435633953 -0.12670917141543395 -0.43770894175598263
-0.08581788692630238 -0.08831110601239232 -0.13668911579845003 -0.046327352934653884 -0.07594414048596086 0.062437962844983645 -0.10512499749585962 0.014106100143079694
0.22211038618213716 0.0019728288356382286 0.024056125190049803 -0.04472632473407421 0.14506636240936455 0.015217987394087838 0.004140601140886171 0.11954296465511006
-0.022421606059396873 -0.17110878335883534 -0.008143844370054023 -0.1521667289760054 0.11850706336596976 -0.02587892728077354 -0.16812902587753345 -0.07654386925751565
0.013412243078310482 0.07762881131571632 -0.15170128377468622 -0.04754033466604592 -0.09441906698714812 0.01955946327435394 -0.11910087532441373 0.04901142205748747
0.05481584593879617 0.08974286711592129 0.16087437103517985 0.09934294195015568 0.1172069667320695 0.057857457811126646 0.05647995101820721 0.05125528623910593
-0.08904879222444127 -0.007292663258732086 -0.12534328430538616 -0.1262424691962704 -0.14934088857264993 0.05265287862351534 0.055891559483865816 0.08036598238992487
-0.06187808717649636 -0.0691780272459348 -0.025780476963064063 0.11656929920612166 0.14909853226269482 -0.02661447503614558 0.06607299468903309 0.03454970350480668
0.16971721224445907 0.01044844094634096 -0.0667890426812019 0.023333162718896655 0.008540300026515997 -0.10194342135844775 -0.024449732569505642 -0.053792847882883674
0.03458492045187796 -0.06343357969950775 -0.06826716655802423 -0.008047946182197558 -0.023331491313577767 -0.12120220589451033 0.0954756193599261 -0.01163633618169667
0.022113956900794107 0.00496959831546175 -0.007547351446049711 0.10285386925522352 0.06382450812182425 -0.029814613278615874 0.13358340604180804 0.17835529243055945
-0.10272155321984447 -0.20911298234267828 0.14229182067776228 -0.15795688869899432 0.1749790181244464 0.04499146758719807 -0.07315760630978008 -0.022540884899116723
0.06077352439591957 0.015838654946159554 -0.20717066282403876 0.06967127301027905 0.12637272911680733 0.09326375174016738 0.046154567446839656 0.15259739810194145
0.15786210293348876 0.044235387240104465 0.0033457700942320047 -0.00016309997264532387 0.08842101190395654 0.02657019868737146 -0.06471131497300066 -0.045518487596404554
-0.09244841583480348 0.2047640676810889 -0.10475630213112658 -0.04011142095400143 0.06563972838103353 0.11533198032134555 0.04108203535115635 -0.00606670946659161
-0.08678006030679525 -0.061138036209552465 -0.11932415540253398 -0.08735060362972467 0.017899290061982386 -0.00853874737086567 -0.06191036695640837 -0.1326630364133558
0.27126407785709716 -0.040358022774182475 0.09479952828963348 0.12309333945668917 0.005247306076161005 -0.027770011817437133 -0.08564935483699247 0.025018319628665176
0.03921765779093609 -0.04019842017906592 -0.06494421007897816 0.010216484878427303 0.002355248355511799 -0.08805575344770045 -0.12703824092784155 -0.10036005692499346
-0.10357258375936175 0.06606589487733433 -0.1161720515289403 0.02988417875724712 0.07448903455411104 -0.04866974486221063 -0.09283567256354021 0.07495992549348388
-0.013569504529206885 -0.04113997667513733 -0.037962365204684136 -0.18738046324810845 0.14332803905925307 -0.043633129480280856 -0.1674386732670987 0.08233597679945089
0.047070675471107784 0.10632529550381693 -0.028824814248532536 0.12058884810252045 0.06902930895796944 -0.08743840176078829 0.028055947773511076 -0.003461631446090272
0.02124323625761694 0.10776822079146903 0.08283897436478789 0.041184291119573564 0.12520898488439525 -0.0072058975402696296 0.09131398887079081 -0.047739622052904926
0.010813243019561465 0.1096876256415392 -0.0401295272651397 -0.11246736884699499 0.08505159309528275 0.07160198083295445 0.03817334730737979 0.08930063734079542
0.005474675091710007 0.0917344983001821 -0.08382274519728737 0.1042330173849318 0.10574267605131374 0.10728305331381872 -0.077643985324136 -0.06530812180216655
0.08872676371831716 0.10897948010208908 -0.09224123679171328 0.04131898929478588 0.10156947465020859 -0.04428948755378713 -0.13585154987444462 -0.05571112079198085
-0.0161606706767011 -0.042399804402544004 0.09209525805373146 0.06875690416405532 -0.0846195164797855 0.007178363991646233 -0.08134336969855278 0.0013972629080015377
0.16154513550023625 0.04970618058069319 0.03372427204473513 -0.10231007019908073 0.06604118982940818 -0.001778591260688452 -0.028529351923947573 -0.055868592585637145
0.04236881950400893 0.008680271693148639 -0.09134666753705352 -0.1206902984508884 0.12422082592733127 -0.013611833638617234 -0.12042318965715854 0.11344993207507452
-0.07998693573952399 0.0909290149880787 0.05942260904194252 -0.040791205240934963 0.07445326578554666 0.12136297470353577 -0.05760480772614805 -0.08674675279288933
-0.0586660275064411 0.14717687953284644 0.08532856270370455 -0.0019471339980744189 0.014513211217249754 -0.0077917685381102076 -0.028790347869409084 -0.030425613917326722

encoder.bias_ih_l0 f8 [192]
00000000: bd4d ab44 e440 b0bf 0dbf 147e 7611 b83f
00000010: d815 664f 0ec3 a53f db34 6c7f b1b7 ba3f
00000020: cd92 82f4 62d4 c3bf 8e5c ad7f d929 a33f
00000030: 206e 8719 c7ee b83f 77cd 7305 632b b2bf
00000040: 0de6 a1c2 b771 81bf b58b 6fc0 a559 b73f
00000050: 2c63 9c09 fdad c1bf 486d affa cca4 963f
00000060: 6b75 c13d 4a42 b6bf 0c22 9f60 fc4e b0bf
00000070: d046 c70f dbef b03f 1e5b b4b9 d734 adbf
00000080: dfee 6613 5d2e b13f c4c8 a782 4560 c13f
00000090: afa3 e68a 54b8 a83f 5354 9e3e 113b bd3f
000000a0: 1fc9 a9aa 7c9e 9ebf 1a68 2c29 5d98 c63f
000000b0: d294 9339 8372 84bf 8aa4 8ad1 2433 b33f
000000c0: 9042 0130 846b a9bf af79 8442 a714 b53f
000000d0: 3dce 9b82 74e5 b0bf f5b6 a6cf bf11 b03f
000000e0: c974 201f f626 ae3f d903 d83d 9535 77bf
000000f0: 946a a539 d12a c1bf 35e2 432b cc7d bfbf
00000100: 13f6 43eb c3d0 9ebf cf04 2ccc 8dd6 a73f
00000110: add4 6bd0 90af b43f 397a 22d1 b1c6 ac3f
00000120: 21c6 fac6 8585 c6bf c0bd 53a9 eaef b9bf
00000130: 0d7e 36d1 9840 a5bf 675a b70e d17d c0bf
00000140: fe25 ef0f 75e0 7ebf f91d 6aa3 1a5e a7bf
00000150: df16 ca35 851b a3bf 9e36 11c0 8136 bb3f
00000160: 8479 4862 7a26 a73f 21c4 8043 4a24 aa3f
00000170: 15a8 e772 b6fa c7bf 01dc 5c17 da96 98bf
00000180: 3d46 5eae 3b89 c1bf b92f 62c0 79f3 8dbf
00000190: 52dc ad14 416c b4bf 54d1 8b62 2632 903f
000001a0: 7b8f 57f4 9f38 b63f 7962 4777 ef9c aa3f
000001b0: 7e67 a26a 9cad b1bf 20b9 6aa4 b33d b63f
000001c0: 6980 b7dd 2a06 b53f dc2d 6e87 6766 b9bf
000001d0: c2f2 e79a 81eb 8e3f 58b1 130d c7d1 adbf
000001e0: 8ecb 1382 eaa4 9f3f af21 a5cc 8cb1 c6bf
000001f0: 7d3e 4a70 fdaf 9fbf 3414 5259 05a1 b2bf
00000200: 9a72 e219 1ffc b83f 71bc c7cb 5c5a 85bf
00000210: 2cd8 683d 3ea8 bc3f 5b4d 8f09 6170 c5bf
00000220: a640 75fb f37f d3bf c3a9 4d5c c9b3 c5bf
00000230: 3270 9586 d34e d7bf e354 b3a6 38ee cd3f
00000240: 4bf0 007f 7408 d0bf 3d77 3320 17e0 cbbf
00000250: 07a0 6066 a90a a7bf 5c27 f3c3 39a9 c7bf
00000260: 8cf0 4a41 99a4 dcbf 67cf b827 91ff d13f
00000270: b20c 6f0e 6df7 d7bf e953 893c 923d a23f
00000280: e9b4 8a97 1971 d0bf 2328 aaac 9db8 c2bf
00000290: 12ca 96f9 3a66 d0bf f903 2967 b876 d8bf
000002a0: 8a17 c231 f901 d1bf 9fd0 00f2 af31 b23f
000002b0: 4a0c 85fa ef0f d73f fa45 8851 0913 c8bf
000002c0: 5221 a5f7 207e d1bf 5162 a915 85b8 c1bf
000002d0: 7972 5cbe 9843 813f e698 39e3 2993 d7bf
000002e0: 798d 8cef ea9e dfbf 2deb b90b f588 d4bf
000002f0: d5d6 a5a8 e48b c2bf 5640 cd4d 33e3 d13f
00000300: 4aa6 019c 48a7 a13f 6cc1 8cd3 69f6 dfbf
00000310: 8ac5 83ef b8c2 d5bf e9c4 760d 7339 dbbf
00000320: 9832 2862 3908 e1bf 3ce0 b62d 848d d43f
00000330: d344 e0b2 7632 d03f f248 0a00 7977 d8bf
00000340: 3ef2 b6eb a4f3 ca3f 6711 7ea6 2a9b a3bf
00000350: 9495 e07c d2e7 ad3f 6152 203c 3df5 c3bf
00000360: 4121 3690 af65 dabf c71a efbf 4372 c03f
00000370: d5d4 8f47 74dd c7bf 9265 fa01 a679 d4bf
00000380: 124b fb82 17e8 d8bf 6a1d 0521 b530 c0bf
00000390: f6a6 b37e 9199 d7bf 4083 acc5 e468 b2bf
000003a0: 0686 b75d 32df d1bf dbde bfbf 9df8 d2bf
000003b0: 6771 5446 453b c2bf c208 d1e2 8c9e 69bf
000003c0: 33ef 5e7d 0611 c0bf 6f82 a8ea 087b d0bf
000003d0: b05b 3069 a522 ddbf 6919 8452 c23c aa3f
000003e0: 6b00 8133 6f17 d6bf 6405 6bbe 1ac8 d4bf
000003f0: 9fc2 5d28 6ef9 dcbf 8453 46cc 78e9 d0bf
00000400: 884b 1fb9 ee65 a0bf 143f 22cb 1842 bbbf
00000410: aea4 600e a509 8ebf 5775 33e8 78c6 a4bf
00000420: 58d5 4ba1 b8db 763f 701c e24a 1ea6 b8bf
00000430: 1121 3fc9 4a62 a9bf e808 f286 6bb6 b43f
00000440: 2509 5c01 3213 b13f 9620 db59 a569 aebf
00000450: ff2f ba46 3cba b33f eb87 7048 f6ae b7bf
00000460: 093d 6f17 051a a73f b6fb 0575 19d0 b83f
00000470: fe7a 02d6 cfa4 ab3f 4039 26fd 1e04 9dbf
00000480: 819b b5c2 d097 9fbf ec3f 6934 6a34 ab3f
00000490: d7bd afc8 23c1 9bbf cfdc 4e77 a81b 9c3f
000004a0: f2e3 04de 7754 c0bf 04d9 9dab 0d90 b0bf
000004b0: 6d09 0513 f631 b33f 7fac ec2b 42e0 b5bf
000004c0: 1baf 8e8e 7e70 c0bf 5b70 ab8c 9e46 b33f
000004d0: 234a 6cd0 d550 b5bf a40b e291 e00b b23f
000004e0: bd53 19b8 ad8e b53f 1e17 9c07 a759 aabf
000004f0: d3d7 c8cd 3758 703f 9f61 1658 7589 be3f
00000500: ea77 9c1c 3231 c2bf ea4f f27a 166d a2bf
00000510: 168a bc94 a18d a5bf 5df1 d219 1d1d 793f
00000520: 8149 1ef9 2a06 813f fdf5 acd7 08a3 bb3f
00000530: 1366 5d31 b020 6cbf 6ba4 2b47 5248 53bf
00000540: 806f 3811 cb22 973f a89f e8f4 f555 b43f
00000550: 6a72 74fc 27cd babf 3fe1 4a6d 9312 b13f
00000560: f435 07be 9cd5 b4bf 005c a035 0fbe b73f
00000570: 16a0 ef38 d074 b03f ae7d 78dd dcaf b63f
00000580: 7a95 2078 ced5 91bf af2f 11db 9673 a6bf
00000590: ea61 9bdd 2175 89bf 1251 69df 0ee5 b7bf
000005a0: 0e98 2eef 231b c1bf f46b e0c3 a9a5 c03f
000005b0: 814c f4ec e615 b23f 02f8 9574 4d41 b0bf
000005c0: 55b4 36fa dbc4 bcbf 8325 8bb1 9e12 ac3f
000005d0: f95d 0fb7 40d3 b2bf eca9 004c baa4 bebf
000005e0: ea58 4c2e 3717 abbf 01e9 9429 189f 7ebf
000005f0: dce9 bc19 171a adbf 7650 5cac 168f b8bf
-0.06349016834729233 0.09401646211767574 0.042503783409340634 0.1043654380884677 -0.15491902293174178 0.037428662143320954 0.09739345906512442 -0.07097453005899533
-0.008517680766305902 0.09121166179788427 -0.13812220544129994 0.022113039780248728 -0.08694900520045727 -0.0637052284138308 0.06615990767684399 -0.05704378263378927
0.06711370204623844 0.1357504737821441 0.04828132815902763 0.11418254641314833 -0.029901454845863925 0.17652477751181622 -0.009984040445895213 0.07499914279709877
-0.04964840970990736 0.08234639524423558 -0.0660012072437945 0.06277083224878395 0.05889100198712922 -0.005666335081969864 -0.13411917986635002 -0.12301326805380415
-0.03009325145193571 0.04655879132588724 0.08080391968163055 0.056203419474730905 -0.17594978538322528 -0.1013170874973559 -0.04150846055858546 -0.12883961885991654
-0.0075382778877126615 -0.0456398319702735 -0.03731933862313296 0.10630045832769006 0.045215439317178 0.05105812143336431 -0.18733864412871584 -0.02401295440287399
-0.13700052274775656 -0.014624549087123616 -0.07977682833539859 0.015816306843548247 0.08680152621633212 0.05197857218781094 -0.06905534366015151 0.08687899364551699
0.08212535775192155 -0.0992188172951311 0.015097630061967297 -0.05824110064154081 0.030902542294778672 -0.1772933959239373 -0.030944786051405593 -0.072769483858864
0.09759706861445708 -0.01042625901115299 0.11194218634850078 -0.16749203650270314 -0.30468463474700014 -0.16954915053368155 -0.36418617384856866 0.2338324369399408
-0.2505160560865575 -0.21777619430843656 -0.04500321745609886 -0.1848518568788745 -0.4475463044761987 0.2812235725316356 -0.3744766846613842 0.035626001252843605
-0.25690307425504827 -0.14625903063671428 -0.2562396466629774 -0.38224611353149346 -0.26574544772335484 0.07107066782265513 0.36034774269882475 -0.188080944834425
-0.2733232897194472 -0.13844359929750508 0.008429711636886982 -0.3683571547502552 -0.4940745677324326 -0.32085920472279633 -0.14489420161014857 0.27949221227482235
0.034479397815471005 -0.49941487940943463 -0.34000991239653244 -0.4253814345821199 -0.5322539250497185 0.32113747085850597 0.25308005779613757 -0.3822920322792377
0.21056043157104115 -0.038293202232156535 0.05840928816204918 -0.15592160640575783 -0.41245640833996694 0.1284870803048845 -0.18644574636679204 -0.31992483323264154
-0.38916576186345353 -0.12648643600753512 -0.368748067600435 -0.07191304994604497 -0.2792478480533592 -0.2964243290475516 -0.142433795300245 -0.0031273605041245165
-0.12551957246420783 -0.2575094501098993 -0.45523963234284803 0.05124480492854639 -0.3451803210227868 -0.32471340747368616 -0.4527240175439519 -0.26424999188139275
-0.0320276833514504 -0.10647730788536719 -0.0146668334019345 -0.04057672342762924 0.005580636225876866 -0.09628476455883273 -0.0495780344641067 0.08090850872580158
0.06669914754096291 -0.059399764269586416 0.07706047751179311 -0.09251345890564237 0.04512039099756222 0.09692534548774642 0.0539917896978661 -0.028336033059127574
-0.030852567562216663 0.05313426866325685 -0.027103957294398597 0.027449257165895354 -0.12757776585365793 -0.06469808044298381 0.07498109783504044 -0.08545316288352643
-0.1284330555039269 0.07529631552046238 -0.08326469744159985 0.07049373208614768 0.08420835251429444 -0.0514652439870089 0.003990381225369394 0.11928494835445357
-0.14212633511573297 -0.03598852396785886 -0.04209618511801609 0.006131280589383029 0.008312545516478977 0.1079564596702411 -0.0034335557237852392 -0.00117691073381312
0.022593663145115794 0.0794366572305295 -0.1046929351181888 0.06668969553254998 -0.0813844646392779 0.09274382647741675 0.0642824305538173 0.0886209526729462
-0.017417169649112087 -0.04385062622222279 -0.012430443358810234 -0.09333889917735785 -0.13364075831231087 0.1300556379727308 0.07064669880883125 -0.06349643799146068
-0.1123788343308701 0.054829558537288235 -0.07353596181143719 -0.11970104556591082 -0.05291149559177362 -0.0074759429783688445 -0.05683967770751838 -0.09593335826895263

encoder.bias_hh_l0 f8 [192]
00000000: ebe8 0434 9f99 c13f 290c 4523 069e a7bf
00000010: 1478 0153 3681 a93f ede8 74d8 4e94 b2bf
00000020: 34d4 232a c0f0 b1bf 5bc3 617e 3116 b9bf
00000030: d005 e2d8 e5f9 a6bf 3f61 f3c9 ba57 92bf
00000040: 8f14 318c 5778 bfbf d76a 6939 704c 9fbf
00000050: 17f6 af08 af21 b6bf 0fd6 364e 3f95 93bf
00000060: c886 7a1c 4bfb acbf 7d92 2e9f d74e adbf
00000070: 08d0 175b 6385 9abf be08 bbec bf07 bbbf
00000080: 7a75 b8f2 821b ce3f f7a1 9734 7f65 a53f
00000090: 9bac 167f d3df b93f 10a9 45e7 6237 9d3f
000000a0: 2fb2 d8b6 bc8e bcbf 836d 1186 f28c b13f
000000b0: 32fc bbe5 1117 ac3f d1a1 fb80 2f8b be3f
000000c0: e692 226a 6da3 9fbf e4fd d2a3 e640 40bf
000000d0: d3e3 a3d6 c7ca 8fbf 4558 999d ae12 a73f
000000e0: f160 250d be89 a2bf 8baa 8180 7a25 c5bf
000000f0: d065 2c9f 635c 803f be07 0bb6 dc38 bd3f
00000100: 9075 923e 8601 95bf 05e1 72c2 4061 a7bf
00000110: 2d7c 7cb1 3e6b b93f 1c27 e095 341b afbf
00000120: f665 3c05 732d cebf 0a27 8fa2 4cd0 b13f
00000130: 8c43 12f4 9376 abbf dff0 13e7 2efb 883f
00000140: d577 ec0b 6779 9c3f 8cb3 0ee9 4ec3 92bf
00000150: 0221 3a97 2f3f 66bf 8e93 1948 91ae a2bf
00000160: 5103 85b1 981f c2bf ffc6 1538 f849 adbf
00000170: 4cae 1d55 6dbf a2bf d9e0 8b90 46b1 8abf
00000180: 32e5 a645 d80c bbbf 6ce0 b509 c6fe 83bf
00000190: 62d9 541b 5f28 b53f abe6 336e a209 a7bf
000001a0: 67d3 8136 4300 a83f 04e5 7af1 39f3 933f
000001b0: 6510 b056 4476 a43f 8d12 e5b8 1b27 b23f
000001c0: 48c2 0605 440e b93f 5080 19a3 9a7a abbf
000001d0: 05a8 2ac9 4305 afbf b5f9 e9ad 32ff c1bf
000001e0: 4668 c7fc 4e63 aa3f 9713 caff fac3 9d3f
000001f0: d420 7d65 fc23 bfbf a4ac 6d57 4928 d0bf
00000200: 22e9 2cf2 0abc c43f 9bbe da80 5427 903f
00000210: d759 a4aa 865b 80bf c6a4 fcb4 4c41 c1bf
00000220: d06b fec1 2466 ccbf 1b8c 6880 c653 d4bf
00000230: 80f4 4120 b139 d7bf fd81 f2ac f235 c63f
00000240: ff40 35a7 f296 d2bf ff92 a45e dd88 c3bf
00000250: befc cd33 eeba 93bf 79b2 ccf5 909a c7bf
00000260: 8754 12c0 24bf ddbf b074 10e9 20ce cf3f
00000270: 6576 7c54 b46f d7bf 3187 1dd5 7397 9dbf
00000280: 8f84 b0ef 7ec4 d2bf 1b67 2624 50d0 b1bf
00000290: 41a2 a2d5 28fe c8bf 56d2 3cfd b6c0 d6bf
000002a0: aaff 2509 4775 c8bf 9500 0e68 cd8f c13f
000002b0: 335c 2ac5 4b77 d93f 41bb 31b0 8f10 c9bf
000002c0: d7d0 827b 60b4 d3bf d9c3 4138 a0ae cdbf
000002d0: 7c44 96c6 e278 c43f b07d 1868 b651 d7bf
000002e0: 6064 149f af4d debf 2051 f8a7 379e d2bf
000002f0: 5fdb 54cd 0de1 cdbf 1701 8635 aaed d33f
00000300: 0959 d94b 6590 a9bf 4e25 bc79 8d02 dcbf
00000310: 039d f4cf 32da d6bf d711 0811 e5dd dbbf
00000320: dc16 8b9d fb0a e1bf 0457 12b6 4f6b d33f
00000330: cacb 2004 8e0c d13f 9c70 0fa3 19b6 dabf
00000340: e5ed 303d 4183 c93f 3614 4886 106b b4bf
00000350: 4d86 95bf 7f83 b63f 2697 4f48 9130 c3bf
00000360: 04d5 2632 eca6 dabf 5a09 89f1 0dff bb3f
00000370: c037 883e 9a5c c6bf 472e 5e88 3c7c d3bf
00000380: 82ef 0838 b454 d8bf 387b da48 0433 9ebf
00000390: 6bbb 291c 83eb d8bf 2147 2b1b 2e22 9bbf
000003a0: 7186 0ecd 880b d7bf 9b4f 4f34 500a d1bf
000003b0: a71a a3d4 c2f3 bcbf acfd f0d2 5b28 9dbf
000003c0: 6d99 0ab1 d278 d3bf 5c25 b444 37a6 cabf
000003d0: e74a abdb 02f0 dcbf f829 c45e 7d9c 96bf
000003e0: d3c3 d7e0 2f39 d3bf e454 527e 0bc5 d3bf
000003f0: 861a 6982 7e87 ddbf 7d25 931c 1e90 d1bf
00000400: 8165 89fd ad31 933f 9fb6 4b54 5921 7bbf
00000410: 1aae 24b2 44d3 99bf 9696 0c55 4ff8 bdbf
00000420: 66e7 d656 98f0 afbf e7a8 5340 7a45 a23f
00000430: 6eca 865a 492d a6bf 09ae 1d80 a0c9 b33f
00000440: 2d86 802c f0f9 9d3f 2c95 de6f 2467 8e3f
00000450: 2b9c a8f5 6b1c b3bf cfe8 e569 445c b63f
00000460: f532 c7af 319f ba3f f4ae 3c0c ebd3 973f
00000470: 3afa 2450 8da2 ba3f df3d 08d1 5484 91bf
00000480: b10a 3896 6972 bbbf c29f 5434 f2da a33f
00000490: 188c ba21 e6c7 5fbf 9985 e082 0b77 96bf
000004a0: 5895 b3bc a945 90bf 309e 501b d9f9 b43f
000004b0: eaca 087b d731 bbbf e2f1 eb00 1104 b93f
000004c0: 6656 2253 897c 9bbf 17ae 88a8 a928 a1bf
000004d0: dc1e d6bb cc7c a4bf e2a8 e83f d45d a3bf
000004e0: 687d b35a eb4e abbf e041 35b2 b214 afbf
000004f0: 0798 c24c 4b1d c13f 0139 94c6 2c35 b93f
00000500: 22fe 4401 1707 babf 1d58 2a79 e318 c03f
00000510: d9b4 f4ee e3cf ca3f b1ee f938 1f1a adbf
00000520: 0791 5626 8696 b1bf 428d 04da 5629 b1bf
00000530: d086 4fe5 a445 b8bf cf3d 7ef6 4c10 bcbf
00000540: d33a 128b 54a1 a3bf 8e16 8d3d 4163 923f
00000550: 999e ab10 328d c4bf 0bfc fd1f b11c a4bf
00000560: 51bd 789a 86a1 babf a426 d022 d518 b3bf
00000570: 8fae 4f3b ef77 a03f 52e7 ddd2 c64a b4bf
00000580: 1875 6386 a7e7 a4bf e210 d77a d01b 99bf
00000590: fe9a 2fd5 1c6e 93bf 6314 782e 0f8a c03f
000005a0: dbb7 f33f 75d2 7b3f 6e01 484b af54 a3bf
000005b0: f2fb 7f0a d7f5 bcbf 166e 833b e3f2 b63f
000005c0: 3c8a faf9 bee4 af3f 66af cfac ccb6 b3bf
000005d0: 44f3 d6db 51a8 b3bf f873 5cc9 f284 b43f
000005e0: 9b6c a5aa cd08 95bf ef23 517a 5434 b83f
000005f0: 890b 8282 9ae8 b8bf d443 b780 07b9 af3f
0.13750066795348145 -0.04612750225580726 0.049813935883079946 -0.07257550034129041 -0.07007981327827012 -0.09799489341254512 -0.04487531921860077 -0.01791278703316945
-0.12293002293252385 -0.030565026764047012 -0.0864514728745792 -0.01912402071839919 -0.056604716516870435 -0.05724214380396562 -0.025899460253597822 -0.10558700112872807
0.2352145848425769 0.04178998486515078 0.10107156613109895 0.028531594625214984 -0.11155299629235381 0.06855693600794237 0.05486350945829378 0.11931130312917239
-0.030896863558740238 -0.0004960180446217902 -0.01552349208621876 0.04506440805259663 -0.03620714102243195 -0.16520625376445638 0.007988718314254323 0.11414889759455968
-0.02051362759504155 -0.04566385625497741 0.099292677241906 -0.06075443582092374 -0.23576200252209362 0.06958464592676364 -0.05363905290972246 0.01219784395879525
0.02780686388279448 -0.01832316682309769 -0.0027156762606105342 -0.03648809437871768 -0.14158924739788373 -0.0572049683058946 -0.03661672271740865 -0.013033438955503506
-0.10566474628912628 -0.009763285800304021 0.0826472703673509 -0.04499538035629532 0.04687700310106529 0.0194825223577242 0.0399648052043922 0.07090924514802506
0.09787392733302014 -0.053669769677754275 -0.060587042147133764 -0.14060052387135405 0.05153891406708104 0.02906791864599575 -0.12164285161736937 -0.25245889223033147
0.16198860955211908 0.015775032391217008 -0.007987072069721641 -0.1348052867627187 -0.22186717483859164 -0.3176132444370425 -0.36289623403701654 0.17352136082355676
-0.29046312645824907 -0.15261427994951046 -0.019267770683197176 -0.18440448762830267 -0.4647914767932168 0.2484780443200285 -0.3661928963718764 -0.028898057825592353
-0.29324315459423017 -0.0695848549134123 -0.1952563326970154 -0.35551237802727564 -0.1910790247602539 0.13720100003047678 0.39790624861183516 -0.19581791022525333
-0.30788433133717547 -0.2318916582767361 0.15993914314870838 -0.36436233678429186 -0.47349157843706813 -0.29090682414359215 -0.2334306004138069 0.31138091303729837
-0.04992977667704863 -0.437655800706655 -0.3570677786651261 -0.4354183832477054 -0.5325906826990052 0.3034247663539278 0.26639128115783406 -0.41736451076372716
0.19931807983253616 -0.07975867536886558 0.08794401576371876 -0.1499196627693717 -0.41643814942956703 0.1093605723081387 -0.17470100453686932 -0.3044577914922439
-0.3801699206558099 -0.029491488405820138 -0.3893745207814649 -0.026497574241893255 -0.36007900261947784 -0.2662544737661336 -0.1130944985517127 -0.02847426867469742
-0.30424945153426713 -0.20819750647232638 -0.45214911891996085 -0.022081335934709373 -0.30036541898067276 -0.30890166603178515 -0.4613949082890162 -0.27442124166972076
0.01874420032468072 -0.006623600904942655 -0.025219987271311785 -0.11707015825649089 -0.062382469749947586 0.03568632159461221 -0.04331425886211525 0.0772953331740426
0.02927375098818723 0.014845165885911081 -0.07465243098759859 0.0873453863659137 0.10399160901506461 0.02326934110821717 0.10404284674312061 -0.017106366403877856
-0.10721454541639265 0.03877980126190962 -0.0019397494678876689 -0.021938495505428788 -0.01589074339144267 0.08193737904422771 -0.10622927430885523 0.09771829864980178
-0.026842256259064355 -0.03351335699366247 -0.04001464646267802 -0.0378252342237191 -0.053336481878200115 -0.06070478845015592 0.1337064862065633 0.0984676346599578
-0.10167068272584648 0.12575953880576743 0.20946931045310782 -0.05683991976272063 -0.06870306430807115 -0.06703703711223333 -0.09481268499760209 -0.10962372796915719
-0.038340227104631495 0.01795675218752151 -0.16055894674285723 -0.0392814017823114 -0.10402718802719348 -0.07459766483239122 0.032165027609008516 -0.07926600120654584
-0.04082988276943861 -0.024520165917935162 -0.018974733840788176 0.12921323555943606 0.006792505271034667 -0.03775546831093633 -0.11312622076364656 0.0896436710640319
0.06229206849572619 -0.07700804919266843 -0.07678710572413389 0.08015363136333054 -0.02054139474908521 0.09454849230054639 -0.09729924856405438 0.06195853658903841
