checkpoints/LSTM.NINO.0324113225.pth (torch_old, 292806 bytes, 12 tensors)

encoder.weight_ih_l0 f8 [256, 4]
0	0x3f984dcc6ab0b5c2	0.023734277736527927
1	0xbf612137a0dc1eda	-0.0020910345546133304
2	0xbfa258171318be46	-0.03582832439530796
3	0xbfc1d738e4e43964	-0.13938056160300072
4	0x3fd8425b790137b4	0.37905012909765934
5	0x3fca4c4ba5d3e5d1	0.20545335385376842
6	0x3fd1a0d60ad8fc90	0.27544165667854603
7	0x3fc788eb569aeae7	0.1838659451367086
8	0xbf9b337db1ba4f8e	-0.02656361005081425
9	0xbf91ca0077ce0785	-0.017372138321213555
10	0xbfad2a54710ebe39	-0.0569635761270288
11	0x3fb4242cbe35067b	0.07867698329666865
12	0xbfa0531e3966bdba	-0.03188414049815998
13	0x3fb48f238de3213e	0.08030912603419879
14	0xbf945b725be4bba9	-0.01988009153245299
15	0xbf966a05aaf5c29b	-0.02188881736714397
16	0x3fa72cb5d9380ac0	0.04526298786733696
17	0xbfc1b6bf3a1eff9b	-0.13838949525779473
18	0xbf85b5ff1eaade10	-0.01060103714313157
19	0xbfbd4411a10bbf67	-0.11431989843162925
20	0x3fb0adbbd4c61083	0.06515096611662057
21	0x3fb3d3bc50baa989	0.07744957896162509
22	0x3f83d796f61fe6d1	0.009688548456313313
23	0x3fa82ce99795ea65	0.04721765494737865
24	0x3fc60ef25583bf65	0.17233113456267826
25	0x3fb34922d452023e	0.07533471759416785
26	0x3fa7182976fa032c	0.04510621621466834
27	0x3fa637de6cc65bcb	0.04339499547784661
28	0x3fb0f76baf7a8aea	0.06627533945224298
29	0x3fa845e117eb4eb3	0.04740813652975131
30	0x3fb6a16bff510fd4	0.0884006021815929
31	0xbf7cd0ae06652c04	-0.0070349500513868825
32	0x3fa314f158962608	0.037269155563148415
33	0xbf7d1295368605c6	-0.007097800124371506
34	0xbf8465da474cefcd	-0.009959893513602847
35	0x3faa60d9f44247f6	0.05152016741443781
36	0x3fbff78ae934794d	0.12487095063668115
37	0x3fa8a5e9b6a027fb	0.04814081529919175
38	0xbf744b9fc5d300c3	-0.004954933273609355
39	0x3fbd40ddadd1b8c0	0.11427102559693747
40	0xbfb0eeffe82d5e13	-0.06614684503926353
41	0xbfac4310fc3cd64a	-0.05519917563507855
42	0x3f8821baf205a5e7	0.01178308535664292
43	0xbf6e6fe9456510ea	-0.0037154728007938636
44	0xbfadbf64f65e207a	-0.05810084826868063
45	0xbfa81ee41e4cbecd	-0.04711068029280128
46	0xbf874eaadd62c80a	-0.011380514985237528
47	0x3fc28dcb6399484b	0.1449522243806903
48	0xbfa177d04d855573	-0.03411723085688836
49	0xbfc310dcb6e983c5	-0.14895209246881627
50	0xbfa503cc655d48ee	-0.0410446046577294
51	0xbfc62bef8a996c97	-0.17321581141991224
52	0xbfac9af3610cf202	-0.05586968002032579
53	0x3fbcc0978b063a5a	0.11231372017048483
54	0x3f904662acc65d45	0.015893499179211252
55	0x3fa58a5388c93424	0.042070970962051285
56	0x3fc07b0c3b719e7a	0.1287551203015374
57	0x3f8d237d3dc58488	0.014227846572511874
58	0x3f8927321330bbed	0.012281790934222736
59	0x3f9594b4df353137	0.021075082896730293
60	0x3f441b92930ecbc2	0.0006136384673623917
61	0xbfc317a7c96d7aea	-0.14915940604529193
62	0x3f972ae5a7cad3a1	0.02262457691786646
63	0xbfb65b070b0f8e6f	-0.08732646961248645
64	0x3fad5b79c2912efb	0.057338528633946916
65	0x3fab979d5a675503	0.05389110306320257
66	0x3fa146a52ebb7c8a	0.033742105440745254
67	0xbf9ed3f7bd926db0	-0.030105467744403647
68	0xbfb86d291c8cf5a2	-0.09541565844570823
69	0xbfb11091bb83c50d	-0.06665907695766667
70	0x3fa537c77a3f53b5	0.04144118659284094
71	0x3f9f44ba3076bac5	0.030535611351008258
72	0x3fc42d394f126448	0.15763012276582544
73	0xbf9dfd824e4faebc	-0.029287372617473592
74	0xbfbb080c8c4d25c1	-0.10559156823469264
75	0xbf986a16c9260671	-0.02384219744408828
76	0x3fc8432ffead2f04	0.1895503991639701
77	0x3fc04b7c2bd7d94f	0.12730362072734144
78	0x3fb2a6198027ab21	0.07284697893889504
79	0x3fb26a13f0b2a0c1	0.07193112017069138
80	0x3f90dbef4dccb8f8	0.01646398460723561
81	0x3fc55280a54f7791	0.16658027717397464
82	0x3fc2428c70f59a08	0.14265590205759815
83	0x3fc89becb01e28bf	0.19225844001295475
84	0x3fc040b0fddb07a8	0.1269742240456797
85	0x3f8fbe2882c97b62	0.015499416819862059
86	0x3fc0202b87c61f43	0.1259817517241065
87	0x3fc30bdb4ec45d60	0.14879933687255242
88	0xbf9b71def8aae328	-0.026801570823155846
89	0x3fbee25c53d9f20c	0.12064148947860803
90	0x3fad3398fe1d8766	0.05703428365701661
91	0x3fc31cdb86640b91	0.14931816160250524
92	0x3fb4a05b5c3139ef	0.08057185173786484
93	0x3fc392d412f79857	0.15291834760791076
94	0xbfa5909204981d9c	-0.042118609486404085
95	0x3fa78ceb5444f50b	0.045997003590381245
96	0xbf8db45c6555cf8d	-0.014504167406563595
97	0xbfb7b9e555153992	-0.0926802952501247
98	0xbfa1e4db6233535f	-0.034949165093769656
99	0x3fc1170f14986310	0.13351620202663428
100	0x3fcb0387adcefabf	0.21104522692436053
101	0x3fc0c528814562b6	0.13101679145872475
102	0x3fbf93bf17f05150	0.12334818205301201
103	0x3fb48b3dd5ab4b38	0.08024965731173672
104	0x3fb2416f202d6409	0.07131094489649582
105	0xbfc58b566d3bd843	-0.1683147462242137
106	0xbfc7670402288599	-0.18283128838906462
107	0xbfaaf377eb307a70	-0.05263876672710388
108	0x3f9d2d9527f31b0e	0.028494196475345616
109	0xbfa6e2e4810833e8	-0.04469980311487359
110	0x3fb164a6abb7b77e	0.0679420632584122
111	0x3fabe0071891cfec	0.05444357085153215
112	0x3fbe7fc00fc56938	0.1191368139747383
113	0x3fb0d2be9796b436	0.06571570588012396
114	0xbfa454452e1db98f	-0.039705430869491846
115	0x3fb3326670111e03	0.07498779521949221
116	0xbfa7b87d493cc5d2	-0.046329417410003196
117	0xbf964ca0da2bdcb4	-0.021776688877221687
118	0x3fbc24ae48a6bbf4	0.10993470452989113
119	0x3fbdbcc3acfd89e9	0.11616156552694402
120	0x3fa3b2d5b57c6a39	0.03847377624898169
121	0x3fcf2ca580d91066	0.24355000296975787
122	0x3fca0db897be38f0	0.20354373368576928
123	0x3fc67bec1b74a080	0.17565680828670693
124	0x3fd4e4fbe1fb8efb	0.32647606915109834
125	0x3fce364d83457b1c	0.23603218946205906
126	0x3fc010fdf2714210	0.12551855409630308
127	0x3fc79d33cec1d123	0.18448493571816824
128	0xbfb31acaa8464d39	-0.07462755783335674
129	0xbf8b4baf6029aab0	-0.013327951547770084
130	0x3faa7e8ce4e7d2eb	0.05174675268418646
131	0x3fc10bd8771b06fb	0.13317399802877347
132	0x3fb25ac1feb9b3fb	0.07169735401994608
133	0x3fb5d2303caad768	0.08523847085129221
134	0x3fc1b2f31e417933	0.13827361085254494
135	0x3f9bf21ed5ab8604	0.02729080371034877
136	0x3fac8b5b47b8e8a0	0.05575070620075562
137	0x3fa942f3f112a1ec	0.049338935067968354
138	0x3fc48fbdf7e55bf4	0.16063665966314
139	0x3fc7444d7a653fbd	0.18177193142264328
140	0x3fca9003ac3f847b	0.20751996908714773
141	0x3fc6c6e20199beb4	0.17794442251351017
142	0x3fa69538d6e42220	0.044107223731831846
143	0x3f97afdf31846b6f	0.023131835362714733
144	0x3fd44d507652475c	0.31721889071297027
145	0x3fcd69677b5523a8	0.22977918169115452
146	0x3fd6f19b63083ee5	0.35849651976694324
147	0x3fc28030c222480b	0.1445370624465457
148	0x3fdd50ea0ae827e3	0.4580636126053134
149	0x3fd3518ed0db81ac	0.30185289760813805
150	0x3fd14f4baa5b87b2	0.2704648173950047
151	0x3fc833868d5ca841	0.18907243635595886
152	0x3fc580168885012d	0.16797143617623914
153	0xbf958b7d5f2df464	-0.02103992360524777
154	0x3fa6ae2949f60c4d	0.04429749515386359
155	0x3f8412a5dab4682f	0.009801192986334055
156	0x3faa84675cd1cba4	0.051791410522944475
157	0xbfb2781fcbecb68e	-0.07214544991139801
158	0xbfaf6af24a918cdd	-0.06136281166325273
159	0xbfc3898ada443af3	-0.15263496072335378
160	0xbfc57ee74f382afa	-0.1679352890790467
161	0xbfbc44c44c96cbf6	-0.11042429799890371
162	0x3fb8a8a85a18caaa	0.09632351112012807
163	0xbfabb058a2ecb3bc	-0.0540797900087919
164	0x3fa1f3ab61bedf6f	0.03506217544730716
165	0xbf9ca1064eebc1e8	-0.027958010260535376
166	0x3fc0e9dca431f55a	0.1321368982061511
167	0x3fb3b4efe39cda1d	0.0769796305365635
168	0x3fce029e50f4d7a2	0.23445490792226759
169	0x3f8fe5c02f36dd90	0.015574933472506186
170	0x3fc694dd8ecff1cd	0.17641801331764242
171	0x3fab9903836cbe9c	0.05390177707010688
172	0x3fbe18c09fcbefda	0.11756519223484876
173	0xbf865ca8cf60a9d2	-0.01091892130724129
174	0x3fc36ae02b62b1eb	0.15169908636506987
175	0x3fa5849d970aec5c	0.042027401626420796
176	0x3face171d37aef9d	0.05640750605149878
177	0xbfa6523a91cf5ded	-0.0435961058607822
178	0x3fc5bb3ca11cf659	0.1697765146908974
179	0x3fb3a82ebc0968cf	0.07678501215687848
180	0x3fa40a2490e24ed4	0.03913988369563773
181	0xbf9a0fe2cfdadb69	-0.02545122522016233
182	0x3fbf235a0c104aa1	0.12163317484400206
183	0x3fb335c067dcdcd6	0.07503893409453907
184	0x3fa6de6380eb0cb0	0.04466544102390324
185	0xbfae9b0b7c9afc37	-0.05977664848386904
186	0xbfb4c9f8790c0513	-0.08120682673690664
187	0x3fbb33f0885a120d	0.10626128510381978
188	0x3fc1b4f97dea4a15	0.13833540580942896
189	0x3f6d652cdeb26fe9	0.003588283192199161
190	0xbfb0aadcec586225	-0.0651071621908917
191	0x3faf3f474da5a80e	0.061029651859669895
192	0x3fb120e6e77e3c85	0.06690829421698836
193	0xbf93d01b7c52b5a4	-0.019348554099158158
194	0xbfa10198e01f67ef	-0.03321531043884806
195	0x3fc03bf73abb88bd	0.1268300091533713
196	0x3fb23fc2a9f08457	0.0712854065791516
197	0x3f9ac61dda82e7cb	0.026146379911302902
198	0x3fa25bd0aee26636	0.03585674414462085
199	0xbfa4b43f22d26629	-0.040437672615734783
200	0x3f5ed753fa0a7414	0.001882392891423783
201	0xbf8ee3df4344df81	-0.015083069076908153
202	0x3fb3257b274923d4	0.07479066571353538
203	0x3facff6ac2984ef1	0.056636177305476106
204	0xbfb6857deed2de32	-0.0879744251313859
205	0x3fc1c224e66a01ae	0.13873730898559472
206	0x3fc1268b1efbcf12	0.13398875248787384
207	0xbf7a3d4a4a3dab54	-0.006406107135130085
208	0x3fde792df659c2ed	0.4761462121742131
209	0x3fd81c3dab1f82b8	0.3767236872791204
210	0x3fd44acc59b9815d	0.3170653225152103
211	0x3fd18bb6e2193dfd	0.2741524894708787
212	0xbf94e13f7ac92bc6	-0.020390502804996456
213	0x3fc410a46811db4f	0.1567578800347413
214	0x3f9f3910915435d7	0.030491122121977767
215	0x3fc620e0648acc94	0.17287831219946226
216	0x3fc19ac48982d517	0.13753563608558103
217	0xbf78dea7e7908b3e	-0.006071716191430819
218	0x3f8cc9bd9982a785	0.014056664702667874
219	0x3fb7c86b285d6a98	0.09290189490767842
220	0xbf984e61bd4448e5	-0.02373650281612862
221	0x3fb55898b3d02ba9	0.08338312520952108
222	0xbf9fe95cc376a15b	-0.031163644247187743
223	0x3fc86b2e7d38f597	0.19077092279796368
224	0x3fd0e9f9e83b1a4f	0.2642807739142982
225	0x3fce636550d9cfe6	0.23740831802172052
226	0x3fbf807d636b018b	0.12305434872815206
227	0x3fc81ee162095d65	0.1884423950857396
228	0x3fc3d62db73f630f	0.15497371146809555
229	0x3fbc034d0b931971	0.10942536861975839
230	0x3fb01c08955493d8	0.06292775769959691
231	0xbfa2bf1d00ea29de	-0.036614328729303244
232	0x3f7fdbe31ace911a	0.007778060081282479
233	0x3fcaa6d90f510148	0.20821679351684907
234	0x3fcbf10ed6a1ad9b	0.21829400520378503
235	0x3faddf492f0220a6	0.05834416102249067
236	0x3f9a79e20d6958c2	0.025855571812223095
237	0x3fc2ca25d808c53f	0.14679406212375487
238	0x3fc2f79dd1cb9152	0.14818165534883093
239	0x3f633a0fe5fbd8cf	0.002347022105705233
240	0x3fd422bc276e68c7	0.31462005472861815
241	0x3fccb92af03af875	0.22440087060926187
242	0x3fb07e6ddba46aef	0.06442915546760351
243	0x3fa31e93974bf45e	0.03734265539058222
244	0x3fc3e5b019cbf76f	0.1554470182381311
245	0x3fc67df566b91cf6	0.17571895137573507
246	0x3fade4dd4e1c815e	0.05838672235973051
247	0x3f7dec20b103f3c4	0.007305267048875078
248	0x3fa7536f2b46ab40	0.04555842784187414
249	0xbfa126e5748c2c3c	-0.03349988029193482
250	0xbfa8f341fd251359	-0.04873090949198539
251	0xbfa1f8faae7472d7	-0.03510268573356761
252	0x3fca8c55653ef3b2	0.20740764087341074
253	0xbfab53e3609ffcbe	-0.05337439112190044
254	0x3fb1dc186e7c9483	0.06976463982990037
255	0xbf93d7b9a9fdb79f	-0.01937761402171356

encoder.weight_hh_l0 f8 [256, 64]
0	0x3f841688f275a6c5	0.009808607005385448
1	0xbfa2e31737472c54	-0.03688881444721717
2	0xbf9cd73bd4e382e2	-0.028164801472373997
3	0x3fa61ed43253aa44	0.043203955787096265
4	0x3f9b78ce169b1ac7	0.026828022126916175
5	0x3f80db1c1edb7bdd	0.008230418864909989
6	0x3fa8844569196f4b	0.04788414867354492
7	0xbfc3754d61773ee4	-0.15201728114197188
8	0x3fc0a778d8de5225	0.13011084164885847
9	0x3fa7a4dd90119ed3	0.04617969878819186
10	0xbfac9e5572b2f87e	-0.05589549088607358
11	0x3fb528a507083743	0.08265143796617473
12	0xbf9f15bd8888800a	-0.030356370409322188
13	0xbfacf8f733af38b9	-0.05658695703424272
14	0x3f8c833ac5bbc77a	0.013922175559375683
15	0x3fb12aebc7ccf110	0.06706117275183865
16	0xbfaadb6a26631e04	-0.05245525091737238
17	0x3fa67c9ba84949df	0.04391943387294694
18	0xbfa3331a5fd5b295	-0.037499260138109815
19	0x3fb22ad4de3db8be	0.07096605706985579
20	0x3fbc4fea622a3dd1	0.11059441467863641
21	0xbfacd2fa7db9aa59	-0.05629713806850551
22	0x3faa727453ce2a8d	0.051654467802184724
23	0x3fc357f9473f6049	0.15112224558720502
24	0xbfa960e812949781	-0.04956746317684147
25	0xbf8e93a356bb2487	-0.014930034717865815
26	0xbfc04acecea5390a	-0.12728295412166118
27	0xbf939b93ac28203a	-0.019148166067708618
28	0xbfc01b8605beb34c	-0.1258399513293632
29	0xbf733903128df418	-0.0046930427569096475
30	0xbfa6395b2858a1eb	-0.043406342196536794
31	0x3fb78a900687d018	0.0919580474799776
32	0xbfb33808bd612a9c	-0.07507376311802222
33	0xbfc0769e49c50090	-0.1286199436381179
34	0x3f909b3e6aa4e456	0.016217208155670036
35	0x3f90502f34906d2d	0.015930879195463255
36	0xbfb69e3b66bad106	-0.08835192926455102
37	0x3fc320534bc46292	0.14942399215285157
38	0xbfc114a6fb933758	-0.13344275745333323
39	0xbfbb8e71c6cb5bdc	-0.10764227965715584
40	0xbfa52529cf5f8e1b	-0.04129915863429919
41	0xbfacac59e47c1bc0	-0.05600243486519885
42	0xbfac529becf517dd	-0.055317757297004035
43	0x3fb274cad8fe89d3	0.07209461019241496
44	0xbfc30ab7ad6038b4	-0.14876457181566638
45	0x3fc15a2425baf887	0.13556339113523938
46	0xbf99e23513ac0396	-0.02527697498863154
47	0xbf90628a22bb2f4f	-0.016000898713897368
48	0x3f9a1032f12b8cfc	0.02545241925225826
49	0xbfabdade1ec7487f	-0.054404202706465725
50	0x3fb7d9ae7ba1671a	0.09316530721971752
51	0xbfc5664f6e31850d	-0.16718476181544198
52	0x3fb54e706c87904c	0.08322813653609379
53	0x3fa0ce8153972e21	0.032825509504246016
54	0x3f8a58ea04ec0171	0.012864902758793236
55	0xbfb19d85f68f4b4e	-0.06880986470723124
56	0xbfa05eba87c8070e	-0.03197272212493206
57	0xbfb913ab63fab676	-0.09795638266469972
58	0x3fa0f43def226870	0.033113418046199494
59	0xbfbf776bc775a308	-0.12291597003571664
60	0x3f83958d5be464d7	0.009562591902567181
61	0xbf975116cc78bde8	-0.022770267705878228
62	0xbf8f267fde411e2d	-0.015210150690236091
63	0x3fa130fd5e01ed7b	0.033576886868980936
64	0xbfb35ef74c09f3ec	-0.07566781622331548
65	0xbfd2da187d72e5da	-0.29456150294171624
66	0x3f7543926452b842	0.005191394656476391
67	0x3f93c5db219aa578	0.0193094481716449
68	0xbfc42ded3cb73f8c	-0.15765157189025236
69	0xbfbd3d48d469d997	-0.11421637712360276
70	0xbfb79ef0a4681fab	-0.09226898206554661
71	0xbf94c97534113d43	-0.020299750616968436
72	0x3fa50e7730d99931	0.04112598868668938
73	0xbf986ba6c66106f6	-0.023848157747358344
74	0x3fa49790e7c9e2c5	0.04021885709238896
75	0xbf9865a6031cfd4c	-0.023825258197800722
76	0x3f7d657c044740b3	0.00717686122921195
77	0xbf810fa6865bace0	-0.008330632186206832
78	0x3fbe6106340b05cc	0.11866797228414966
79	0xbf6fde643bf613f6	-0.0038902242374114727
80	0x3fbc8533147a2cc0	0.11140746354992626
81	0x3f90d3807f3b3df8	0.01643181587752271
82	0x3fb850cfa4cd94cc	0.09498307965766911
83	0x3f9acf09eab48081	0.02618041510606917
84	0x3f85fdd84f8d3659	0.010738077094767083
85	0xbfbed06e4f247812	-0.12036790306271453
86	0xbf96f382d31427bb	-0.02241329587290129
87	0xbfc1ffe5774d736b	-0.1406218369037576
88	0x3fc4a17cbed57a29	0.16117820089398663
89	0xbfccef0bb0a66e5f	-0.2260450947331831
90	0xbfaf19a3c3a27f60	-0.060742490416713535
91	0x3fb66b21cc73c93a	0.08757220498572318
92	0x3fb5c75d3f3e16ff	0.08507330698020253
93	0xbf84d001eafe8f89	-0.010162367805442123
94	0xbfb095c0ea6b3462	-0.06478505824198202
95	0xbfa317650417f760	-0.03728786158533981
96	0xbfa4f03de21f7c85	-0.04089539895334674
97	0x3fb23100090562b9	0.0710601827644365
98	0xbfd7edfbad02e421	-0.37390033622392777
99	0xbf9151f237aa5bfa	-0.016914162299681103
100	0xbfc557e5b1ed2e8b	-0.16674491107766118
101	0xbfc271c92fdd6f93	-0.14409746968419465
102	0x3fb6658377b3dfcd	0.08748647377421932
103	0x3fba446a87811b3b	0.10260644729815464
104	0x3fc31585fed4e0dc	0.1490943426413257
105	0xbfb28eae978b47a6	-0.07248965453916742
106	0xbfc474288891e871	-0.15979487102942216
107	0x3fae191ba267f9cf	0.05878530843255058
108	0x3fab6b4fe6bff251	0.05355310146112358
109	0xbfc8acf3cceb68b6	-0.19277808671796998
110	0xbfabd3df42818b2f	-0.054350830906307095
111	0xbfab06790f755d4a	-0.05278375924779739
112	0x3fa01fc481ab356d	0.031492367581089954
113	0xbf9cfba802d4ad96	-0.028303742573525158
114	0xbfafbe6240fa956d	-0.06199938815306436
115	0x3fc77b12e147e5d3	0.1834434127811578
116	0x3fbdd38110a8b208	0.11650854737008143
117	0x3fbda78a66932d05	0.11583771709699782
118	0xbfcb5774c26bbda5	-0.213606448108732
119	0xbfc431ef31df5d56	-0.15777387557202854
120	0xbfac8a6fe8beb7fe	-0.05574369159818103
121	0x3fb4898879f100b7	0.0802235887249506
122	0xbfc0a3c17a73fc4a	-0.12999742964891176
123	0x3fa526273da651b6	0.04130671145972846
124	0x3fc7e6fbc4d1bdb3	0.18673655615155624
125	0x3f73414ea1dded33	0.004700953633683102
126	0x3fb157d931d6dbed	0.0677467104604685
127	0xbf86fa9de3ee01ab	-0.011220201032984564
128	0x3fb412e30f1731cd	0.07841319197104397
129	0x3fc0ed9e76fc8628	0.1322515564907445
130	0xbfa684629e345ebe	-0.043978769123155
131	0x3fb71f81ccbab155	0.09032450912736086
132	0xbfb17689a68c5fb3	-0.06821499172326533
133	0x3faeb541a838ced8	0.0599766271447188
134	0xbfa76d39c45031a2	-0.04575520059015338
135	0x3fb26afd6faba2fe	0.07194503761605728
136	0x3fbbef63322be304	0.10912151312721724
137	0xbfb865789a4ca1ac	-0.09529832617830064
138	0xbf8f993c87f506d0	-0.01542899408252954
139	0xbfb56e57dff72b36	-0.0837149545470027
140	0xbf95af6fcd2cc1c6	-0.021177050493123926
141	0x3fa3d65faa44ee7f	0.038744916472265516
142	0xbfc352d3a802cfda	-0.15096517280255634
143	0x3fbbfb81ce956655	0.10930644315285439
144	0x3fb6c1eadcd6fec9	0.08889644519421859
145	0x3faed14f0bcc8107	0.060190649214066076
146	0x3f8d2d2488c96cef	0.014246259140398424
147	0x3faa75dcb0998e6c	0.05168046623000752
148	0x3fbccf7abf1443bf	0.11254088559168361
149	0x3fbf450a4aeb035d	0.12214721993497109
150	0xbfb0f462ee3ab66a	-0.06622904125352994
151	0x3fbd565c48883589	0.11459900637438215
152	0xbfaa6c9a5d339b00	-0.051609825017115085
153	0x3fbafc9cdedad8c9	0.10541706505577787
154	0xbf970f0f9a9096c7	-0.02251839047325779
155	0xbfb12900c96d2b00	-0.06703190724980956
156	0xbf937fd90a30f728	-0.019042388197923504
157	0x3fa3efb73079518f	0.03893825976107045
158	0xbfaf9178686c0e92	-0.06165672564204984
159	0xbf7268cfcf1d702f	-0.004494487527917853
160	0xbf93594f78f193c8	-0.01889537978822256
161	0x3fa71fc83c148f4d	0.0451643536892151
162	0xbfaee410dda117bf	-0.06033375459132583
163	0x3f79217066c59c05	0.006135405605482984
164	0x3f9f7464c2182c1b	0.030717443796714244
165	0x3fb87c2e0ef1bbb6	0.09564483513689379
166	0xbfb6432750868480	-0.08696218219712826
167	0x3fb3382ca78243a2	0.0750759037930622
168	0xbfb73b1ece538c80	-0.09074585473313057
169	0xbf836f60c3187168	-0.009489780382005278
170	0xbfa3d0905fe53aa2	-0.0387005917606207
171	0x3fb1423c98aa560e	0.06741694190198919
172	0xbf708e0357b237f9	-0.004041684204947765
173	0xbfb49fa4c0ccef92	-0.08056096751255229
174	0x3fa52a8727d2a2dd	0.04134008751981864
175	0x3fa715c2a07f4028	0.04508789262001783
176	0xbfa779790940a8f7	-0.04584863889643203
177	0x3fb1207b6bafefd8	0.06690188769419991
178	0x3f8b0815c7f8c807	0.013199014821200462
179	0xbfb273385508943e	-0.07207061840070225
180	0xbf9cc1832830c94d	-0.028081940963781183
181	0xbf7c7078a6423116	-0.006943198477653808
182	0xbfa329403dd8c964	-0.03742409472433186
183	0x3fb8a25fd8300fb5	0.09622763660450924
184	0x3f8f24c14371107b	0.015206823225647028
185	0x3fb5b47a0bbd13a6	0.08478510653101398
186	0x3fc2f81c27b03be8	0.14819671571646542
187	0x3fb940c6e98cf526	0.0986446685974057
188	0xbfb0c7d1562cda7f	-0.06554897645842493
189	0xbfa8e582f08adc88	-0.048626033652390765
190	0xbfa0cf49c755cff4	-0.03283148344317502
191	0x3f9cbf7157037e83	0.028074046073810265
192	0x3f6e2b0f9ba63499	0.0036826424449772463
193	0xbf91a9e8ed444747	-0.01724971721802795
194	0xbfbad4714ea0ab32	-0.10480411691302718
195	0xbf7f12b509c5e135	-0.007586199932454731
196	0x3fb90083771c25c5	0.09766408594091221
197	0xbfc0baa7d3bab11e	-0.13069627607672712
198	0xbfb821b7229abb84	-0.09426445574602665
199	0xbfa91f90cfd9264a	-0.049068951961612386
200	0x3fa1e9a7dea0d6f8	0.03498577683096288
201	0xbfb9f8fb9ce56dd2	-0.10145542698358348
202	0xbfb7dfcfcfb914e9	-0.09325884648668005
203	0xbfb7b2fd6ba35167	-0.09257491948966888
204	0x3fa7d22ef981bf63	0.04652544780480985
205	0x3fba5009ffcc3afa	0.10278379912436356
206	0x3fa27d9746174882	0.03611443262674731
207	0x3fb499566bf3121a	0.08046474585996358
208	0x3faab6c805cdb86a	0.05217576094479244
209	0x3fa6fd5dde0b09d0	0.0449017842816094
210	0x3f940612b420e5f5	0.019554416889354404
211	0xbfb8e59745007ba1	-0.09725327906242721
212	0xbfb654e074be8c5a	-0.08723261690333697
213	0xbf785b7eeafcb7dd	-0.005946632168884106
214	0xbfb156cd0a747d7e	-0.06773072724580761
215	0x3f72dea42c188ca4	0.004606858537530876
216	0x3fb56d4063f4af1e	0.0836982959778507
217	0xbf83e6be6d33cf4c	-0.009717452724067897
218	0x3f86e02b3482831b	0.011169755496952363
219	0x3fa80f04c1e16b4a	0.04698958269792415
220	0xbfb91ac997ada76b	-0.09806499436458942
221	0xbf8d69b4663157f2	-0.014361771935153176
222	0x3fc3fd99e4d1ed11	0.15617679283955302
223	0x3f7a256250400e84	0.006383308445950701
224	0x3f78d90bafd0ae78	0.006066365863300775
225	0x3fa206333b2de0c7	0.035203553174996176
226	0x3fb8a92e25642534	0.09633148587103763
227	0x3fb7a058d938fcf7	0.09229045203482032
228	0x3fc69bddd68f3ef0	0.1766316697744439
229	0x3fa312c38aa1e588	0.037252531693364566
230	0x3f693f2c8338b451	0.0030818814646154454
231	0x3fb3cdbe1287b3b2	0.0773581309546916
232	0x3fb6529888c31148	0.08719781245151126
233	0x3f96c396bb5cfd43	0.022230487046951863
234	0x3fa489dba7fbf8b7	0.04011427331532629
235	0xbfaeb4148b1d03c9	-0.059967653256996885
236	0x3fb77c911e7561ae	0.09174448960891965
237	0xbfa8dbc9bbea60f8	-0.04855184954539199
238	0x3fb9c81e2dfaaf3a	0.10070980665721843
239	0x3fb4c6bf6575c0e0	0.08115764834451822
240	0xbfbb321d0ce53257	-0.10623342099024434
241	0xbfb23e3772b00321	-0.0712618498801132
242	0x3f9e1734158bda0f	0.02938538915165095
243	0xbfbe630dc9da5a81	-0.11869894197512033
244	0xbfc1dd69448fca20	-0.13956943366754704
245	0xbfb8251d82f558c6	-0.09431633422113625
246	0xbfbb05893ffc4a97	-0.10555322467943494
247	0x3fabb1b1cebaf6fe	0.05409007690967192
248	0x3fb490ae80fdd063	0.0803326668663558
249	0x3fb9a6eccca7c6ce	0.10020332333058521
250	0xbfbaa4345611eb2c	-0.10406806088751058
251	0x3f93229c1793fcc0	0.01868671316060211
252	0xbf88ace0a30ddc33	-0.012048487640397542
253	0xbfa3ce09521a7b2d	-0.038681308052437614
254	0xbf98b6a9f8b8c907	-0.02413430767610072
255	0x3fb3879fbccf7cc2	0.07628820762282643

encoder.bias_ih_l0 f8 [256]
0	0xbfb82e2caa97cf0f	-0.09445456662052386
1	0x3fc48bc912d093ce	0.1605159131878779
2	0xbfc353a1e2ff38cb	-0.15098975738368944
3	0xbf812eea289ce5e1	-0.008390263904959507
4	0x3faece61001f8ff5	0.06016829611306199
5	0x3fac875b2d1107a7	0.05572018551948981
6	0xbfb1764921f775b2	-0.06821114615691817
7	0x3f9e8cd7e9664299	0.029834149952480436
8	0x3fb04b6f56393244	0.0636510453707127
9	0xbfa28ae3f6fb1bd6	-0.03621590032485471
10	0x3fb63cd7f3b07923	0.08686589908072455
11	0x3f8615a2175dfeb0	0.010783449495419845
12	0xbf85fa445526ea7c	-0.010731252525933536
13	0xbfabdb352c9c5a91	-0.05440679711880592
14	0xbfb1b0e6028ec256	-0.0691055065387983
15	0x3f857017a8234ef0	0.01046770555368634
16	0xbfb3f7855b4b0f8b	-0.07799561957204852
17	0x3fa82bc8c7c55d49	0.04720904768572127
18	0x3fa50afc8921c609	0.04109944509481173
19	0x3f983ac218ab36a8	0.02366164470259116
20	0x3fb0f8bb468d8f0b	0.066295342182965
21	0xbfc1d74332b493a0	-0.1393817899308063
22	0x3fc14320f6082d21	0.13486110699918988
23	0x3fbb58b4c41734c5	0.10682229792947158
24	0x3fb58457d689fe31	0.08405064571160704
25	0x3fa8a892f1656b35	0.048161117522531084
26	0xbfaa1202ebd54892	-0.050918666160798
27	0x3fb90a62cc40346c	0.0978147267016582
28	0x3fb632de776abc91	0.08671369948818809
29	0xbf9787e1c329e7ed	-0.02297928575215018
30	0x3fc7a667f0b0a529	0.18476580860559835
31	0x3fd093bb4da1e85e	0.25901682454389696
32	0xbfa4101f93e73546	-0.0391855114026876
33	0xbf88fc5135cc6f43	-0.01220000691824164
34	0xbf772716da68a9cc	-0.005652512807993348
35	0xbf71e3f9ba859799	-0.004367805006358604
36	0x3fcdcd6df2195465	0.23283171006429196
37	0x3f81b32c49c38c78	0.00864252662763064
38	0x3f9212150d7b3956	0.0176471032598838
39	0x3fa31ae2cfb736a8	0.03731449876395959
40	0x3f758e2faffa194c	0.005262552527375352
41	0x3fabca0ed484ab05	0.0542759546682046
42	0xbfa9a3086ba0df3b	-0.0500719672567684
43	0xbfbd8cf74cb7b094	-0.1154322206782033
44	0x3fa768e76af4db70	0.045722228819093824
45	0xbfb29c88f3a35320	-0.07270103405182882
46	0xbf9e768b79cce02e	-0.029749087628460007
47	0x3fb3752af44d4fc5	0.07600658859638461
48	0xbf98a72e339888f4	-0.024075242900047436
49	0xbf803facd8bf2c0c	-0.007933950771890984
50	0xbfb40f6b9c03060c	-0.07836029585725884
51	0x3f9654802fb69f13	0.02180671969622867
52	0x3fc42c5c39c3ea87	0.1576037675912014
53	0x3fa50cd26a64fa1e	0.04111344860801956
54	0x3fa6ec719d5dcf56	0.04477267309167014
55	0x3fc255e51cead84d	0.1432463065336286
56	0x3fc58dbefc75e663	0.1683882458417428
57	0xbfb997886a89c996	-0.09996845818549213
58	0xbfb36c2b4f6234e5	-0.07586928070141459
59	0x3face678dea5190a	0.05644586294015326
60	0x3fc3e3c224e60a0a	0.1553881340187931
61	0x3fbe32fe0524da92	0.1179655802305695
62	0xbf9d74d4a7230949	-0.028765986157631294
63	0xbfbbcf2c80175900	-0.10862997176386457
64	0xbfa105635b0bbc7b	-0.03324423300170395
65	0x3f9e3ec1b1f20cf9	0.029536272512371096
66	0x3fa844283084d4db	0.04739499656936071
67	0x3fb125101105f9ea	0.0669717828331852
68	0xbfb5240d49df48a7	-0.0825813584663445
69	0x3f9382bda2be393c	0.019053423936889788
70	0xbf83b591e5718771	-0.009623660864409552
71	0x3fc0a5872526e4ce	0.13005151094492934
72	0x3fafc75156ea2061	0.06206754861801823
73	0xbf87a8c6c9e7fcec	-0.011552384411514592
74	0x3fb5197b267f1644	0.08242006006101926
75	0x3f96b20c33598c44	0.02216357291616712
76	0xbf7773e3aa5f0372	-0.005725755041510948
77	0x3fb8a39a0789a279	0.09624636348747541
78	0x3f81776a66439b20	0.008528548475124575
79	0x3fb29a77ea8759c5	0.0726695010738246
80	0x3fb42920e91c3292	0.0787525719753808
81	0xbfaa1f498f1561c6	-0.05101995345711745
82	0x3fa1b607c22d4baa	0.034591906026114685
83	0x3fb183915ebd97b0	0.06841381609919384
84	0x3fb1b74070dfa153	0.06920244937612567
85	0xbfb7c3b61d51aecb	-0.09283006873891535
86	0x3fb75f3ab3a8edd0	0.09129683386065968
87	0x3fbe7df13b733a0e	0.11910922719400949
88	0xbfb214ebe3b93f31	-0.07063173589380935
89	0xbf893e266be6f6ba	-0.012325573127664458
90	0x3faa6298d37f5724	0.05153348523860604
91	0x3fb09965e0150f5a	0.06484066696890292
92	0xbf8d4d631d36ae5b	-0.01430776055243326
93	0x3fb7178626827885	0.09020269813706434
94	0xbfc2997af5af9add	-0.1453088473928891
95	0x3fba3c3ff1fc6ff0	0.10248183877814632
96	0xbfb513c4f32f1a33	-0.08233290612324921
97	0xbfb94ae146e2eec7	-0.09879882794023863
98	0x3fb31845d7c604fe	0.07458912389667557
99	0xbfa2804e406a611d	-0.036135144580102564
100	0xbfb5770e374cbd12	-0.08384789323894307
101	0xbfc682b4a5932265	-0.17586381993011738
102	0x3fa8c53696dafd9b	0.048379617609948876
103	0xbfc0b683fc7aacd4	-0.13056993320547028
104	0x3fb34ed1ea6917c3	0.07542144749558503
105	0x3f95ced0df06fd4e	0.021296752560144676
106	0x3f9e437f7ca0ebd7	0.029554359418607703
107	0x3fbbdefa662f1398	0.10887112612461036
108	0xbf92b19c40ff84c5	-0.018255654780550374
109	0x3fb6de3dce80b6e9	0.08932863513538404
110	0xbf945d7f474bb117	-0.01988791344312898
111	0xbf936a6df533c8ae	-0.0189606839093776
112	0xbfa9ba94a1552bb4	-0.05025162190812385
113	0xbfb9d2ed4d7d33b3	-0.10087474004576684
114	0xbfc024225573a42e	-0.1261027257199045
115	0x3fb62269d7dedf37	0.08646260757711564
116	0x3f87e64d7755f9f5	0.011669736103383047
117	0x3fabbe51c3c3cd91	0.05418639673907955
118	0x3fa39abc669b7dae	0.038289916539493304
119	0xbfb7adcc990d1491	-0.09249571549033166
120	0xbf8da7e9f6f4cf61	-0.014480426644332746
121	0xbfa98d351db8457d	-0.04990545261183408
122	0x3f9ab5a1e4b82aaa	0.026083497605251672
123	0x3fc1e0d06676a3be	0.13967328074548208
124	0x3f67eec21ac07d16	0.002921465978957048
125	0xbfa9a088b07df8fd	-0.05005290178722708
126	0xbfbc486a9be3f1d6	-0.11047998720091043
127	0xbfb9cddbe8baaa36	-0.10079740936149836
128	0x3faefdc60807b2f2	0.06052988861106269
129	0x3fc4e1aab8ff0195	0.16313680680287904
130	0xbfbdd83ef3c4925f	-0.11658090068210346
131	0x3fc03c5af660bfe0	0.12684189825222258
132	0xbf8578576b485651	-0.010483439408783076
133	0xbfb7989543c73eca	-0.09217198281043718
134	0xbfb9c417d6a8df59	-0.10064839354242618
135	0x3fc012920baa80eb	0.1255667263949428
136	0xbfc6176b801deafe	-0.17258971934992212
137	0xbf92a6f4a22ee68c	-0.018215010069730073
138	0x3fbf6d1b94016b38	0.12275860179344711
139	0xbfb0e4771c2e16a6	-0.06598610342015351
140	0x3fb3613fc46adadc	0.07570265336367349
141	0x3f9325530c20dc99	0.018697068801171033
142	0x3fc5699d5cc9c417	0.16728560476943308
143	0x3fba4bb49819f411	0.10271767342960937
144	0x3fbe6eba0f078d78	0.11887705676013194
145	0x3fc5129068f97d27	0.16462903142653681
146	0x3fb786322e650be0	0.09189141876872453
147	0x3fc1a9c39c33585f	0.1379932892511446
148	0xbfc47fc251b25b07	-0.16014889706703903
149	0xbfb99fa5591f87b0	-0.10009225297792912
150	0xbf9fbb900bfe6cfb	-0.030988932354017767
151	0xbfa278e2b0bb0507	-0.036078533242752946
152	0x3fb1a8f353e6c663	0.06898423002601244
153	0xbf9c04070b52abde	-0.027359113756272417
154	0xbf57e7cd084085cb	-0.0014590742366710093
155	0x3fc011f402fc2e4a	0.1255478872848122
156	0x3f752cfccaae9eb6	0.005169856517489959
157	0x3fb7894b64b3e46a	0.09193869789659606
158	0x3fc3739b026734b1	0.15196550004330825
159	0xbfbc7067fc9fdf33	-0.11109018247213669
160	0xbf47f0b652c72a20	-0.0007305994272937578
161	0xbfa020f1b2f3014f	-0.03150134381712865
162	0xbfa853140384efa3	-0.0475088362022398
163	0xbfb7c1de63f818a5	-0.0928019517960786
164	0x3fb9f14b9d288855	0.10133812510369584
165	0x3f726804f9d604b9	0.004493731915659876
166	0x3fb33765c9959c54	0.07506405040258929
167	0xbf8f50e65457d690	-0.01529102272887009
168	0x3fbbc97bce6f50e6	0.10854314603722379
169	0xbfc021e896c60bcf	-0.12603480684273768
170	0xbfb334cadfbfee90	-0.0750242992652892
171	0xbf9948e1b9c6e399	-0.02469208427803302
172	0x3fb65a8bb48be111	0.087319118097984
173	0xbfbd6fcdf31ad8f6	-0.11498725114038053
174	0xbfbe0264434109ba	-0.11722399370140738
175	0xbf91d73c1c1c233b	-0.017422618117993265
176	0xbfad72ceac54222c	-0.0575165353166692
177	0x3f83695e7249c734	0.009478319037245699
178	0x3fb7b7d2b2e6185f	0.09264866702696527
179	0xbfb2a6eb3584b0dc	-0.07285947853660296
180	0xbfa5196e9e4128dc	-0.041209656541995904
181	0xbfb6111fb35610f1	-0.08619878891301248
182	0xbf8feab5f200ffd5	-0.015584393928406751
183	0xbfc1cc1dbb508161	-0.13904163023199614
184	0x3fb8144606ffd383	0.09405934973604073
185	0xbfb2aa96718944e3	-0.07291546127204955
186	0xbfaec07cbc1e81c4	-0.06006231113792951
187	0x3fc56eac0647b6e1	0.16743994051596814
188	0x3f88ccebc8f72407	0.012109605856396767
189	0x3faf3a2ec6317b44	0.06099077386237764
190	0x3f9f028eb543af66	0.030283193410397223
191	0x3fb0619c2bda5868	0.06398941107394907
192	0xbfc5e1dca7dbfd52	-0.17095525928741978
193	0x3fbf7b01fd422700	0.12297069962565033
194	0xbfc0f9976d3f27ba	-0.1326169284278061
195	0x3fb3f9502b33b698	0.07802296690689514
196	0xbfab0be3d89a5f22	-0.05282508868293535
197	0x3fa0193db6c5b46e	0.03144257408244121
198	0x3fa409f648f8820c	0.03913850441700015
199	0xbfa24d9b468f90ae	-0.035748340953234745
200	0xbfbd34eeb8997ea8	-0.11408893591714764
201	0xbfbae731a06fd74b	-0.10509023825565326
202	0x3faa525756027a4d	0.05140946316645465
203	0xbf9b64fac8e64ba1	-0.026752394210756262
204	0xbfc22c6e535d51f9	-0.1419809252789859
205	0xbfabbd1bb43c6fc9	-0.05417715621135206
206	0x3f735289a4c4ba65	0.004717385931412997
207	0xbfc7f4e464d2ff0b	-0.18716101573044627
208	0xbfa81e22c0c29dee	-0.047104917555142
209	0x3fb0cc96a4cc4441	0.06562177203547127
210	0xbfb3de1b06cea183	-0.07760781208219751
211	0x3fb9e5b346b5d5da	0.10116119839025065
212	0xbfb9f40056bc86aa	-0.10137941472614878
213	0xbfa5f7b3bfcb46c8	-0.04290544239269206
214	0xbfb71ec5872a0e2b	-0.09031328725728176
215	0x3fa5fbe12c845144	0.04293731373232615
216	0xbfc12473eb34d426	-0.1339249514072957
217	0xbfb161905aaf10ee	-0.0678949567218898
218	0xbfa5cd2302e42dbb	-0.04258069429678409
219	0xbfb903c1f5e0a604	-0.09771358731145346
220	0xbf9327448b84f740	-0.01870448209341835
221	0x3f85ce7efb9faec6	0.010647766164729854
222	0x3fcd9aa165caa9bb	0.23128144712729956
223	0x3fbfb3ab2aa08512	0.12383527556132304
224	0xbf9753c709649986	-0.022780523250867123
225	0xbfbada47d0522b9c	-0.10489319644891143
226	0xbfb56f91b013e7a6	-0.0837336592557266
227	0xbfb2398ec2e7a817	-0.07119076021595593
228	0x3fb0092430e7c162	0.06263948625542562
229	0x3fc2cbc1b510a232	0.1468431600672076
230	0xbfb718b683569e5c	-0.09022083956244259
231	0x3f9cb61a5aad9df9	0.028038417610700226
232	0xbfa8d7b6ca69b98f	-0.04852076741086641
233	0x3fae194b3994ed00	0.058786726740857276
234	0x3fb098cfab00c03c	0.06483171391369152
235	0xbfb519b884cb8517	-0.08242371789994639
236	0x3fbfc39120e6878e	0.1240778642009259
237	0xbfba2589d50c53fe	-0.10213529063578616
238	0xbfa06d825932c22d	-0.032085488689862586
239	0x3fb0c1b8bedd821e	0.06545595798298406
240	0xbf9803afb8a58ebc	-0.023451562542858836
241	0xbfba1a66d4fd68d0	-0.10196535777996307
242	0x3fa82943eea519ff	0.04718982971330731
243	0x3fafe2c1704e25e0	0.06227688308633694
244	0x3fc4dc5c76db1cb3	0.16297488978873317
245	0xbf9e2ea5a55962dd	-0.02947481939040385
246	0x3fb753fcfc1872bd	0.0911253085582286
247	0x3fb23acf7919b8ea	0.0712098761229957
248	0x3fb2f13386e83687	0.07399293941144879
249	0xbfc2b4352dbad158	-0.14612450344942363
250	0x3fb1d445c6b46a45	0.06964527226629354
251	0xbfc26b196bb302f1	-0.14389341124299151
252	0x3fb2363bc2321e40	0.07114003649814382
253	0xbfa88fff6bb931ca	-0.04797361555083375
254	0x3f596bfa3bde8ba0	0.0015516227426608312
255	0xbfa18af6bba0c5d1	-0.03426333465939602

encoder.bias_hh_l0 f8 [256]
0	0xbf906852e5cc6a4e	-0.016022963786875892
1	0x3fcb2ed01a437cd3	0.21236611635592925
2	0x3fb2e63c6ea6a1e3	0.07382562352598358
3	0x3fa7b690e6dc9288	0.04631474321494006
4	0xbfbac0d348ef1069	-0.10450478106128148
5	0xbfad19565c358aeb	-0.05683393359756458
6	0x3fbf0b74e57abb53	0.1212685642483227
7	0x3fc3cf1d814b09cf	0.15475815594807193
8	0x3faee8698dcde7f9	0.06036691528329636
9	0x3fa8e86d6d56179a	0.048648280712810535
10	0x3facfa3c86592ec2	0.05659665241236446
11	0xbfabb9df3afe49da	-0.054152465773899386
12	0xbfc8cd5558d83c90	-0.19376627767676213
13	0xbfba4b6468032809	-0.1027128938614227
14	0x3fba086592c97c4b	0.1016906245581463
15	0xbf5b28f9293fd08c	-0.0016577180112991334
16	0x3faeea0c1ff9c3e6	0.060379389670636205
17	0xbf87efe508b745b1	-0.011688031509865167
18	0xbfb104b8160bb6f6	-0.06647825754381728
19	0xbfa5029f89c9d45a	-0.041035638399002664
20	0x3f9f71d26774eef5	0.03070763355684299
21	0xbf88b85cd9e60a1a	-0.012070393943536085
22	0xbf931aa19be3aeb7	-0.018656277789814903
23	0x3fbea0d3680ba316	0.11964150705501839
24	0x3fac897ef0039365	0.055736510084705405
25	0x3fb0aa27dc66432f	0.06509637003751999
26	0xbfad06f21976b4b3	-0.05669361649356954
27	0x3faccc61462e86f4	0.05624679547987724
28	0x3fb5c908ae267e80	0.08509878398626292
29	0xbfbbe0579a8e667b	-0.10889194033952691
30	0x3fc64672bfb03254	0.1740249095895644
31	0x3fd2e816880c42c8	0.29541552816321515
32	0x3fa2c284aad8b14c	0.03664030633476276
33	0xbfb6b482d31a3828	-0.08869187978618298
34	0x3fa39f28be62b152	0.03832366298715563
35	0xbfb37305a7439320	-0.0759738477095877
36	0x3fd1e2d383a5a555	0.2794693742385637
37	0x3fa062078cc578e6	0.031997905668264257
38	0xbfb49ed4bdb32979	-0.08054856902450593
39	0x3f934af6852cd408	0.0188406485351216
40	0x3fb61c018bea4c71	0.08636483827494758
41	0xbfb7634f53d2cbf5	-0.09135909840078667
42	0x3fb77aa23d170662	0.09171499244168893
43	0xbfbc7d48a5850d8d	-0.11128667870530347
44	0x3f9498e322ef4831	0.020114468581432902
45	0x3faed6b2c5f2d147	0.06023176828731152
46	0x3fa031e4876d3a4e	0.03163065102727512
47	0x3fb0963b6107e1b4	0.0647923576251575
48	0xbfb79ae47bfa6aab	-0.0922072222405556
49	0xbfb12311b9b5f160	-0.06694136413529383
50	0x3f942f5133a6863a	0.01971175077199503
51	0x3fb24d459974b858	0.07149157520754679
52	0x3fd4d3b19a26be71	0.325420761621877
53	0xbfa70677f52e9b57	-0.0449712263864998
54	0xbfb1f672298c0abb	-0.07016671671230316
55	0xbfac1b8212313391	-0.054897370072104164
56	0x3faa9dd1042b3ea0	0.051985294112111946
57	0x3fb594849b7dad78	0.08429745479741324
58	0x3fae0f52b2a371d5	0.05871065550465785
59	0x3fa105cbd470b03c	0.03324734657539394
60	0x3fcc457834bd2b8e	0.2208700425638565
61	0x3fb3f7fa6829c4a7	0.07800259631200622
62	0x3fad6f04d2304460	0.057487631471425216
63	0x3fb3771796c76d2f	0.07603595191124123
64	0x3fb86540c27dcb32	0.09529499767613173
65	0xbfbc21b8f6ff9df3	-0.10988956480252181
66	0x3fa20ba2c314bea5	0.03524502402649191
67	0x3fb4ea52c03cabd4	0.0817004889801603
68	0xbfb02a9cf74b2e01	-0.06315022504275448
69	0xbfa2587477ba947e	-0.03583110772641705
70	0xbfb484b606c460f2	-0.08015000977718836
71	0x3fbce9e679b88456	0.1129440352601859
72	0x3fb1405902f17bd8	0.0673881179986745
73	0xbfba0f81d2dbe111	-0.10179911992952763
74	0x3f9fa156bbaa9fdd	0.0308888961832564
75	0x3fa4eac6bcfe199b	0.04085370118177708
76	0xbfc3ae1fc5d89074	-0.1537513462109278
77	0xbf9885a84bde9d74	-0.023947362547600062
78	0x3fb6ee52f1c15962	0.08957403566578173
79	0xbfb7b114836c3847	-0.09254577835619769
80	0xbfadacbefe3965d7	-0.05795857289622191
81	0xbfb2fff6e230b8e9	-0.07421820661759039
82	0xbf8209514e3806bc	-0.008806834411191893
83	0x3fbc34561fa941b6	0.1101735904023887
84	0x3f69cab2ef48dd85	0.003148412210318421
85	0x3f6c1dd57ac2610e	0.0034321946641960926
86	0xbfa5fa98044f290a	-0.04292750408747466
87	0xbf618925df8d9e44	-0.0021405925476079297
88	0xbfb69a6d3f303b1d	-0.08829386513410183
89	0x3fa235487b3e5f30	0.03556276802481617
90	0xbfaed44dbf03dc8f	-0.060213498656531354
91	0x3fc04a55f0690426	0.12726854552059413
92	0x3faee3ceab3a3e08	0.060331781770511184
93	0xbf807fc92165ae3e	-0.008056231815053324
94	0x3f8eaad6de51206b	0.014974287662099258
95	0xbf9b9b512bad51c0	-0.02695967511256625
96	0xbfb349dc77f7d76b	-0.07534578255567019
97	0xbfb81be36427ca9d	-0.094175540878306
98	0xbfa94e211d74bfc7	-0.049424204679211985
99	0xbfb87a84ec3a478d	-0.09561949507977215
100	0xbfb6d946d5b9c937	-0.08925287931359525
101	0xbf85edf524030087	-0.010707774316302
102	0x3f9721da2fa29b74	0.022590073735638552
103	0x3f891a3e29935a7a	0.012257085460459328
104	0xbf939c1522f0d960	-0.019150095231645792
105	0x3fbe902e077a0333	0.1193875091794439
106	0xbf9b6631842ab5dd	-0.02675702447111471
107	0xbfc18dd35a2a8844	-0.13714067366260185
108	0x3fa9319bb04068a5	0.0492066052103877
109	0x3fa5cb26546613f2	0.042565534403401176
110	0x3f947cc983d53249	0.020007275268016298
111	0x3fb3fc312d7e91fa	0.0780668960638379
112	0xbfbb50343c0c28db	-0.10669256654742602
113	0x3f974daca0e0f672	0.022757241553554804
114	0xbfaa226428ec388e	-0.05104363441033498
115	0xbfbf09f4019c8310	-0.12124562301006514
116	0xbfc0024a711446e1	-0.12506990930028564
117	0xbf95f43d1d903e03	-0.021439509324464378
118	0x3fab109356d9c44f	0.05286083636463756
119	0x3f9917863dd7a091	0.024503800892404618
120	0xbfbac30ad257b5d2	-0.10453860888784242
121	0xbf80101f8b6f8b8a	-0.007843252604237145
122	0x3fa46c53dc56de48	0.039888973853007104
123	0x3fbf5a3c6b93555c	0.12247064234118937
124	0x3f9b966efca410da	0.026941045923209873
125	0x3f8f420296187808	0.015262623029283176
126	0xbfb6b334c6598902	-0.08867196886561504
127	0x3fb10aa1e81f8cf9	0.06656848828383834
128	0xbfc18e712971746d	-0.13715948604195508
129	0x3fbcbd6dc7863ae4	0.11226545449447262
130	0xbf908a9a33c86717	-0.016153726015637106
131	0x3fadcf150fdd8004	0.058220537363695285
132	0xbfabf776d51525d3	-0.05462237692934093
133	0xbfb20598337ae536	-0.07039786583745386
134	0x3fb636319ac543db	0.08676443127229964
135	0x3fb95fb35f3e5479	0.09911652636795222
136	0xbfae82067889c955	-0.05958576413549347
137	0xbfad15b5a910f7a5	-0.056806256187413674
138	0xbfaf090aaefced44	-0.060615857945288926
139	0x3fc17664af8b8c7b	0.13642557689226806
140	0xbf9fcfba8811ea34	-0.03106585937028168
141	0xbfc01e98aac473e9	-0.12593372667552608
142	0x3fa08cccbc8f6d48	0.03232421685944559
143	0x3f878ba1e20e18c4	0.01149679633250534
144	0x3fb8c5d6b30978ce	0.09676877852459428
145	0x3fb14a97954a277f	0.06754443545119491
146	0xbfaf5d538d5e9cc6	-0.06125889874174954
147	0xbfa168f328739595	-0.03400382870476474
148	0xbf8f6615e8349618	-0.015331431530806447
149	0x3f93f6b82a4a5c0e	0.01949584730263259
150	0xbf8ee9b6f51ebf25	-0.015094212871047905
151	0xbf629c4bb3ee5ff1	-0.0022717932292373112
152	0x3fb59ed40f441454	0.0844547784109449
153	0x3fba9753a1baa2e5	0.10387156198943222
154	0x3fb5ef6874cb3692	0.0856843266621701
155	0xbfa3afe49ff49328	-0.03845133259372907
156	0x3fbfa3e4fc5cc773	0.12359458123390059
157	0x3f8dabf0ed98737f	0.014488107920493707
158	0x3f9f7dda2aaf84fb	0.030753525595973646
159	0xbfa956ce06594e6c	-0.049490392947203116
160	0xbfa2970e4d989af1	-0.03630871484010879
161	0x3fc081ece7637684	0.1289650087191384
162	0x3f95b88f357a60c8	0.021211850775757296
163	0xbfb26e96d29836f6	-0.07199995652646493
164	0x3fa45d3e0354c133	0.03977388182318222
165	0x3fc04f3e12a946dd	0.12741828833764304
166	0xbfb13da7540eea62	-0.06734700967982968
167	0xbf72e8b338f78307	-0.004616451347346346
168	0x3f76904b033446f2	0.005508702294962241
169	0x3fb055a756148c0f	0.06380697108811283
170	0xbfa97a2cd2b2217b	-0.049760246963219644
171	0x3fba23ba2e8b6d27	0.10210765491813288
172	0xbfae93b6b6a960ca	-0.05972071628338112
173	0xbfa0dd1f380ce042	-0.03293702658851362
174	0xbfb1a43a458419ad	-0.0689121646611059
175	0x3f76b25f040ffe70	0.005541201740015475
176	0xbfb684556dc04efb	-0.08795675210449964
177	0x3fb980118997535e	0.09961042031438924
178	0xbf8861cd693742c2	-0.011905293248589802
179	0xbfb16466dafd8c57	-0.06793825956769815
180	0xbfc2abb87d0928af	-0.14586549859297324
181	0xbf917a7fd54c747b	-0.017068860429493498
182	0xbfb0ed02f977b1f3	-0.06611651030079439
183	0xbfb4a82106931aa3	-0.0806904450465518
184	0x3fba668aac70835f	0.10312716207455484
185	0x3fb701b8f6260769	0.08987003335462664
186	0x3fbd40859063ef95	0.11426577353625895
187	0x3fc270d322b80ffb	0.14406813807738658
188	0x3f9c6cd601f49486	0.027758926267001736
189	0x3fb41be84369fee9	0.07855083127833108
190	0xbfa467d3ea149efe	-0.039854643177305235
191	0x3f6e52bf9b332ae4	0.0037015669164238586
192	0xbfa1dc2d9e3d22ff	-0.03488295132280505
193	0x3fbf93b53f321e65	0.12334759514680511
194	0xbf8342840dff8614	-0.009404212643803901
195	0xbf808a0ac038337c	-0.008075794211458868
196	0x3fb553ca8a0f4515	0.0833098017749488
197	0x3fa078d50604a314	0.032171875939019184
198	0x3f80b54a6f5583bb	0.008158284685750297
199	0xbfb657b291463b01	-0.0872756580995251
200	0x3f64d2d25845e08d	0.002541933850974293
201	0xbf4b2884b7658781	-0.0008288047818434259
202	0xbf95518bb64297be	-0.020818884848857293
203	0x3f8ade651e118083	0.013119497280229325
204	0xbf9e0505dcaa51b4	-0.029316035836545587
205	0x3fb16eadb021c413	0.06809506940932435
206	0xbfc1558aca8521b9	-0.13542303932832825
207	0xbfb458deffea381e	-0.0794810652534754
208	0x3fa745a03a233bbe	0.04545307836234923
209	0x3fa283a16a954dd2	0.036160511265417875
210	0x3f9742819e109888	0.022714638969909134
211	0x3fbc7c3ad0536009	0.1112705954177501
212	0x3f87c90d868b3bef	0.01161394659848544
213	0xbfc6f0a80413c46f	-0.17921924780924622
214	0xbfa7c8508785db50	-0.04645015386898044
215	0xbfa677c7ff8276b2	-0.04388260835660897
216	0xbf727cbced74372a	-0.00451349067522048
217	0xbf9a3f817381a958	-0.025632879900890998
218	0x3fb72bd2a65bcc4c	0.090512433638467
219	0x3fbac4c625745fac	0.10456503309649062
220	0xbf71b8a1309a63d7	-0.004326467178224789
221	0xbfa7133c08293922	-0.045068622585505716
222	0x3fc2bf3c11fd1a27	0.14646101835588007
223	0x3fd15027fc39a941	0.2705173457276438
224	0x3fb8fec947f7cddc	0.0976377297118271
225	0xbfbd47184e2120a6	-0.11436607272583163
226	0x3fc0b04e74ddfe2f	0.13038044649509703
227	0x3fbc89e3cb7f866b	0.11147903173653055
228	0x3fb7587ad6274428	0.09119384506563277
229	0x3f6416f43be64b26	0.0024523515887237167
230	0xbf64af8c47a61590	-0.0025251140443198275
231	0x3fac112984053d62	0.0548184369714544
232	0xbfb4dc2ac37b5da9	-0.08148448250300667
233	0x3fa2f50b8962efa4	0.03702579547959253
234	0x3fa7a28e94cc7dc5	0.046162086166301054
235	0xbfb7e0d144fd1130	-0.09327419218340505
236	0xbf83b64c28633124	-0.00962504862072728
237	0x3fa00b0ea9df242c	0.03133436034801948
238	0x3fa37f597d0d7014	0.03808097507018729
239	0x3fa3b40bdda89edd	0.03848301964563714
240	0x3f605c3117d49bc0	0.001997085461556719
241	0x3fb2d0a95b2ada29	0.07349642253652945
242	0x3fada85b06108c64	0.05792507599860455
243	0xbfb7b00e9224ea9e	-0.09253016536687617
244	0x3fbc7b2b1a0724a9	0.11125440011450628
245	0x3fa2b2ace042c661	0.03651943433341099
246	0xbf9f0790b9769567	-0.030302296943451348
247	0xbfaccba924320c6e	-0.0562413078960383
248	0x3fc525da91a1f5d4	0.16521770583123774
249	0xbfb2297a2a42d91d	-0.07094539195791012
250	0x3fb3f058a51c833d	0.07788614302672854
251	0xbfc134ba058a8e10	-0.13442158957069283
252	0x3fbf4d10d71afc7b	0.12226968051526114
253	0xbf914871f56ac951	-0.016877918819497243
254	0x3f917403aa3f6e10	0.017044121996020734
255	0xbfc43642175af590	-0.15790582790752383
