checkpoints/MLP.NINO.0324125004.pth (torch_old, 351421 bytes, 8 tensors)

linear1.weight f8 [128, 256]
0.0014181201660504342 -0.00042045631317229993 -0.00016015445087091122 0.001102009455623567 0.0014071646628346837 -0.0010536829337114341 -0.0015825216126870859 -0.002855154143117961
-0.0036655100198924287 -0.0013940088106119014 -0.0012222269705420663 0.00021503257982595346 0.004894762497994345 0.0017881971105177413 -0.0012488409362404012 -0.0021333063996420458
-0.005101999822093939 -0.004052994695687592 -0.003731877571527687 -0.003086128160828943 -0.003678700523159591 -0.0015964517499570555 0.0006531248970319067 0.0011420080234418911
0.00498612321626473 0.004417168033714724 0.0026330402288272294 0.004107190296932743 -0.003585453062258849 -0.000129719144630612 -0.0009774025415368098 -0.0005850137925802352
0.002458284471849703 -0.0006265747408246508 -0.0010037589350248939 0.0008787019219040368 0.003366638193240441 0.0013729171986546053 -0.0008343458725075704 -0.004204936781530979
-0.0009539658547670839 -0.0008532256646282662 0.00031129413746730636 -0.0020884428570776496 0.0007910824889031588 0.0007400220510773354 -0.0015891016290307514 -0.0012730965475023688
-0.003952738780439207 -0.0035855889496703573 -0.002770132593413597 -0.003949186290700921 -0.0024613595967572415 0.0001934651996045135 0.0005080935417519737 0.00045473139780855963
0.0019544823628396537 0.0028629586514594242 0.0011774430464984822 0.003213494173843555 -0.004282863113452838 -0.00040177549424881017 -0.00010036368416905042 -0.0004899198997531164
0.0038605569061266353 0.0012809954453171593 0.00031233171954032576 0.0003600932200220661 0.0005275004847465238 -0.00015062822474363 -0.0032073056206050206 -0.0025616570951359275
-0.0038235750167186083 -0.0025680348972461496 -0.000992396673469223 -0.0006681526552284831 -0.0005385700603156569 -0.00024370344867177677 -0.001162874064101475 -0.00105600511230217
-0.004969005764025847 -0.003340836977966694 -0.002204897852952642 -0.003448458815103624 -0.003801952626077183 -0.00020659507921749564 0.001581910827157025 0.002568785234188981
0.002269433404056302 0.003062104044083737 0.0021161933509708593 0.0020771874336942054 -0.004754961411222829 -0.0026640690118881986 0.0001044805636495016 0.0011691484065854425
0.0016215570396838767 0.0003817670624129496 0.0010619915589467662 0.001819887930744754 -0.0024107383183252806 -0.0020580485954862387 -0.0024100007049290984 -0.0037543848903779436
-0.0028321767199869074 -0.0015190977843357175 -0.0017224381861571574 -0.0009006853002186837 -0.0017815294907622616 -0.0014016366082508116 -0.0008552981594641241 -0.001803674265583652
-0.004665440760630044 -0.0024428146205631974 -0.0012439790516657874 -0.0029098075244561534 -0.002646945023535912 -0.0009078802306094803 -3.388048392366004e-05 0.0012867222992014556
0.0020592025817784405 0.0007189073791318169 0.0010247663067773963 0.002158404687694759 -0.0014006825313418957 -0.002168204289760772 -3.5333976770409044e-05 0.0002216567639500997
0.0012668717839933064 0.002000213340633996 0.001481864124727742 0.0026549005817518125 -0.004640423617685023 -0.0026422106611441874 -0.002101508454802388 -0.0034084104662605447
-0.002043536555170251 -0.0022217313134671145 -0.0005792541422793524 -0.0021368730682280305 -0.0011735519143093631 -0.000930538952645748 -0.000918558960581471 -0.0013135374017626898
-0.004991141261488805 -0.00237239060097785 -0.0014933134689481878 -0.0017482672464277046 -0.0018575461481094642 -0.0005968515012112977 -0.0007404232842145085 0.0008645065684461364
0.002552727735754121 0.002296126777645351 0.0014541089181818328 0.001904878347711859 0.003251902570868397 -0.00040747407632528947 -0.00045179155885846764 -0.00028534908030030136
0.0012310062603909993 0.0018798094150857822 0.0018843456842224712 -0.0005501192504194698 -0.005587932997516442 -0.0030173906934234758 -0.001338600734029333 -0.0015490884384271174
-0.0003143753001212436 -0.001255105659540279 -0.0007456104859967808 -0.0022724702898459237 -0.003641693793983221 -0.0007623490240004121 -0.0006897662420451758 -0.0026394294567544754
-0.00499750806876003 -0.0034713714995643586 -0.0013501487542640798 -0.0012559560325256299 -0.0008904254497539874 -0.00016260546736704095 0.0002714007940981904 0.0017762981327692036
0.0018158033550456198 0.00040084018825859834 0.001121997030518197 0.0007262507829431719 0.001714439741401379 0.0007056708240105587 -0.0006837749219245252 0.00039180470972474376
0.0006418648561925259 0.0010676963773104187 0.0009423210079529078 0.0018749641849049787 -0.005044839536559419 -0.002974996996643645 -0.0020878638266439657 -0.002463256993527793
-0.003522301440705669 -0.0015179270497413296 -0.001191942155941905 -0.0009637405757713338 -0.00423641622250573 -0.001736738583451326 -0.0024253540764861002 -0.001987593780839636
-0.003709491099017866 -0.0031219506565953975 -0.003043231625681963 -0.001727792830076442 -0.0026589706082713635 -0.0006266464828844785 0.0014461436700905338 -0.0005475447462684541
0.003833837943519049 0.0026710896911227564 0.0015812861167754124 0.0030811098017368374 0.0037674203883252023 0.0018965943747610418 0.00015647220489647097 0.00120238338574753
-0.00040087429165092657 -0.00033582412170910127 -0.0004899126344835563 2.5004479496680683e-05 -0.003986430834943219 -0.0022639074675827402 -0.001954007614564734 -0.0023046302787847034
-0.004488410117221496 -0.002105391351734592 -0.0009739284705372851 8.244922468903715e-05 0.0011436472473106511 -0.001873735413195668 -0.0010559457398197592 -0.002371992417372922
-0.0022767623602713994 -0.0028436214794060406 -0.0023101514707172034 -0.0018719326977277913 -0.0021565120738859696 7.36866633652244e-05 0.0014202356661034876 0.0010378467991450264
0.005038094518622544 0.0031079813489422923 0.00188811486244078 0.0005251301433578374 0.004124189306905835 0.0033436735825090194 0.001275423704150259 0.0004848681633052257
00000000: 49fd 09ef 063c 573f 7b05 4e1d 168e 3bbf
00000010: cafe f141 e4fd 24bf 3d24 98a4 290e 523f
00000020: d8dc 3e8d 130e 573f ddb5 666f 7743 51bf
00000030: 44cd 96a4 93ed 59bf c16e 6e35 b163 67bf
00000040: b93c 13b5 2107 6ebf ca5b 1f90 e5d6 56bf
00000050: ae1d 7937 6406 54bf c615 bdcb 4b2f 2c3f
00000060: 69f2 9bcd 870c 743f ca42 f106 3e4c 5d3f
00000070: 2be5 a8be 0476 54bf 067e 0027 de79 61bf
00000080: 9ada 14a6 d5e5 74bf 3c91 b37a df99 70bf
00000090: ce98 ea83 5092 6ebf a56d b470 1448 69bf
000000a0: 5e3a 0a4e cb22 6ebf 49b6 9003 0128 5abf
000000b0: 4f9a 5609 cf66 453f 126c 32c7 edb5 523f
000000c0: 38e9 5c42 546c 743f 7f8e ee83 bc17 723f
000000d0: aceb 7fb5 e291 653f 0576 0f80 b3d2 703f
000000e0: b68e 9974 3d5f 6dbf cca7 bbf7 a600 21bf
000000f0: 9c00 dcfc 8503 50bf 95f7 ac8d 732b 43bf
00000100: ffc1 256d 6523 643f 4d8d 9a02 1788 44bf
00000110: accf 22f3 1172 50bf 12c6 3d02 16cb 4c3f
00000120: dc71 ff1d 5a94 6b3f b43d f99d 6e7e 563f
00000130: a559 341e 0057 4bbf 69b3 551f 3239 71bf
00000140: baa9 e812 7242 4fbf 6d16 b029 60f5 4bbf
00000150: 18c6 cd23 a666 343f f4ae a938 c81b 61bf
00000160: b91c 8ab5 14ec 493f b42e fc40 c13f 483f
00000170: f692 b5e1 2c09 5abf 55a9 5002 c1db 54bf
00000180: ec76 aa3c bf30 70bf 61ce d268 865f 6dbf
00000190: af10 9e9c 63b1 66bf 5711 6e9f 052d 70bf
000001a0: 6ab9 185f d829 64bf 7601 1269 9d5b 293f
000001b0: 5bbc 9392 32a6 403f b4c4 677b 20cd 3d3f
000001c0: be35 87ba d802 603f 9ae3 e338 0f74 673f
000001d0: 2fd2 2ad8 8d4a 533f 30ce 3d8c 2f53 6a3f
000001e0: 0ba1 1650 e88a 71bf 9d98 ae9b ac54 3abf
000001f0: 0051 00f7 4a4f 1abf 358c 3af9 be0d 40bf
00000200: 0545 ffb4 2ca0 6f3f a546 d062 e2fc 543f
00000210: c29c 5b85 0e78 343f 4d60 7f9a 5c99 373f
00000220: 9b71 51aa fe48 413f 865c 2799 3ebe 23bf
00000230: 23f8 f517 3546 6abf 4d42 4f2e 2ffc 64bf
00000240: 20ca d134 9e52 6fbf 61d0 c13c 8f09 65bf
00000250: da1e 76d0 6942 50bf d5cc c6e6 dee4 45bf
00000260: fc33 d865 daa5 41bf cc63 16af 54f1 2fbf
00000270: de98 c784 720d 53bf 91e5 fdda 344d 51bf
00000280: a784 0054 615a 74bf c1e8 f831 3e5e 6bbf
00000290: 0d27 6c85 0110 62bf 5e9e a33a f13f 6cbf
000002a0: f602 14c6 4525 6fbf ba8f ae37 2e14 2bbf
000002b0: ec16 24d1 03eb 593f a700 4812 220b 653f
000002c0: 3c24 07c8 5897 623f 6ac2 3d97 b215 693f
000002d0: 9178 80a7 fa55 613f cd57 0d83 2d04 613f
000002e0: 3840 143c f079 73bf f499 f828 f5d2 65bf
000002f0: b5d6 6f6a 9263 1b3f 08bc e88a c327 533f
00000300: 3f01 0f9d 4d91 5a3f 9f94 390c fd04 393f
00000310: 135d eac0 5066 513f 8c98 46c9 29d1 5d3f
00000320: 05c3 9047 afbf 63bf 657c 286d 0adc 60bf
00000330: a492 c046 23be 63bf 0ebf 430a 84c1 6ebf
00000340: dc58 714c 8133 67bf bcc6 66d3 8ee3 58bf
00000350: 5988 73eb 6d38 5cbf 9457 47f4 7e83 4dbf
00000360: e269 94b9 4630 5dbf ce0c 2cd9 e3f6 56bf
00000370: 67ea c5cf c206 4cbf 27b1 ee7e 288d 5dbf
00000380: 9734 d0b7 111c 73bf 3bef f91c f402 64bf
00000390: f90a 0156 a061 54bf 3259 f704 4fd6 67bf
000003a0: 0bc5 eec9 0baf 65bf 2a6f 17f3 d9bf 4dbf
000003b0: 1ddd 3a90 5cc3 01bf ef33 6c8c e714 553f
000003c0: 7f93 d3f7 75de 603f 9b1f 53d7 a18e 473f
000003d0: 1682 8371 2eca 503f b221 72b1 80ae 613f
000003e0: e61e 826a e3f2 56bf 738b 7fd0 0dc3 61bf
000003f0: b05d 8432 7286 02bf 353a ad1a 910d 2d3f
00000400: cdb9 5938 a5c1 543f 85e9 415c c062 603f
00000410: 4306 fb7c 6347 583f 5a36 87e5 babf 653f
00000420: 8537 d73a d601 73bf a1c6 1e0c 1ea5 65bf
00000430: f697 bdc2 2e37 61bf 6061 7c6f f4eb 6bbf
00000440: 753d 8655 9bbd 60bf b86f 9eea 4e33 62bf
00000450: ddd0 6fcc 22fb 42bf 9d23 33fe 5881 61bf
00000460: 523e e5c5 3b3a 53bf fb28 442f ed7d 4ebf
00000470: 5884 fa58 6e19 4ebf a36e b00b 6085 55bf
00000480: 7d12 ce47 9771 74bf 3ada 6c81 436f 63bf
00000490: 9b79 c120 6977 58bf 6a0f 7aa9 c3a4 5cbf
000004a0: 2285 3efd 1c6f 5ebf c695 d1d6 c08e 43bf
000004b0: 3227 3ce5 1e43 48bf eeca 25b8 0154 4c3f
000004c0: 2e41 8044 75e9 643f 0ace 5bad 53cf 623f
000004d0: 45ff e58f f9d2 573f 04b5 338d a335 5f3f
000004e0: 2410 22e6 bba3 6a3f 5fdb efd4 47b4 3abf
000004f0: 16c2 4bf8 cd9b 3dbf 37ef c3f7 5cb3 32bf
00000500: 9c8e 4ae8 362b 543f 84ef 78fd 7dcc 5e3f
00000510: 1856 a3c5 84df 5e3f b0f3 3f18 bc06 42bf
00000520: 590a a057 5fe3 76bf 56ca 1e4b edb7 68bf
00000530: 82f1 0098 7fee 55bf 3d41 a00b 5961 59bf
00000540: 5408 f8a1 579a 34bf ce20 b070 4b90 54bf
00000550: 1795 9253 a26e 48bf 40c1 6e32 b79d 62bf
00000560: 9018 e977 2fd5 6dbf 23f4 2710 0cfb 48bf
00000570: 35bb c9b9 2d9a 46bf 55ac 4ce6 489f 65bf
00000580: b818 785b 4478 74bf 363d 0362 fe6f 6cbf
00000590: cc99 a22f ef1e 56bf 9d30 6f85 dc93 54bf
000005a0: 1d0a d617 6e2d 4dbf 8d53 3854 2250 25bf
000005b0: ac0a e688 59c9 313f 2c19 d898 551a 5d3f
000005c0: 3326 a801 08c0 5d3f b0c8 de7f fb44 3a3f
000005d0: 38a2 5823 ff61 523f 3383 43ae 3bcc 473f
000005e0: aeb1 b2a7 e116 5c3f 77e1 308e 981f 473f
000005f0: a704 b876 eb67 46bf c8e5 286a 64ad 393f
00000600: 0317 6c48 5a08 453f 1f60 7241 3e7e 513f
00000610: d9c0 abf4 c2e0 4e3f 5adc bd76 2bb8 5e3f
00000620: f260 2bcd e5a9 74bf 5411 cd59 055f 68bf
00000630: 3474 535b 911a 61bf 13b3 5207 d32d 64bf
00000640: 39d1 d22f cdda 6cbf 989a 53c2 a5de 58bf
00000650: 990c 0625 5e87 53bf d92c 9c20 7194 4fbf
00000660: 21e7 0b52 345a 71bf 6b5d bada 6874 5cbf
00000670: a140 120e 56de 63bf 9a82 2a49 4948 60bf
00000680: 110e 90de 5d63 6ebf 37a0 087f 3493 69bf
00000690: cb7e ce89 1eee 68bf b7a6 c36c e34e 5cbf
000006a0: 07b0 b6f9 43c8 65bf 8edc 3713 b188 44bf
000006b0: b8bf 2cf1 90b1 573f 43fa 9f63 23f1 41bf
000006c0: 840e bd12 2468 6f3f 3d1b c75b aee1 653f
000006d0: 8b0f 0f0a 65e8 593f 35db ae3a 8e3d 693f
000006e0: c8e2 756b dadc 6e3f 3a5b 0eb4 e412 5f3f
000006f0: c532 6a01 5682 243f 3524 6b54 29b3 533f
00000700: 6458 f2f8 8d45 3abf 1ff2 b49e 3102 36bf
00000710: f0c1 1a5f af0d 40bf 26d8 3fbf 1638 fa3e
00000720: 8984 0561 1354 70bf d31d 1a11 c28b 62bf
00000730: b241 9fd9 d901 60bf 1bf3 a7f5 28e1 62bf
00000740: b2cc a16a 7062 72bf f209 0860 533f 61bf
00000750: e029 fd76 e7e9 4fbf 2da2 fce4 129d 153f
00000760: 2b7e 9fe1 cdbc 523f a7cb 8b14 04b3 5ebf
00000770: ecde ce1a f54c 51bf abbc 7cbb 6d6e 63bf
00000780: e4a2 197c b7a6 62bf 9137 33a8 814b 67bf
00000790: cd46 7f20 bdec 62bf 1d36 e46d 74ab 5ebf
000007a0: a8a9 959a 88aa 61bf 3073 ba3c 0751 133f
000007b0: d207 446f e644 573f d0a4 e083 0b01 513f
000007c0: d4f5 1033 d3a2 743f eb55 02c8 e875 693f
000007d0: f823 75e5 53ef 5e3f f9da 5b65 1c35 413f
000007e0: 817a 21a3 86e4 703f 6298 ee15 3164 6b3f
000007f0: 6b7a 43c6 83e5 543f b313 7ee7 bcc6 3f3f

linear1.bias f8 [128]
-0.0004814622507098208 -0.00043582217347147833 -0.0008769797894542377 0.0023197656679698085 0.0018823702209341063 0.0004034316706689759 0.002108425584433266 -0.0002703274829508103
0.0016960439167602898 0.0016792913383167352 -0.00022146283513115896 0.0011359963631154878 0.000530385642378857 0.00046711166873054753 0.00037663471986644227 0.0011281599102682994
0.001755737982045589 -0.0002253745207876481 -0.0005601007435697728 -0.0002305649452295227 -0.0007132437774894602 0.002507019331692312 0.0006626551649129114 0.0020531943836627725
0.0024902849170638647 0.001846517820614155 -0.0005976477653704047 -0.0010924417978642124 -0.00022310683338285436 0.0011662484604496298 0.00041619084865285707 -0.0004332995726446195
-0.0006323274405290049 -0.0012236789516648283 0.001183779592301593 0.0002874576683458386 0.0022673038577270483 -0.00024811618530006126 0.0012543084000577378 0.0004643847715738481
0.0009911419877799861 0.0007693559694351963 -0.000404264696467708 0.0005213091036645232 -0.0006118812049144541 -0.0008857559967210989 0.00029329593169411097 -9.177835694969288e-05
-0.00017352778219147544 -0.0006070010021551307 -0.0003559610675841244 0.0005561320996829384 -0.000734674649530314 0.0006591081306839764 -0.0007038948154033057 -1.98916722889338e-05
-0.0008860654345394462 0.000621175580831566 0.0007384763774493831 1.629925096373625e-05 0.0002333493021497093 0.0005320050675251591 -0.0009642797180202174 -0.0009670971506172784
0.0005108447034440205 0.002276263462588765 -0.00022824299721848335 -0.0008462562285984297 0.0003377113104344911 0.0006303566415562178 -0.0021822505748890736 -0.00060922280949707
0.0017835718818033505 -0.003383088412919903 1.4101724937598813e-05 -0.001551474653799393 0.0021241906533581616 0.0010664499634270013 -0.002069925742668446 0.0006728813494379632
-0.0006109579556732659 -0.000321611934735094 0.0005771190899004874 0.000809736000781671 0.0006739338183142982 0.0008805284999858873 -5.445037257249354e-05 -0.002547312874769638
0.00161207568190386 0.002242456850768114 -0.000754743278901134 0.0014434278771177401 -0.002004861788652181 -0.0013298658759656856 0.0008410550035417461 0.00021218978925967392
0.00037657108300503993 5.997700965192164e-05 0.001050454120924718 -0.0001190928587913465 -9.958560084476015e-05 0.000701449380433231 -0.0020140559458442157 -0.0004519332000344549
0.0005520338597119461 0.0032679394951839395 -0.0008252490141458092 0.000742542161708926 0.00021225592581841543 0.0020930743111258632 -0.0021388509867245587 -0.002095377427580094
0.0002026496700866587 0.0006400948939061038 0.0013075510906393 0.002717909412066656 -0.0009389859277486509 0.0020073501489288994 0.0028441614338578125 0.0010065532063576652
0.0030230924613160255 -0.0016207499149660097 -0.0005763214419848111 -0.0011717436612305862 -0.0015529429011200398 -0.0002699523549178492 0.00040310233665553094 0.0013591148947130008
00000000: 599b fd9e 988d 3fbf 31df 5ffb e18f 3cbf
00000010: 7d2c eac1 a3bc 4cbf 66bf b4b5 e600 633f
00000020: a390 6ca2 3bd7 5e3f 1be4 e9d4 7570 3a3f
00000030: 2750 cc5d b045 613f 60d4 cfb2 57b7 31bf
00000040: 8d96 ec49 b9c9 5b3f 00c7 3958 7583 5b3f
00000050: 3ca3 b144 0f07 2dbf 99d4 96ce b69c 523f
00000060: a720 807e 3261 413f df34 3d57 d59c 3e3f
00000070: cfd4 eacd e1ae 383f 952a d57a d87b 523f
00000080: f792 a54d 19c4 5c3f cbc1 6b64 508a 2dbf
00000090: 22f6 2330 775a 42bf 128c 79cc 7938 2ebf
000000a0: ddee 6459 1f5f 47bf 4128 48c1 9989 643f
000000b0: 6187 8321 c1b6 453f b77d 5d57 dcd1 603f
000000c0: 602e d988 8166 643f 8e4b aa69 db40 5e3f
000000d0: b767 abcd 6e95 43bf e3e4 da72 08e6 51bf
000000e0: b2da 141b 393e 2dbf 78f9 c8bf 991b 533f
000000f0: 48c0 7715 8646 3b3f a8e1 6e7e 8f65 3cbf
00000100: 8734 b6d6 58b8 44bf 5c4b 0145 7b0c 54bf
00000110: 0269 9da8 2165 533f c4f1 d648 bdd6 323f
00000120: 72b6 687d e192 623f 1edf c6e6 b242 30bf
00000130: d88e ab63 f38c 543f 3e88 1b68 156f 3e3f
00000140: cbd4 159b 263d 503f ef7c 255d d335 493f
00000150: 4330 77a6 6f7e 3abf 2783 92c6 0e15 413f
00000160: f77d cfe1 d40c 44bf 9632 e284 4206 4dbf
00000170: 17ee 466f b038 333f 0cd4 932a 240f 18bf
00000180: a3fe 854c a0be 26bf ea7a f8b9 e4e3 43bf
00000190: 4424 d824 0954 37bf d326 1797 2c39 423f
000001a0: 2d3a e5cb e512 48bf c309 d3ee ff98 453f
000001b0: d032 229b b210 47bf e137 a44f a1db f4be
000001c0: d08d 1f08 db08 4dbf 89e5 0167 cc5a 443f
000001d0: a5f7 ebf1 c932 483f 66b3 56ff 4b17 f13e
000001e0: 1313 183e e795 2e3f 2dcc e32e c86e 413f
000001f0: 3926 32ed f698 4fbf 5978 2551 99b0 4fbf
00000200: 7555 b6a5 46bd 403f adef 1fa4 aba5 623f
00000210: c7e2 cc6a 90ea 2dbf cbfe b569 e9ba 4bbf
00000220: 3779 a708 db21 363f ccb8 8494 d0a7 443f
00000230: f7f6 39db 82e0 61bf e464 7905 88f6 43bf
00000240: 4118 c1b9 d738 5d3f 0997 f9c2 d9b6 6bbf
00000250: a380 4c51 ce92 ed3e dd56 8339 5b6b 59bf
00000260: 6a5f 5f2c c066 613f 7dac ceed 0379 513f
00000270: 6c4c d6eb f2f4 60bf f10a e9b1 890c 463f
00000280: 4829 2c38 1605 44bf fa6d dfbd c013 35bf
00000290: e181 face 39e9 423f 79e6 24d2 8e88 4a3f
000002a0: 3145 cbda 5d15 463f 5a4c 298e 68da 4c3f
000002b0: 53d5 3d8e 348c 0cbf 3891 ac2f 1ade 64bf
000002c0: 0ced 4615 8969 5a3f 6393 c6da c55e 623f
000002d0: 449c 91d9 3ebb 48bf 90ce afe1 2ca6 573f
000002e0: 9e9e 16fa 7f6c 60bf 336f 809c dcc9 55bf
000002f0: 9725 ffdd 478f 4b3f 2136 2c69 e8cf 2b3f
00000300: 08c0 727c d0ad 383f 7198 175c fa71 0f3f
00000310: 73b9 1986 ec35 513f 7ecc 1abc 2f38 1fbf
00000320: 71fb 5998 131b 1abf ea92 0a13 2ffc 463f
00000330: af4e 6e0d c87f 60bf 6e78 6a50 2e9e 3dbf
00000340: f0f4 d6af cb16 423f 6f57 3aa8 5dc5 6a3f
00000350: 7c97 6ec3 b00a 4bbf 9dd9 7426 e554 483f
00000360: dadf 0085 20d2 2b3f 643a dcb6 7e25 613f
00000370: 7b7b 3fe1 7e85 61bf 8584 c630 532a 61bf
00000380: f620 4069 cb8f 2a3f 4a6a 5d51 81f9 443f
00000390: 266c 044b 446c 553f 50e4 3981 de43 663f
000003a0: b657 f0ec c8c4 4ebf 9a7c b8e7 b771 603f
000003b0: 298f f98a a34c 673f d663 9746 ca7d 503f
000003c0: d1e2 2168 e2c3 683f bd36 4ef8 ea8d 5abf
000003d0: 6143 66df 88e2 42bf 3cef 122d a632 53bf
000003e0: 796f 43be 8371 59bf 047d 2d89 0cb1 31bf
000003f0: 6820 565a ef6a 3a3f a51c 8e81 8a44 563f

linear2.weight f8 [64, 128]
0.0031637287305895626 -0.0001358642368116107 -0.005751324277008684 0.0008347732480791467 0.001224579977295902 0.006519898696386499 -0.006061927779245618 0.002876159106206396
-0.0035003820813456765 -0.005576425583613899 0.0003094643225842005 -0.009593089426685655 0.0034243167841620827 -0.0043707298585221035 -0.0006955072313823783 1.214230380113644e-05
-0.002027297726921305 -0.001963191684120889 -0.005819261078535397 0.001916908773174787 -0.002091276581628959 0.00625410297274051 -0.004212047155676932 0.002963162047909927
-0.0005117168782815559 -0.004690357369412933 0.002416260019322609 0.00516526811612542 0.000563609673960457 0.0006152127485518371 0.0022744347486502504 0.002007024496321855
0.004217542402515052 0.0008622197528735717 -0.0001496983636811608 0.0024702989635424564 -0.0002445911673418744 0.0004861767897315784 -0.0005317921425293305 -0.0012256414618522402
-0.008646461923324576 -0.004298031370344715 -0.0010020697211785342 -0.006542676013389225 0.0006361097427978561 -0.0023511240449823586 -0.002241750180776003 0.006155374392139104
0.007556017417092296 -0.0026870590165547436 0.012364851745576012 0.0013352837861095698 -0.00623161917692348 -0.0008901278975424346 0.00233410720037898 -0.004630406543816342
0.007202655491228844 -0.0019358574191830097 0.0047275028043972525 -0.001976818154867368 0.009225132770998285 -0.0010583055575507153 0.0022536897810882662 -0.0011421147497745147
-0.003464871716573308 0.002342939583573963 -0.002032924343801365 -0.0005618796794811274 0.005158601940147832 0.010374194843816976 0.0027027582080017 -0.0018906387345409886
-0.004139188100881855 -0.005162420239450749 -0.0004668008993649412 -0.0006338929122506136 -0.006829806930837669 0.006851410200871187 -0.00043388576083331807 -0.002782962896694492
0.0004393619269306476 0.0037419968971577457 0.0041903421222145715 -0.003168755013109988 0.001387956845674825 0.0005531357302368368 0.0003227540682389961 0.0006254588038587897
-0.004443833210615569 -0.009431249904533737 0.0003028260922270597 0.002392295985833126 0.004449457557920733 -2.6554745196068413e-05 -0.00012690518766811775 -0.008993242485963976
-0.0035659303091836107 0.011807598128361014 0.0025559641706565024 -0.0011995423636269014 0.0006114926077319127 -0.0009703138101728559 0.0006856547937576052 -0.00039355705648001077
-0.005720214087322259 -0.0032437715440160287 0.0016014433554198757 0.0026070121089228158 -0.004164159619846262 0.0020512947654813827 -0.008450480357536866 0.0035120537940680173
0.00038257585001150505 -0.00546000286098589 0.005658181116575233 -0.0052735593712840085 0.002564462434037137 -0.0076077882795792424 -0.009222125263496517 -0.00032138344901105025
0.007626745806651768 0.0027209096448664277 -0.002277660995684151 0.0039271233111375 0.009389024509906292 -0.0032008924416918666 -0.003678245053611275 0.003630510828205917
0.004885170182200528 0.0006472834230018231 -0.00022155409978475847 7.919534644632706e-05 0.0008234890548152914 0.004107552662370529 0.0013545691483547188 0.0022314822897772407
-0.0028672972430423774 -0.0006241044643765191 -0.0014071387311123725 -0.0009536062589555396 -0.002210139555468387 0.002208207563786953 -0.001416833166277174 0.00463355267992682
0.0032429953566102785 -0.002637854396200951 -0.00286945948023316 0.0008817219200474019 -0.0013064741106743932 0.0010923877907309807 0.002939858553072239 0.002652016395790625
0.0013078835169699093 -0.00030551806995771503 0.003303057488733653 -0.001988547307496906 0.0020215059931693938 -0.0039084134087184206 0.003599047261778791 -0.0011285653035325214
-0.005039962634901427 0.0008968149762759753 0.00024516082298996585 0.0033299837440306174 0.0049032082650730694 0.0007262621644023003 0.0037122444219038608 7.408678036451145e-05
0.0001667042949498401 0.0017408240573261002 0.004675083738539557 0.005050710864296476 -0.00497082498411617 -0.0013517690835620918 0.00019616638894188557 0.0039540423267778015
-0.004843401410801055 0.0008195664390464781 -0.0034327111927427837 -0.0020085620476461593 -0.0036518317187770504 0.0005007176524157312 0.0022374544262097765 0.0026070812215254822
-0.001631874329747925 0.004704127677056491 -0.005706206532072008 -0.0010383692327256815 0.0054054405301209385 0.0001959480090167577 -0.00957386980658893 -0.0035629295289921446
0.0016576000339899744 -0.0011687112324362964 -0.001639699554876885 -0.00247004180581445 0.007097891622644233 -0.001576331947402811 0.0017154517618093166 0.0007265853790504544
0.006332316494672195 0.0056088759300040505 -0.008159826299314377 -0.0032698617266901414 -0.002830789206418348 -0.002456374516574663 -0.00033562311038988415 0.004138665401158371
0.009328981124131245 0.004683320477264824 0.0032806053924182956 -0.0016363665457932925 0.000517037708646333 -0.004178032983309713 0.0010541667175972555 -0.0021559055333404994
0.006374633002483074 -2.159542156561333e-05 -0.0012912491416549445 -0.0015280308828151453 0.003864986143253371 -0.00474950977894839 0.0011785521303383124 0.0023647931032623752
0.003001922755641424 -0.0014961182756911154 -0.0008535972577297838 0.0007795598863448405 0.0017622690934556838 0.0014811466494844907 -0.0028502790723382186 -0.004293684457598454
-0.0011670190650214204 0.001219832380215332 -0.003996818683052345 0.007412376533092272 -0.004555323564189719 -0.00460952391252576 0.001701049801008496 0.0021808308663584554
-0.0025302730944511236 -0.0015131510057635768 -0.0004617862938672316 -0.00044810944964325446 -0.00599378831934691 0.0031423089654318724 0.0024100063484437007 -0.004975798014495403
-0.006421862914238983 9.650872178193544e-05 -4.637291979969914e-05 -0.011848522116404412 -0.0026627637190305207 0.00017018760718382408 0.0013518934513308775 0.006615322463576531
00000000: f930 cded d1ea 693f e6b7 58e8 d8ce 21bf
00000010: 32e7 da5a b38e 77bf d4e0 68e6 955a 4b3f
00000020: c76c 0bbd 4210 543f 9f93 c9fa 9bb4 7a3f
00000030: 6c4d 0059 64d4 78bf c572 9329 be8f 673f
00000040: 8025 0352 d5ac 6cbf dbc6 2958 4ed7 76bf
00000050: b22a 1025 f347 343f ae7c d7aa 8aa5 83bf
00000060: c8fd 2b13 500d 6c3f 3f01 d5dc 0ae7 71bf
00000070: 50b9 0d68 56ca 46bf 536f f486 d976 e93e
00000080: afd7 f62d 8d9b 60bf 62cf 8782 1c15 60bf
00000090: a59f 4e00 f0d5 77bf d274 5f1f 1968 5f3f
000000a0: a6b1 cc90 b921 61bf df62 bdfb e69d 793f
000000b0: 9785 86cc a640 71bf 162b d582 3346 683f
000000c0: 1260 e6a0 97c4 40bf 8b82 2138 3236 73bf
000000d0: 0f37 5fb8 43cb 633f 252b 241a 2d28 753f
000000e0: c4f5 058f e677 423f 0f5d 4b51 c728 443f
000000f0: 8d47 98db d5a1 623f 21fd 5d12 0971 603f
00000100: 0e42 03eb 6946 713f 30c7 fdd1 d240 4c3f
00000110: 5c8e 0d27 0b9f 23bf 0fef 4fa8 973c 643f
00000120: af2f 8b10 8f07 30bf 21f5 7669 b1dc 3f3f
00000130: 34ad 22ee fe6c 41bf 519e b27f b614 54bf
00000140: df8a 7e79 3cb5 81bf 29d7 c302 d09a 71bf
00000150: 9dcb 912b fc6a 50bf 99e1 1738 7ecc 7abf
00000160: 56b9 5f45 13d8 443f baa8 391c aa42 63bf
00000170: 19a1 ca76 4a5d 62bf 908b 57bb 6036 793f
00000180: d855 1cfb 0ef3 7e3f f31c 27d3 2b03 66bf
00000190: c7e5 ef4e be52 893f b253 4d0c 96e0 553f
000001a0: 6c63 0e89 5386 79bf 8821 c71a ef2a 4dbf
000001b0: 225b e942 fa1e 633f 2f19 c44a 55f7 72bf
000001c0: 4788 771c 8880 7d3f 0dec 8613 93b7 5fbf
000001d0: 7174 fc5e 255d 733f d2cf 682a b031 60bf
000001e0: 9deb 6b5c a0e4 823f 1b16 91f0 da56 51bf
000001f0: 9f9b f67c 5476 623f 686b e85f 60b6 52bf
00000200: 3efc a3d6 5c62 6cbf 921e 6a1c 8031 633f
00000210: 7ac0 4cf2 59a7 60bf 1312 806c 6369 42bf
00000220: 7e2a 04aa 2f21 753f 87b9 9cdc 103f 853f
00000230: 037a 9843 1824 663f 174c 23e2 e9f9 5ebf
00000240: ea8b 67d8 40f4 70bf 4de0 8ba1 3025 75bf
00000250: 9642 b598 9e97 3ebf 4c65 e4a9 7ac5 44bf
00000260: f5bc 7e56 92f9 7bbf e555 e86b 3910 7c3f
00000270: baa4 2927 656f 3cbf 76b6 12d4 4bcc 66bf
00000280: 5d5a 761b 45cb 3c3f 5ada 7049 89a7 6e3f
00000290: 70c0 fb65 e429 713f 119d cf64 5cf5 69bf
000002a0: e2ed aa50 83bd 563f 671f 91ef 0920 423f
000002b0: 46d7 f02a ea26 353f 55d0 c48d ba7e 443f
000002c0: e980 ef64 b233 72bf 15f8 33ef b050 83bf
000002d0: 98fd 9829 94d8 333f 002c b020 0299 633f
000002e0: a6ac 232b 9839 723f a3ee d931 3cd8 fbbe
000002f0: 93b0 ee42 3ba2 20bf f0cf e592 0c6b 82bf
00000300: ef28 d941 4c36 6dbf 9de9 71fe 942e 883f
00000310: ed19 bad0 3ef0 643f f354 34ce 3ea7 53bf
00000320: 0a0a 4060 9209 443f 5c37 700a 95cb 4fbf
00000330: 5c3c 3075 b077 463f 7e06 cbaf caca 39bf
00000340: fd0f e646 146e 77bf 36d3 4f96 ae92 6abf
00000350: a38f a0b5 f03c 5a3f 546e f0f7 4c5b 653f
00000360: e4fa 1e16 700e 71bf 0292 d47d e0cd 603f
00000370: 5d3c 2b46 7c4e 81bf b87b fe85 4fc5 6c3f
00000380: 3d0c 98c3 8e12 393f e581 955b 3a5d 76bf
00000390: ffca 9b6d 082d 773f d9e6 8750 ba99 75bf
000003a0: 92fe 2649 1102 653f b4e2 b01d 5829 7fbf
000003b0: 7a2b 40b3 0ce3 82bf 5f93 2967 eb0f 35bf
000003c0: 6516 08fd 383d 7f3f 7712 153e 294a 663f
000003d0: e95e 9cef 99a8 62bf d5e4 0423 e315 703f
000003e0: 37ed b089 8d3a 833f 0ed1 5c0b c238 6abf
000003f0: 372a c8c6 d621 6ebf 7021 cca8 bbbd 6d3f
00000400: c2e7 afe2 7802 743f e150 0791 ce35 453f
00000410: 6821 ca39 1f0a 2dbf fa49 22b1 b5c2 143f
00000420: a0ce 8e47 edfb 4a3f 9aa8 9fc5 14d3 703f
00000430: 8787 4f8c 7931 563f 4929 99ee c147 623f
00000440: 347c 607c 287d 67bf d6b2 c321 5e73 44bf
00000450: 1821 30b5 f70d 57bf ba52 05d9 6d3f 4fbf
00000460: 71d8 87a3 ff1a 62bf 44a7 9d68 f216 623f
00000470: 2a30 3c07 a136 57bf fddf 97d3 a1fa 723f
00000480: 9954 eddf 0d91 6a3f 7518 a04b fb9b 65bf
00000490: 9859 fe53 b181 67bf 054f c767 6be4 4c3f
000004a0: 97c9 04e5 bf67 55bf 7fc0 7c75 cee5 513f
000004b0: 34d4 e38a 5415 683f 362e 0776 aeb9 653f
000004c0: cad6 ab3b a96d 553f 4c08 6a1e be05 34bf
000004d0: 6968 827c 030f 6b3f 5737 df34 494a 60bf
000004e0: d079 23c4 678f 603f 21aa 50bc 4402 70bf
000004f0: 89b7 27c9 bf7b 6d3f 5611 7cc4 8b7d 52bf
00000500: 4a17 0aab c8a4 74bf 1a86 307f 0763 4d3f
00000510: 4577 8db7 1d11 303f 32bc db68 7b47 6b3f
00000520: 03af 4df2 6215 743f eb7b 491f 54cc 473f
00000530: dcf4 600c 2469 6e3f 63ac e631 e16b 133f
00000540: 2825 65fd aad9 253f ae4d 3c99 8b85 5c3f
00000550: 9d9c 353c 2e26 733f ba41 bddf 0db0 743f
00000560: 89cd daab 495c 74bf c674 5c00 bb25 56bf
00000570: 55a9 3d73 40b6 293f ad2b b027 1d32 703f
00000580: 5e99 92aa acd6 73bf aab8 bb86 05db 4a3f
00000590: ddf5 e6c9 ea1e 6cbf 87e3 cf89 4274 60bf
000005a0: 2a40 af39 72ea 6dbf 882a 88f8 5268 403f
000005b0: a291 c732 4854 623f 8ff5 b312 725b 653f
000005c0: ef20 28b8 93bc 5abf da76 77a8 a244 733f
000005d0: 9612 0827 645f 77bf 78a1 5379 3c03 51bf
000005e0: 09ea c1e4 0324 763f 8afb b494 ecae 293f
000005f0: c643 b90d 779b 83bf b858 c239 0130 6dbf
00000600: 48ba e47b 7a28 5b3f 45df 6421 ee25 53bf
00000610: 6e5c a9fd 65dd 5abf 02bf d298 0d3c 64bf
00000620: bca8 3cc6 ad12 7d3f 08de 598a 9dd3 59bf
00000630: ffe1 bf4d 201b 5c3f d143 6b38 0acf 473f
00000640: be65 0a44 eaef 793f 96ad fc2a 55f9 763f
00000650: 1ad4 c558 19b6 80bf 89e5 b6a5 65c9 6abf
00000660: 30ac 0762 9830 67bf 12b0 e406 641f 64bf
00000670: f28c 6c48 d2fe 35bf 01c4 c088 b4f3 703f
00000680: ef47 aaa6 121b 833f 7aaa 9544 d12e 733f
00000690: 5a79 e39b eddf 6a3f dfd0 1933 6bcf 5abf
000006a0: f7e0 5306 3af1 403f 4417 6630 fc1c 71bf
000006b0: 8435 e7e4 7e45 513f 876c 49f8 42a9 61bf
000006c0: 708e 5084 491c 7a3f 12ce e311 faa4 f6be
000006d0: b9be 6635 e427 55bf 9863 d0aa 0609 59bf
000006e0: 0668 b6a2 76a9 6f3f 7f08 c3d2 3874 73bf
000006f0: 50d1 cfb6 344f 533f 8149 4aa1 545f 633f
00000700: 766b f001 7d97 683f c9a2 29c4 2c83 58bf
00000710: a7e2 2727 7ef8 4bbf e1bc ca1b 6c8b 493f
00000720: 3d96 e107 7edf 5c3f a52d e31a 6144 583f
00000730: a628 ceec 7759 67bf e316 3225 4196 71bf
00000740: eff2 f42d d51e 53bf f000 7f0b 59fc 533f
00000750: fa0d 82d8 f75e 70bf 2a6c b9ac 705c 7e3f
00000760: dcbc b15b 9aa8 72bf 6756 45a7 6fe1 72bf
00000770: 13a2 e850 b8de 5b3f 08c4 f8a7 88dd 613f
00000780: 5887 1906 5eba 64bf 8bc0 5a85 9dca 58bf
00000790: 4494 a707 7d43 3ebf f128 666e 075e 3dbf
000007a0: 60cc f84c f18c 78bf e6d3 b147 e6bd 693f
000007b0: 2917 644e 26be 633f 5a70 e69b 8061 74bf
000007c0: 1707 23b3 cf4d 7abf 26c8 1f37 974c 193f
000007d0: e400 4564 1150 08bf ff94 f7b7 0944 88bf
000007e0: 0f03 e362 38d0 65bf b004 016a 8c4e 263f
000007f0: 6a29 508a 4026 563f f00a 231a ab18 7b3f

linear2.bias f8 [64]
0.002785365045518285 -0.0087376975339363 0.011143716757664584 0.007787612742583171 0.010862372567690208 -0.00734219676196842 -0.014884909427795797 0.0010586583005668959
-0.00570358087501323 -0.01197366279995023 0.004314090174110668 0.017105544054475168 0.007072410032589924 0.007123296094108349 -0.010564230728963677 -0.02051272221855256
0.010855129255574665 -0.008574862616183683 0.003051861280658685 -0.018888240265388316 0.012317361225359535 -0.012507796298182732 0.004442582771759047 0.010173488850766462
0.003478315426599037 0.004279786736644745 0.008994930751532383 -0.006221483711259339 -0.0035603770747844542 -0.008046690206943116 0.01158381613385078 -0.0002198964132732663
0.0033893287146992707 -3.4575371118179e-05 -0.002009568539463199 -0.004208426622004722 -0.003778105582695 -0.02003877071826144 0.0007626369439316229 0.0070989895758237715
0.0020773530731419314 -0.011623696751461278 -0.005460856203094321 0.005097388368169727 -0.0006494786407598889 -0.015041634401686226 0.0033378504577765956 -0.0005628790446589668
-0.0005681457311583212 -0.010435000508960379 -0.01307448178743514 -0.004719398119190053 -0.009742490363582513 -0.00030312044841517797 -0.01932458448320801 0.00614840281055622
0.0015333986201448663 0.013479698762088136 -0.009235297706054992 0.003965237001690935 -0.01832446175709953 -0.00802863522562979 0.011323723338435203 0.005862918342506402
00000000: e8bd e478 55d1 663f d06b 34e9 11e5 81bf
00000010: 498e 3d58 84d2 863f 4c63 b160 e7e5 7f3f
00000020: 8f48 7bf7 023f 863f d741 93ef d912 7ebf
00000030: 5e08 92b9 fa7b 8ebf 0527 d4b1 5558 513f
00000040: 129b 4055 a35c 77bf eae9 1cd1 a585 88bf
00000050: 8657 5bc3 a6ab 713f fe51 2da1 1d84 913f
00000060: 57b7 b39c f5f7 7c3f 1204 393c 512d 7d3f
00000070: 6108 e80b b3a2 85bf f38c 527c 4901 95bf
00000080: 5120 2cc9 363b 863f 049b 0894 b28f 81bf
00000090: cc31 8e8c 3700 693f ce15 e058 7057 93bf
000000a0: 8066 163d d839 893f e9a4 5d00 b09d 89bf
000000b0: a180 6ebb 6232 723f debc 338f d6d5 843f
000000c0: f1c8 1360 8e7e 6c3f 777a 1581 ae87 713f
000000d0: 54cc 422b ef6b 823f 2bc7 28d1 b27b 79bf
000000e0: 73c3 1fe3 a62a 6dbf 6b29 3d7a c87a 80bf
000000f0: 5b81 a97b 41b9 873f e7b2 99ce 7fd2 2cbf
00000100: 8457 85ff efc3 6b3f 8703 a2b4 a020 02bf
00000110: df7b fee4 5e76 60bf 8b94 58eb da3c 71bf
00000120: 2f6f 64fd 42f3 6ebf 4243 8c23 0b85 94bf
00000130: 72eb cf5d 76fd 483f f942 0181 d413 7d3f
00000140: ea4d 5d70 8604 613f 54ca 3f2b 2ace 87bf
00000150: 72a3 ce6c 1f5e 76bf e27b 61c5 ffe0 743f
00000160: a8fa c0c2 3848 45bf a946 abfe 25ce 8ebf
00000170: 3b4a c3d1 fa57 6b3f 4526 518b c571 42bf
00000180: 0706 d7aa f39d 42bf 739a 5b0f f25e 85bf
00000190: 9e71 833d cbc6 8abf 5875 42c9 a554 73bf
000001a0: 6d09 f2eb def3 83bf 922f a669 84dd 33bf
000001b0: 51e8 74e9 d2c9 93bf b450 e74f 112f 793f
000001c0: 695b 373b 8a1f 593f 55ab be8a 3e9b 8b3f
000001d0: 6e3e eeac f4e9 82bf fff2 e333 da3d 703f
000001e0: 96ab dacf a5c3 92bf fb03 ce2d 5171 80bf
000001f0: af9f 426b e430 873f 7a97 a428 b703 783f

linear3.weight f8 [32, 64]
0.001281916241344401 -0.005170623334860843 0.003366609120124444 0.002750547921858432 -0.003960749744939881 -0.0023875256791276857 0.006920532529668063 -0.004559145187335347
-0.015368996420925882 -0.005540967038451067 -0.010036842369994333 0.006097092718814788 -0.005767955617411799 0.0006342550680149552 0.0036664060666093015 -0.0091214544101155
-0.01155670579971014 -0.0009820894312580308 -0.00519321763057365 -0.004902417645214964 -0.012065660166634275 0.01237178380944193 0.0010280482511810364 -0.020136950571494637
-0.0020624615487391976 -0.003046595188531189 0.0013525530800395445 -0.015714977039960516 -0.0002518990774498131 0.00023740981819904094 0.010755987082326984 0.0011823348520630563
0.0045506749148916895 0.0006843553777435299 0.004441007897240241 -1.5014445276286706e-05 -0.026901205407072377 -0.0011504322813961146 -0.0180581023894766 -0.006174906743081644
-0.009811872467960364 0.01194719763667632 -0.006087244567322594 -0.005105878758649695 -0.0032574949092971143 0.0018392974893507517 -0.013582249505773528 -0.006400066983505831
-0.0009684175411917657 0.0018283562345479361 0.010321765628552583 0.0006680456262426287 0.014957921926359781 0.005502157030368393 -0.005860551724137736 0.0017184459942292652
-0.010534349960489887 -0.005879555545495617 0.012180745744799925 -0.00273463225431502 0.007352699876905607 -0.012023489538085356 -0.009659352322009486 0.004403141739329418
0.002621581033833397 0.0030734263167213286 0.0007651398000321195 0.004385584205321644 -0.0015771518225491925 0.0076799799984960575 0.000678773510407984 0.004557662874783552
0.0037261082934920676 -0.004531482331852835 0.005637579723121965 0.0037194754965832236 -0.0012234788284677977 0.004238928321532552 0.0016852071771081612 0.0002711858993016279
0.007399557059463557 -0.0020182180685386786 -0.010506196640329375 0.004454323898018452 -0.0016857321661840029 -0.007498306416784002 0.0012552676131921809 -0.004538535355241976
0.005410386601910451 0.0027026330417694606 -0.0072823599197562395 -0.001428479447758277 0.005213148534752412 0.007361703958693953 0.001923463377626414 -0.00042211365929351963
-0.00014041129127423925 -0.003404955666161426 0.003250224612287526 -0.005034611486114159 -0.0009398724621669472 3.592210245199826e-05 -0.003352411759171575 -0.0016168628508607939
-0.00011004641356623799 -0.001200728384832766 2.161106851607073e-05 -0.0005619567049456519 -0.005795893484225039 -0.007611279271593366 -0.007173131249655433 -0.00491731268538745
-0.005471260552372936 -0.00022580605164016258 0.0003610086668685695 0.006850981841096431 -0.002312770708375274 -0.0033159561204858124 -0.0005541470526171056 -0.0036380668431538698
-0.006802234377426964 5.050868589404073e-06 -0.010207658225365667 -0.0019670878942284527 0.00567943838372121 4.789028844227759e-05 0.003465179779921592 0.0011723222876675284
0.003860361784020487 -0.007742176771519831 0.003771511304966036 -0.00585130070293726 0.0023299684161345573 0.010791347183690706 -0.023749264367862843 -0.013569356934416337
0.008909530983813242 -0.007835019169007093 0.007129924501699176 -0.0017624588973150384 -0.01442716727516352 -0.00045848483281183734 -0.002869273192765771 0.014158181702443947
-0.010722932091947775 -0.006364197116678538 -0.0016988133827647264 -0.0036036487585393625 -0.026017244428736954 0.0021169279642728675 -0.005129297602064987 0.009788211847732872
0.024736333553409203 0.0007692239017900156 -0.008714256689149269 0.004607595006146556 0.004060462234096067 0.005514846844059554 -0.011397479705896284 0.0016308120756780482
0.01996351891541992 -0.0031983646834845476 -0.0025900919277754343 0.005404660875739271 0.010778814386409034 -0.011150139988709219 0.01585006956967424 -7.374313424117742e-05
-0.006264560216285034 -0.01175735840531751 -0.007581114064881834 -0.014791645421066051 0.014105999282743236 0.007277071658668554 -0.0031715536060335156 -0.000881765043350828
0.0037251392798956654 -0.013431129242225337 -0.0039692587698029426 -0.0005269909195582979 -0.0005349643636772761 -0.015699102768110557 -0.018430143937346787 -0.013514800123173538
0.0003167525103087025 -0.009159953162170586 -0.007965177365546298 -0.0020392651568108956 -0.005199120104534958 -0.009823549669063066 0.00929444585731685 0.01069168389876835
-0.009715848986943023 -0.00451508077988067 -0.016792925347684833 0.00526081824084704 0.0013594940204536188 0.006288022095768189 -0.0003240819826436478 0.0069694266560655985
0.00702178615924816 -0.005522479676223892 -0.004090171038581073 -0.008877471819690607 0.004143957222973884 -0.006334385343140021 -0.011269431599460575 0.011769535512966273
0.00028182485963224675 0.0016113505312243433 0.007109475299075614 0.01569020906355477 -0.007896545573047859 0.005243392774439885 -0.006189165465014303 -0.00813906997689769
0.0037657381852593337 -0.00404494938646408 -0.01651231563152716 -0.018624414786199712 -0.0014394076140113858 0.001283560002637095 0.004784732513153821 -0.014840941316739423
-0.0007054144014577893 -0.005983490684524915 -0.00011005981183490754 -0.0037206592621802453 -0.020224585847804608 -0.0019970927793525415 0.0043423772410734465 0.006457428510374605
-0.004813164116533665 -0.020088955054858353 0.00032411865115250814 0.0077051474868075715 -0.0055127623150489 0.01299227768949664 -0.018979379437942936 0.0011479551069290487
-0.004470649592748462 -0.0178003409509294 -0.0008701212054041708 -0.0029378851844697076 -0.004058781805760021 -0.004407257642095792 0.014344939988368905 -0.01157247492576904
0.0073060039155691025 0.005837318794191511 0.023304041723445613 -0.014452025914478804 0.00022826931230993122 0.00806752848448689 -0.01601042032905429 -0.0033054991294840384
00000000: 535b 4c15 bf00 553f 7c78 f8a1 ca2d 75bf
00000010: 1e1d 3882 4a94 6b3f a7d4 da2b 5188 663f
00000020: 095b f4a9 2539 70bf df11 ba16 018f 63bf
00000030: 7c5a 2c4e b458 7c3f 751b a337 9cac 72bf
00000040: 2572 00c8 c779 8fbf 6d68 7e03 20b2 76bf
00000050: 71b5 df2d 328e 84bf a571 3fdd 43f9 783f
00000060: 5671 ddcb 23a0 77bf 0210 2163 84c8 443f
00000070: 2755 ccc4 0209 6e3f 9134 11e3 44ae 82bf
00000080: 858a accb 0aab 87bf aec8 4b7f 2e17 50bf
00000090: 6131 26be 7b45 75bf a80c 52b7 8e14 74bf
000000a0: 9410 907e e1b5 88bf 817f d6b6 6056 893f
000000b0: 39a7 8567 f2d7 503f 563c 95e0 c79e 94bf
000000c0: a7bf d59c 4be5 60bf 9e53 5d56 2cf5 68bf
000000d0: a303 accf 0429 563f 85ad c641 9617 90bf
000000e0: 339f ae4c 2a82 30bf 89e9 50cf 261e 2f3f
000000f0: d6d0 0926 3c07 863f 5329 7161 125f 533f
00000100: 7a6e f27e baa3 723f 0d16 aefb c96c 463f
00000110: 94f8 e0fa bb30 723f 45eb 4ea5 d17c efbe
00000120: 1511 c955 fd8b 9bbf 204a 9741 43d9 52bf
00000130: 4532 c3bc d27d 92bf 0e36 47e8 db4a 79bf
00000140: 9038 e63a 3f18 84bf 93e8 06b9 c577 883f
00000150: 1c33 6e45 f0ee 78bf b265 92e4 e6e9 74bf
00000160: 8b2f 4643 76af 6abf 23be 1ea4 9222 5e3f
00000170: 629f 77ab 02d1 8bbf 138f 2ee6 f436 7abf
00000180: 4e92 8ad5 acbb 4fbf 6f8a e68e aef4 5d3f
00000190: 812d 7eee 9323 853f 5726 f80e f9e3 453f
000001a0: 712f eb4b 42a2 8e3f 0dd5 0b08 6e89 763f
000001b0: 3af4 dddf 3b01 78bf f60c 1756 af27 5c3f
000001c0: 54f6 8484 0893 85bf 32d6 862c 2915 78bf
000001d0: d91f eb04 38f2 883f edf0 2983 f066 66bf
000001e0: 2f47 2358 dd1d 7e3f 228b cc72 c59f 88bf
000001f0: 21ad 9652 48c8 83bf 7237 525c 0709 723f
00000200: 4b6b bb99 da79 653f b421 8b30 712d 693f
00000210: ea37 8135 7512 493f 7d78 c54b 9ef6 713f
00000220: f84c eadf 0dd7 59bf b5ef d6ee 0a75 7f3f
00000230: e2f2 a803 f73d 463f 8ceb e44f 0eab 723f
00000240: fb81 6128 3786 6e3f 6af0 ae86 9a8f 72bf
00000250: 8c63 a148 6e17 773f cb13 b733 4e78 6e3f
00000260: 0f3d 8f63 a40b 54bf 3e58 2da8 d65c 713f
00000270: 9a49 9c6d 459c 5b3f 1c2f 9291 bec5 313f
00000280: cc5a 3479 ff4e 7e3f 64de 3793 8288 60bf
00000290: 44f2 cdd7 4584 85bf 6507 7c77 b23e 723f
000002a0: f042 8221 799e 5bbf 3b1a 5e4d 8bb6 7ebf
000002b0: 3b3a 2b56 f990 543f 9693 c2ce ff96 72bf
000002c0: 3b06 3998 3329 763f 4430 e110 d523 663f
000002d0: 09c0 169b 1bd4 7dbf 5a5a b620 7a67 57bf
000002e0: 038a 74e7 615a 753f fe41 ed5b 4e27 7e3f
000002f0: 744c 5313 9783 5f3f aae4 a25c e4a9 3bbf
00000300: c5a8 dace 6b67 22bf 5033 60a7 b5e4 6bbf
00000310: 0901 430d 37a0 6a3f f212 e53a 2c9f 74bf
00000320: d5b6 63be 38cc 4ebf 9297 b80a 62d5 023f
00000330: 26ab c95b 8476 6bbf 7a97 4244 9d7d 5abf
00000340: 9c97 3efd 16d9 1cbf 1728 3b49 38ac 53bf
00000350: ed0d f451 2da9 f63e b87c b2d5 086a 42bf
00000360: f91a 744f 6fbd 77bf aae0 d538 012d 7fbf
00000370: def3 08c2 9261 7dbf 22e7 af12 2d24 74bf
00000380: a6d1 3e52 0869 76bf 7414 cd36 cb98 2dbf
00000390: f22c f36a b8a8 373f ec7b 3f6f c60f 7c3f
000003a0: 90a0 c751 3bf2 62bf a469 f562 102a 6bbf
000003b0: d8d6 ecbb 8528 42bf 7391 9543 94cd 6dbf
000003c0: da6a 0de3 a8dc 7bbf d48c a42f 542f d53e
000003d0: 1939 f9b1 c0e7 84bf 8cf8 9145 481d 60bf
000003e0: 8938 e2a1 5243 773f 49a7 ffc7 b91b 093f
000003f0: 5175 8b3a 0263 6c3f 6fa6 b278 1335 533f
00000400: f07b 9ef3 c39f 6f3f 3855 89c0 42b6 7fbf
00000410: 4e29 c3b6 6ee5 6e3f f7e4 8792 88f7 77bf
00000420: 3c81 bc44 4c16 633f 8faf de19 c619 863f
00000430: a05d 0e27 ba51 98bf 56ab 1642 40ca 8bbf
00000440: 9add 9501 293f 823f 855e c178 ce0b 80bf
00000450: 2e88 ec88 4434 7d3f 4acf c4d4 49e0 5cbf
00000460: 1f4b f79c fd8b 8dbf a3e6 d55c 190c 3ebf
00000470: 29c8 d650 4d81 67bf 2b05 10fb f6fe 8c3f
00000480: 9197 3795 e7f5 85bf d9f1 b327 5811 7abf
00000490: ef5c f1fa 56d5 5bbf 0ce8 0d32 6685 6dbf
000004a0: b758 d0b7 43a4 9abf f03a fc0b 8557 613f
000004b0: 41b4 3c57 7502 75bf 9ebc 2d8e d70b 843f
000004c0: 7f13 8a3e 7b54 993f f2cf 30c0 b734 493f
000004d0: c027 e9bb c7d8 81bf ca73 d5dd 69df 723f
000004e0: 058b 0808 b4a1 703f f727 676d bc96 763f
000004f0: a6ca bfd4 8f57 87bf da3b fb21 1fb8 5a3f
00000500: 4052 6b13 5171 943f ed7f ebf6 7433 6abf
00000510: 8d21 f303 d137 65bf 48fb 509b 3223 763f
00000520: bcf7 3bfa 3313 863f da53 c774 e2d5 86bf
00000530: 56a9 c329 003b 903f be6c 4466 d154 13bf
00000540: 5055 0b14 dea8 79bf a79c b4ee 3d14 88bf
00000550: 0e57 9dcf 5f0d 7fbf c936 b30a 154b 8ebf
00000560: 7635 c62c 9be3 8c3f 19d8 8d0c 90ce 7d3f
00000570: 305c 7ee0 3afb 69bf f2b8 1003 c8e4 4cbf
00000580: a292 2aec 2e84 6e3f 80e9 bfa6 c781 8bbf
00000590: 9bcd b0c9 1142 70bf 15b3 e461 b844 41bf
000005a0: cd8b 2739 9b87 41bf 75c0 dcf3 6c13 90bf
000005b0: e6ca e205 5adf 92bf 8afb 53c4 a5ad 8bbf
000005c0: 112f 36ac 39c2 343f 5385 1d1a 74c2 82bf
000005d0: 1cbb 5502 0c50 80bf 5f06 0125 a6b4 60bf
000005e0: 173e 122d ac4b 75bf fe5b 7984 5e1e 84bf
000005f0: b5d5 ee67 f708 833f 239c 7985 85e5 853f
00000600: 4ee0 362d e7e5 83bf 463a 9dc4 677e 72bf
00000610: 7e9d b024 2a32 91bf a3d6 b624 5e8c 753f
00000620: 575d d896 2146 563f 1027 2014 78c1 793f
00000630: c8f6 4484 313d 35bf 086b f438 f98b 7c3f
00000640: 5299 9d5e e0c2 7c3f 0fa3 a259 bd9e 76bf
00000650: 5133 88ed dac0 70bf 5907 1819 5a2e 82bf
00000660: 76a8 fa0b 41f9 703f 888a 399e 15f2 79bf
00000670: f843 5081 6d14 87bf 5d3b f050 a01a 883f
00000680: 7678 298e 3c78 323f d044 6075 7e66 5a3f
00000690: ae84 6b3e d31e 7d3f 9c75 2e1b 1811 903f
000006a0: 3da2 e667 102c 80bf 9ee4 c787 187a 753f
000006b0: c234 3074 cf59 79bf 6a0d f77a 37ab 80bf
000006c0: 9149 3b4b 53d9 6e3f 26ec 42d5 6f91 70bf
000006d0: 6f7c 79be 9ae8 90bf a5cc a751 4712 93bf
000006e0: babf 2d28 5095 57bf 6040 f60e a407 553f
000006f0: 0c2b a0da 2799 733f 882b c76c ed64 8ebf
00000700: a7d8 66e4 711d 47bf 3e31 e50c 2582 78bf
00000710: 040a 742b fdd9 1cbf 134f 38bb c97a 6ebf
00000720: dc75 2afb c0b5 94bf d4a8 9405 355c 60bf
00000730: 7f00 cc03 50c9 713f b006 4bc4 1a73 7a3f
00000740: 0e5e 88e7 f7b6 73bf aebe e2f3 3292 94bf
00000750: 37a4 b801 cf3d 353f 4b95 77c7 6e8f 7f3f
00000760: 57fc a8dd 8c94 76bf 8a2b 37fe b19b 8a3f
00000770: c4f6 ef97 546f 93bf e3ee 0e69 dfce 523f
00000780: 0806 afdc d04f 72bf 5bb2 f7a8 403a 92bf
00000790: 204b 750f 1b83 4cbf 27a6 2c19 3111 68bf
000007a0: fb9e e0f1 f09f 70bf 616c 0137 580d 72bf
000007b0: 2aaf e740 e160 8d3f ee3b b84a 4fb3 87bf
000007c0: 65ec 1b7e e6ec 7d3f affb 1355 dfe8 773f
000007d0: 0a6c 44c4 03dd 973f bf1d 4f15 0699 8dbf
000007e0: 0564 4c76 72eb 2d3f 03dc 0058 b585 803f
000007f0: 7b81 d51e 0965 90bf a113 0f55 2214 6bbf

linear3.bias f8 [32]
0.0010574422788739025 0.3118001409527076 -0.0011142015786441237 0.003385919386214185 -0.00346531771974799 -0.001803260630419491 -0.0022000106320633744 -0.002349798025423552
-0.001657341281617632 0.40969941321337744 0.0031981261022010748 -0.0034722136567973804 -0.00042354879470747256 -0.002356828630024521 0.0010279934988362608 0.0010912496007530771
-0.0006302645223795699 0.0011926263646213947 -0.0013931135197025846 -4.664106647818461e-05 3.3614139176274974e-06 -0.0011856509510084427 -0.0012900586734189829 0.004163284202835239
-0.003325256449935661 -0.0017655170814185168 0.0034475620086878507 -0.0035291409443317916 -0.0014679853450102864 -0.00018094342558991724 -0.24129508989800172 -0.004617643259196051
00000000: 43b9 5400 3c53 513f a8ec 1194 88f4 d33f
00000010: 2df5 d9d5 4c41 52bf 7c59 fba0 c9bc 6b3f
00000020: d9a2 d948 4c63 6cbf 6ca4 c35b 6c8b 5dbf
00000030: 7ce7 e5b6 c105 62bf df1a 7c35 e23f 63bf
00000040: a23b 95a6 6427 5bbf 3647 3ce3 8338 da3f
00000050: 3cd9 8ee0 f432 6a3f dcae 3883 c271 6cbf
00000060: bd1c b638 f8c1 3bbf 1965 6cbc a04e 63bf
00000070: 1be9 4f9d b7d7 503f 0b5f 3556 08e1 513f
00000080: cc2b 77c1 0aa7 44bf 9294 dfce 3c8a 533f
00000090: 7165 6e40 24d3 56bf 49a8 65d7 0e74 08bf
000000a0: eceb 16d8 9432 cc3e 6384 c703 fb6c 53bf
000000b0: 3bff fbf3 e522 55bf 410e ec17 850d 713f
000000c0: 2a53 8176 913d 6bbf b6a2 0388 1ded 5cbf
000000d0: 91fe 80c2 0f3e 6c3f 3c4d 0b1e 25e9 6cbf
000000e0: b396 0f43 2d0d 58bf 8ebc cf30 74b7 27bf
000000f0: d70d e6eb c1e2 cebf 3885 862c f3e9 72bf
