checkpoints/MLP.NINO.0324151659.pth (torch_old, 351421 bytes, 8 tensors)

linear1.weight f8 [128, 256]
0	0xbf5706301bfba893	-0.001405283910509901
1	0xbf39a7154ce0cdb4	-0.00039142866160376687
2	0xbf12390aa541b1ab	-6.95145366209129e-05
3	0xbf3190ba91a63b6f	-0.0002680259218771829
4	0x3f61d6dcbd721219	0.0021776496246863728
5	0x3f2f0456e2a63cda	0.00023664055454417668
6	0xbf3ff4ac2f7c1fbe	-0.00048760608432063177
7	0xbf3489af33927398	-0.0003133824098513981
8	0x3f50467fea7f14fa	0.0009933709315970694
9	0x3f46699adeba75d3	0.0006839758111316048
10	0x3efd623b6c962813	2.8022498360459678e-05
11	0x3f231fe436509f23	0.00014590893548071482
12	0x3f50281852650fe5	0.000986121894656294
13	0x3f606e528894b88f	0.0020057308180617193
14	0x3f5e67e8c3cc95f4	0.0018558285802979775
15	0x3f5046958ddcf2f5	0.0009933910836956137
16	0x3f067c6aa8b62101	4.2888646102192195e-05
17	0xbf3c7324d6beb5ac	-0.00043410920511174444
18	0xbf410bf91bea8d64	-0.0005202261307499065
19	0xbf3b385e748aec6e	-0.00041534715687036635
20	0x3f50a6aee4256a2c	0.0010163028642497058
21	0xbf4a91b0f6393046	-0.0008108247824991719
22	0xbf5814b899a13f5d	-0.001469784043837983
23	0xbf5847c08e4e753f	-0.0014819508007584828
24	0xbf50edb1ff22e0f2	-0.001033233475523029
25	0x3f1762e91d30a203	8.921191992839615e-05
26	0x3f2a6aabf4836125	0.00020154332219735855
27	0x3f2c1aa3a5958f4a	0.0002144169582535222
28	0x3f6f3bbc234b4f58	0.0038126635139209934
29	0x3f37b982cbfa5503	0.0003620094612214049
30	0xbf53a0b8f4d34547	-0.0011979871954291442
31	0xbf52d0fa6a949da5	-0.00114845709533449
32	0xbf427b38a2518f8c	-0.0005640055211526425
33	0xbf4954e9dd26660f	-0.0007730619347967054
34	0xbf31bd4cb6a3628f	-0.00027068255316246235
35	0xbf2d031d59a60f60	-0.00022134526518524222
36	0x3f70b627b87a9f5a	0.00407996669643026
37	0x3f4e48e96c89e737	0.0009242191091083156
38	0xbf35218c6ffa1e98	-0.0003224342217227143
39	0xbf18be7f7b5ae38e	-9.439137542245469e-05
40	0x3f5c09c7cd36fc28	0.0017113162219713016
41	0x3f50cdb486f7de7d	0.001025606437790843
42	0x3f43bf308aea5290	0.0006026255631064893
43	0x3f4287e48525c7e5	0.0005655160733069013
44	0x3f4abe5cbcd07edb	0.0008161499805545385
45	0x3f5c1b22e90de143	0.0017154541894495868
46	0x3f59e75be1a7fcd5	0.0015810391693092303
47	0x3f4e629163d61914	0.0009272775566138446
48	0x3f54068c2a556b22	0.0012222641756440352
49	0x3f342e22011d58c6	0.0003079255121653076
50	0x3f37c034353aca52	0.00036240839583992935
51	0x3f31846924c8dc31	0.000267291707845843
52	0x3f522f7ffdef9b77	0.001109957687498412
53	0xbf4c1df08986b61f	-0.0008580612657646569
54	0xbf5a0ef4d7f03fee	-0.0015904799508952255
55	0xbf5914616a5a4c8f	-0.0015307380030307493
56	0xbf5efd5c4ba2388a	-0.0018914605448432675
57	0xbf34d421644e3dc2	-0.0003178197405810623
58	0x3f2192d45e5e6b25	0.00013407556906205282
59	0x3f2eab2c8741de8c	0.00023398321684785608
60	0x3f6932d8e6eefaef	0.0030760036820248675
61	0x3eff6fc79646a414	2.9980315405051734e-05
62	0xbf547deaaba8ac6a	-0.0012507240013615258
63	0xbf50fe4e1ef15332	-0.0010371935748214153
64	0xbf4525c9fe40074e	-0.0006453739447353864
65	0xbf4da4da54bbbe5f	-0.0009046617574010699
66	0xbf45f5acd82e77d4	-0.0006701559035382451
67	0xbf46c6d0a887ed7e	-0.0006950873221848589
68	0x3f7378d8dd0fd7a2	0.004753920672547015
69	0x3f567e0c3bb90e76	0.0013728255716082527
70	0x3ef7ab0117617ca9	2.257154979934105e-05
71	0xbf1410949916a715	-7.65410134337087e-05
72	0x3f59c609d6b5b657	0.0015730949479250322
73	0x3f55a4b1119e2888	0.001321003836411568
74	0x3f4bc56aa592fae1	0.0008475085006905658
75	0x3f40224e4c13ea82	0.0004923708258098433
76	0xbf39b65044e8364a	-0.0003923364610337361
77	0x3f533cb4f809f09f	0.0011741416239195235
78	0x3f593247de61573d	0.0015378667681224666
79	0x3f52fa86bc1542af	0.0011583629387425345
80	0x3f6d28ccf47d0bfb	0.0035594943073262698
81	0x3f551e4db47c5a36	0.0012889632070646312
82	0x3f3e8c4c3a752379	0.00046612607043932487
83	0x3ef52355366bde4d	2.0158785811268035e-05
84	0x3f45a2e16d53365a	0.0006602860181829748
85	0xbf41a2ded6062afd	-0.000538214499145567
86	0xbf5527bec4d4bc44	-0.0012912142731911361
87	0xbf58f203bbf8c523	-0.0015225445239475742
88	0xbf604b47b5dec564	-0.001989021357950692
89	0xbf453af2bd8cde54	-0.0006478963142404017
90	0xbef4f20f3bafc56a	-1.9975228251871957e-05
91	0x3f278cd12f2a4307	0.00017967275160348675
92	0x3f55839d6d725469	0.0013131177309209324
93	0xbf4314b2a90ec195	-0.0005823013653892146
94	0xbf5ac3d3d0ddb48c	-0.0016336029543382617
95	0xbf56472e20c43830	-0.0013597441166584116
96	0x3f5020fcb3b42a0f	0.0009844272415785481
97	0xbf33c93c5a828fd1	-0.00030191157794434454
98	0xbf40f073d7819ddd	-0.0005169454225439314
99	0xbf4c55dcf796763e	-0.0008647278729545028
100	0x3f717e726952a865	0.004270979804610863
101	0x3f60751ae58cef4a	0.002008965046483545
102	0x3f445080de7d3a2b	0.0006199483150142784
103	0x3f2e4ade3477ba95	0.00023111307585517842
104	0x3f5802ae43eba945	0.0014654828843797135
105	0x3f536bd842275422	0.001185380163055479
106	0x3f504862ebbcc89f	0.0009938207649154219
107	0x3f4372764fa1f917	0.0005934789362667417
108	0xbf5adb0a04f8b512	-0.001639137062635247
109	0x3f436cdead1e9397	0.0005928122793546928
110	0x3f4f88122a4722dd	0.0009622658440600857
111	0x3f45803590a5ab2a	0.0006561528728473477
112	0x3f6dbb5cb97a55cd	0.0036293803239668466
113	0x3f5919fea1b666d8	0.0015320765149681639
114	0x3f362a9e1e9013e7	0.00033823356949397174
115	0xbf20ff19a4562f8d	-0.00012967288982357016
116	0x3f406fdbe330a2d9	0.0005016158742182322
117	0xbf35b3990ff3229b	-0.00033113943932198416
118	0xbf4fc6b16dcbc7e7	-0.0009697309829717033
119	0xbf582a99d4349a99	-0.0014750005946752352
120	0xbf57bdf6a8ef8602	-0.0014490994251378235
121	0xbf505b0d7b07c2c1	-0.0009982711454733925
122	0xbf424f2b34f252ba	-0.0005587540598691245
123	0xbf1187be47341e69	-6.687258592218973e-05
124	0x3f4afaf57cfbb3f3	0.0008233736679962286
125	0xbf49a97669bcfc7d	-0.0007831409634277
126	0xbf5d3af31d1a64ee	-0.0017840742260999925
127	0xbf55432c9fd2b6c8	-0.001297753885676144
128	0x3f4a27112c9a2d50	0.0007981141909153919
129	0x3f3c9d86bbb9e2db	0.00043663539302189546
130	0x3f20dbf694cc0bc6	0.00012862572693714112
131	0xbf3844f64efe7948	-0.00037032140152772454
132	0x3f65bbcce3a2ce54	0.00265302674696403
133	0x3f573ff8c822c04c	0.0014190606603215082
134	0x3f3dad63fc6fb5e8	0.00045283976618190483
135	0x3f40b651bab3028f	0.0005100153988664857
136	0xbf47b8c686efc82f	-0.0007239312525355641
137	0x3f4a66e2b43f070a	0.0008057219461010412
138	0x3f540fb82fbf71ea	0.0012244509407458534
139	0x3f4efd7e59339d93	0.0009457461295853557
140	0xbf63e64edea9d32a	-0.002429155390297662
141	0xbf33d8f6a510323f	-0.00030284902192148974
142	0x3f4635efe850c0d0	0.0006778165267231854
143	0x3f4d4650d7cfbbcf	0.0008933920613552973
144	0x3f6f80d821c22c79	0.0038456174207275842
145	0x3f5bf0d2382d209f	0.0017053654598431567
146	0x3f4674b1ac4e2972	0.0006852977318072952
147	0x3ee296e53eb59f45	8.864133596644635e-06
148	0xbf43ceacfed42c3c	-0.0006044716552947647
149	0xbf436b177d0f29f6	-0.0005926003160479632
150	0xbf4a3b73aa846b8c	-0.0008005442405506365
151	0xbf54c0fe90467f45	-0.0012667165729922253
152	0xbf601f9ded2cef05	-0.0019682011128717724
153	0xbf557ad4f291b580	-0.0013110236707477296
154	0xbf490d51f6292934	-0.0007645273402172915
155	0xbf1170cf45ecc185	-6.653084845421014e-05
156	0x3f616e7cb358bd49	0.0021278796728193866
157	0xbf3c2713c4f0810b	-0.0004295752777938733
158	0xbf5990379c39ca7c	-0.0015602629727281816
159	0xbf56102d56cae16b	-0.001346630360030766
160	0xbf4499696dbc936b	-0.0006286396778461938
161	0x3f18c2c8198ccbb6	9.445520698818277e-05
162	0x3f35efbbfdb29b35	0.00033472385048087815
163	0xbf1d51bdc95c3b23	-0.00011184426179176566
164	0x3f5e16fd020bc25f	0.0018365355282946789
165	0x3f60d14576e084a9	0.0020529133535239397
166	0x3f552398f3b6ba4b	0.0012902253791754633
167	0x3f4f8ed090180768	0.0009630697606441809
168	0xbf40d1b9222925a0	-0.0005132822009922718
169	0x3f4ffe59731e62b3	0.0009763657346751525
170	0x3f53e09a75111569	0.0012132175800315342
171	0x3f4a2c9d571358bb	0.0007987755072018857
172	0xbf68096f631c9f7c	-0.0029341865091687108
173	0xbf5f3c1fe2145bcf	-0.0019064246519684307
174	0xbf4b1bb75c4cebba	-0.0008272786441020287
175	0x3f3e62a18b15160e	0.00046364253929129316
176	0x3f651e07f4894eea	0.0025777964949983316
177	0x3f58b48a5b4affc7	0.0015078879488754514
178	0x3f4532f5043d45eb	0.0006469436998292588
179	0xbf239e68df6d434b	-0.00014967947182722494
180	0xbf67022bfcd2a03a	-0.0028086527950854897
181	0xbf4b9e10c170fc21	-0.0008428174795723811
182	0xbf442cd592d6883d	-0.0006156962241912267
183	0xbf521395bbabc09e	-0.0011033022153093329
184	0xbf683bb473b513e4	-0.0029581570103425093
185	0xbf61329afd9d0163	-0.0020993258630427765
186	0xbf5738727e57e5c6	-0.0014172666645876227
187	0xbf4420249658dfc1	-0.0006141832970518666
188	0x3f5a048fb44cc7c2	0.0015880015718718753
189	0x3f35625fbb9b9439	0.00032629811503987225
190	0xbf4e3f93cc0eb847	-0.0009231063523793625
191	0xbf564fff07c43fd6	-0.0013618460207602732
192	0xbf48eac358b766fc	-0.0007604078140801269
193	0x3f04689180b059cc	3.8926067723977007e-05
194	0x3f36f0e7d88074b5	0.00035005245490700036
195	0x3f2cb921fc2259b8	0.00021914043287969503
196	0x3f59a58d629c2c6c	0.001565349647026061
197	0x3f622c24c836d437	0.0022183149719361655
198	0x3f5a87ff14fc590f	0.0016193381342808932
199	0x3f4f90b8cd9503e7	0.0009632971151988218
200	0xbf1f0ce053fb9e35	-0.00011844748678024252
201	0x3f50c761c19a2df1	0.0010240988398518803
202	0x3f56967fc859cbd0	0.001378655231204052
203	0x3f4b908303675a7e	0.0008412017548902887
204	0xbf61f23a68b8ce21	-0.002190698700155883
205	0xbf61f4691d6cc3b8	-0.0021917393709362763
206	0xbf4c0fbb5ba57445	-0.0008563675722076466
207	0x3f42f5275ab3cf22	0.0005785410079668133
208	0x3f5d89268b64cbcc	0.001802718773956202
209	0x3f58ad27095abd23	0.0015061265197962657
210	0x3f5059f660ed55b3	0.0009980112115120898
211	0x3f2aee06d8bd5333	0.000205458007594439
212	0xbf60082d904bc7d5	-0.001957024566189051
213	0xbf51997ad09782e9	-0.00107419007905934
214	0xbf44517e862ebe13	-0.0006200664323525194
215	0xbf481aecd1141db5	-0.0007356315929038434
216	0xbf58c8824c220e83	-0.0015126488147253765
217	0xbf5bfab000a13fe8	-0.001707717778590018
218	0xbf558e6d570a9822	-0.0013156955502977648
219	0xbf406e34628e15c5	-0.0005014186655080624
220	0x3f2901fda59a4aec	0.00019079419398745163
221	0x3f41831c08e1befa	0.000534428299728134
222	0xbf3db80d333d63c8	-0.00045347521085186944
223	0xbf53fa508708ae8c	-0.001219347610581875
224	0x3f4ed707e8c72ed6	0.0009411610240532507
225	0x3ef42b4cb6c61a22	1.923479014600595e-05
226	0xbf1ef7d4d4fc7eb5	-0.00011813389323522379
227	0xbf26303e0afda6ed	-0.00016928441391011271
228	0x3f13c519f8ef0c15	7.54162885945739e-05
229	0x3f54badc7d86e987	0.0012652543283438748
230	0x3f53ffa1055560ea	0.001220614668758608
231	0x3f5185e3815fa39c	0.001069519208153325
232	0xbeda1c2e995cb552	-6.2251296151620995e-06
233	0x3f42a167386788c6	0.0005685571675793303
234	0x3f46e4d05624c81d	0.0006986634510097765
235	0x3f21e4fcbd41aa3d	0.0001365240592606387
236	0xbf36bbe3651427d4	-0.00034689237243467935
237	0xbf5042a5dd45a3e3	-0.0009924525994284776
238	0xbf31c0a13df91696	-0.00027088104795711923
239	0x3f453cc352c3866b	0.0006481126524954922
240	0x3f405ad5d85c6627	0.0004991096654720126
241	0x3f53a119c10294de	0.0011980773452163122
242	0x3f5217359a18e0cb	0.0011041663605180659
243	0x3f3cc25369b6dd95	0.0004388288159264617
244	0xbf57caa8a5a2ee25	-0.0014521262115029323
245	0xbf58b3a8cad6d3b9	-0.00150767787577631
246	0xbf546827983be5c8	-0.001245535532630947
247	0xbf51323852df592a	-0.001049571040757489
248	0xbf3feceb5ee3be82	-0.00048714395860736265
249	0xbf5575e8a1620b03	-0.0013098499089500566
250	0xbf57cfde9b8d6512	-0.0014533685591316442
251	0xbf414663ecff07bb	-0.0005271900099545959
252	0x3f443d47571b5348	0.0006176565495602327
253	0x3f46793bc90097a5	0.0006858388824226748
254	0xbf28a17e63a1e550	-0.0001879183562925415
255	0xbf4e02e5dda2813a	-0.0009158728019152192

linear1.bias f8 [128]
0	0x3f3047673db39e3d	0.00024839659245265764
1	0xbf2b7395d37d338e	-0.00020943836147538055
2	0xbf31b216109e2634	-0.0002700141782204541
3	0xbf3197fadf64fa1d	-0.00026845812626055833
4	0x3f4c44e0646ad6b3	0.0008627029099758848
5	0xbf4dbc69c546b3b3	-0.0009074703653389943
6	0xbf57253f561678ac	-0.0014126890676844734
7	0xbf437074f8174523	-0.000593239892788731
8	0x3f05edfc54899871	4.182745266660758e-05
9	0x3f4e2f72124fe171	0.0009211832990550351
10	0xbf44ce78f55c6ac6	-0.0006349650018110046
11	0xbf6cda5ed24f716f	-0.0035220958693413166
12	0xbf444212c0069480	-0.0006182281068062428
13	0x3f356ffbdda881b8	0.0003271093279711107
14	0xbf5561e31b78bc98	-0.0013050763935884887
15	0xbf519bbbf5e8fd2b	-0.001074727587947975
16	0x3f51074c3869044e	0.0010393375720385736
17	0xbf34343065284909	-0.0003082864906513027
18	0x3f4c62ce7b89eb06	0.0008662708488168254
19	0xbf34b43336f7792c	-0.00031591654166431243
20	0x3f4eadf5920a0868	0.0009362649035014161
21	0x3f603182c1665784	0.0019767335717899032
22	0xbf56da1d29e71d99	-0.001394775848540286
23	0xbf3309a8376b1faf	-0.000290492599941401
24	0xbf4d8da7a2ed5f8a	-0.000901896337249562
25	0x3f563d0066af2cb8	0.0013573173443884156
26	0xbf5a1505322b69c3	-0.001591925691789884
27	0x3f638e3fe0d0e378	0.0023871657963607205
28	0x3f444c58919315e4	0.0006194527114977114
29	0xbf27b4f07eaf5de5	-0.0001808684895354538
30	0x3f2a9443df68217d	0.00020278290294607404
31	0x3f4355f623c8658b	0.0005900813917520271
32	0xbf26ab4ee3365772	-0.0001729520605350771
33	0x3f2116a92ae7449a	0.00013037505182337123
34	0x3f36f23e1b3256e1	0.0003501321436457494
35	0x3f4a0399fa7f3487	0.0007938863609468085
36	0x3f3252fd73d06682	0.0002796047954817042
37	0xbf2bc6ac4e99a121	-0.00021191457135506193
38	0x3f551256584623b9	0.001286110230554123
39	0xbf433680f13f0a8e	-0.0005863313294798987
40	0x3f3ab291151e312d	0.00040737192204500194
41	0x3f61bad0c6646bb1	0.002164275897610556
42	0xbf67e450923752f6	-0.002916486135044467
43	0x3f53d641b8852092	0.0012107507519250366
44	0xbf62879c8f4c681c	-0.002261930256634249
45	0xbf1e75d71ffc963c	-0.0001161968757484527
46	0x3f5734934250fe29	0.001416343505539328
47	0xbf4fc40bbd5c332c	-0.0009694154093452304
48	0xbf511a2dc98aa96d	-0.0010438391820267415
49	0xbf6565724beb9954	-0.0026118500094184736
50	0x3f281878e0c2cff7	0.0001838347965353868
51	0xbf317194dbeb4392	-0.00026616939787254504
52	0x3f313df6c7e472b1	0.0002630927555331937
53	0x3f58a9b6cb2ca082	0.0015053067297206295
54	0x3f58e74e056b78ae	0.0015199911046504355
55	0x3f4ffe95e35ffd96	0.0009763938785453559
56	0xbf3f25187843e00f	-0.0004752335301101426
57	0x3f567263fe9e7c94	0.0013700462827513126
58	0x3f1968513e36d9ae	9.692188137120389e-05
59	0x3f51a024c3cd5270	0.001075778868842605
60	0xbf4573cb4c10463f	-0.0006546728765234945
61	0xbf31051d41415fa2	-0.0002597042487244521
62	0x3f3b19713da72690	0.0004135037867426328
63	0x3f577d8d2c309315	0.0014337423933820693
64	0xbf4eab91d0cba790	-0.0009359800329466917
65	0x3f3518f7d848898e	0.0003219227876646518
66	0x3f3d22f77840ca78	0.0004445890592733935
67	0x3f29ee96073266c8	0.000197845281580558
68	0x3f5ec9a8223ca0cd	0.0018791334086448064
69	0xbf6338047715b56c	-0.002346047135395926
70	0xbf45612261cbc5bc	-0.0006524484520850564
71	0xbf45dc6acb312cdb	-0.0006671449140268863
72	0xbf4f15a0cee75ab9	-0.0009486231991172246
73	0xbf3717fa6cd0c8b5	-0.00035238136189542506
74	0xbf2138df6f58f4a8	-0.00013139464833670134
75	0xbf571e78f60ef155	-0.0014110738049871359
76	0x3f10312e0580e4fd	6.176799195225023e-05
77	0x3f3b620409a4e60f	0.00041782949996935296
78	0xbf5b67667017de4d	-0.001672601735092888
79	0xbf60b8a4d9545482	-0.002041170092193457
80	0xbf2560ae0cf387ef	-0.0001630985702610328
81	0xbf267e922ece189a	-0.0001716187902298147
82	0xbf57335fc0f8cc85	-0.0014160571189563442
83	0xbf6407cf97812f95	-0.0024451307799945956
84	0xbf081a191d1ec564	-4.5970813189364826e-05
85	0xbf50d5791d6696e8	-0.0010274584543394309
86	0x3f359a823d79c293	0.0003296440095033406
87	0x3f53085cad998c22	0.0011616616306120505
88	0x3f5cf45cf04707b2	0.0017672450641019574
89	0xbf44ea364a41776c	-0.0006382718170347807
90	0xbf5482e64380912e	-0.0012519119900469933
91	0xbf639f89a4a75d2c	-0.00239540942605356
92	0x3f4d4d0d6339537a	0.0008941951150044224
93	0xbf3c712736c51cc5	-0.0004339905488177194
94	0xbf53ee678e85d668	-0.0012165080352962935
95	0xbf604bf66bc3402b	-0.0019893467816487673
96	0x3f33d17912dd8908	0.0003024025526113948
97	0x3f2fe725cc13fe0e	0.00024339996711118843
98	0x3f53df87361b9f3b	0.0012129612372806093
99	0x3f61cd0350c50fa6	0.0021729531055445115
100	0xbf4329b19d6f3570	-0.0005848042736659575
101	0xbf521267bdf558b4	-0.0011030209642135915
102	0x3f627ce2608d65df	0.0022568150929316157
103	0xbf538ba50d5a8948	-0.0011929618680502508
104	0xbf5675e7c3dc806a	-0.0013708842593090028
105	0xbf40bcd03f1e64ba	-0.0005107895687955979
106	0xbf55a617cbf03ed1	-0.0013213379277238655
107	0x3f654ff7ea6a3550	0.0026016084769426087
108	0x3f3500d705f6687d	0.0003204846343237767
109	0xbf723c0f54078803	-0.004451808811127836
110	0xbf631f251a3a5ea3	-0.0023341869981086823
111	0xbf2092d6c7f1b6c9	-0.00012644645537156763
112	0xbf32b643bc470bf6	-0.0002855220193646585
113	0x3f56380d06033cc5	0.0013561370069970363
114	0x3f5a260ce7c4cc0f	0.0015959859875465143
115	0x3f43972b3c0832cb	0.0005978547197301396
116	0xbf6710844528949e	-0.002815492954385392
117	0xbf42683f19f94b77	-0.0005617435562704627
118	0xbf530c64aff3d500	-0.0011626227640680331
119	0x3f4001397beb9f28	0.0004884272273928169
120	0x3f424f39bcd151de	0.0005587608262752027
121	0xbf2518c327e537d9	-0.00016095526002363086
122	0xbf4334eec04c4220	-0.0005861440446058332
123	0x3f64a3e7926738ae	0.002519562043040122
124	0x3f4ae18e5a032447	0.000820345409033093
125	0xbf59c7178da4fba5	-0.0015733461392099881
126	0x3f3bcb75cd959248	0.00042411447574001006
127	0xbf17f25b5ae6bb1d	-9.134943568399026e-05

linear2.weight f8 [64, 128]
0	0x3f4e8084a7a92c0b	0.0009308479050756947
1	0x3f7971d9eb0e6c91	0.006212092631268666
2	0xbf7406b6c69c7049	-0.0048892154389044784
3	0xbf738dd89b098277	-0.004773946872405169
4	0xbf5db7df853b959d	-0.0018138583008576522
5	0x3f63c78ba5380a5a	0.0024144866417839363
6	0xbf71240ca8549931	-0.004184770053404827
7	0x3f6b9ccaf60ee92d	0.003370663078809197
8	0xbf764e4720e4cc98	-0.005445745320957894
9	0x3f6bb80022031c0d	0.0033836367220803133
10	0x3f7767b9f9e6d584	0.005714155644843347
11	0xbf2020f75e5603bc	-0.0001230527842999411
12	0x3f701b89044caccf	0.00393250963387999
13	0xbf5599f5ca2344a3	-0.001318445233256229
14	0xbf459f45d8a5f4e3	-0.0006598559423733021
15	0x3f65384fef0575ad	0.0025903283314352072
16	0x3f50be9f992f230e	0.0010220106675992743
17	0x3f759f45a1b3556c	0.005278846739391479
18	0xbf72d9b8573238f1	-0.004602165298946513
19	0x3f461ddc428f8499	0.0006749463547032374
20	0x3f0e1b6f6df63da2	5.7424867686890814e-05
21	0x3f750751283e4580	0.005133931179345352
22	0x3f77135ed08d205e	0.005633707399120251
23	0xbf52a2cad72fde41	-0.0011374455323202167
24	0x3f81db87de89634b	0.008719502905636075
25	0xbf576d91d8907538	-0.001429932048501682
26	0xbf25e2aa7fca3cd0	-0.00016697245873273934
27	0x3f7585d8b95f7cb4	0.005254599169318631
28	0x3f58067e688951af	0.0014663919884202283
29	0x3f63647f769b65c0	0.002367257072233925
30	0xbf33498b3a8da033	-0.00029430054796941995
31	0x3f51a6b69c4d469d	0.001077345209712289
32	0x3f6123372c2b5b6d	0.002091987379894736
33	0xbf6d3c3b70ee9d61	-0.0035687600097450843
34	0xbf6f18eea1ed6ee7	-0.0037960682670198256
35	0xbf75ddfb9e72603b	-0.0053386525024948185
36	0xbf64b9699c0e73e5	-0.002529817837468406
37	0xbf6ab7e8544a9b8b	-0.0032615220719267083
38	0xbf65997a87d1ae77	-0.002636660878627069
39	0xbf6ae339fcc9fff6	-0.0032821781699681153
40	0x3f7974fc894f9f8a	0.006215082616996779
41	0x3f5e2d3e7bd9fa59	0.0018418417161282423
42	0xbf710b2339be3dc9	-0.004161012267914052
43	0x3f6867b2f6a71818	0.0029791350727661585
44	0xbf762a442ed3ad1b	-0.005411402072449857
45	0x3f3890748f50f3f4	0.0003748211450476651
46	0x3f68fc3d1efba545	0.0030499643106522167
47	0xbf686266edd5c018	-0.002976609261786233
48	0xbf66525b24213afa	-0.0027248172855601745
49	0x3f68160784904e69	0.00294019192052435
50	0x3f80ceb5607b073f	0.008206765181401841
51	0xbf5b53701523e2f2	-0.0016678423458513195
52	0xbf57b2a7321e3ca7	-0.0014464028140286718
53	0x3f2ed7064cf8029a	0.00023529006874413867
54	0x3f71d5e425d07e83	0.004354373170854966
55	0x3f542a2728ecff98	0.001230753175789778
56	0x3f65f488f91fb517	0.002680079961456482
57	0x3f7c2217faedc513	0.006868451759929134
58	0x3f63aae25fb6889d	0.002400819908602149
59	0xbf715f91811a5c20	-0.00424153173084732
60	0x3f63e2892f6d54e1	0.0024273566627167485
61	0xbf04d2052dffb250	-3.9711745330216056e-05
62	0x3f3e709182a1941f	0.0004644732713415273
63	0xbf75c619e1b32786	-0.005315877056270573
64	0x3f7050a4a3532c55	0.003983157269611477
65	0xbf53ee07dd762630	-0.0012164189155065112
66	0xbf80b230f64440e2	-0.008152372851811088
67	0x3f739e32785eaa74	0.004789540433118068
68	0x3f7394ccf2949bc5	0.00478057916305991
69	0xbf6ce1c524d06baa	-0.0035256243195482444
70	0x3f709e3b146044de	0.004057150630630361
71	0xbf5b71b95787e0af	-0.0016750631312998745
72	0xbf74bfc6e1e4434f	-0.005065705189068861
73	0x3f808d9f8753a718	0.008082624738068797
74	0xbf78ea9729f48539	-0.00608309791940203
75	0xbf79330994ac8e01	-0.006152188706241458
76	0xbf295a6e3ddb6d4e	-0.00019342990611091255
77	0xbf75e9b9583bbaeb	-0.005349849703391678
78	0xbf76f497f0b134ca	-0.005604356304570854
79	0xbf53508ba014ce74	-0.0011788714912882832
80	0xbf5a22990d062bf9	-0.0015951628339247999
81	0x3f6cd8d85734c45c	0.0035213685420321505
82	0x3f613daed7d7cf2b	0.0021046080498709117
83	0xbf76755b1f54e3b6	-0.0054830131023714725
84	0x3f56e3697613d376	0.0013969926733896332
85	0xbf63267b6be09b55	-0.002337685639776247
86	0x3f71402b48b748e1	0.004211587026889258
87	0xbf4ac7e74cec26a1	-0.0008172873875491212
88	0x3f5cb4bcdb6520d5	0.0017520756060367866
89	0x3f6453d8df30c4f2	0.0024813876894077486
90	0x3f60584a77910fbc	0.001995225375624769
91	0xbf6c86511ce921e8	-0.0034820160138091423
92	0x3f70b0e082b3ab13	0.004074933046676293
93	0xbf76be0b8faff21c	-0.005552334939235706
94	0xbf71fecf32434ead	-0.004393395767880709
95	0xbf66cc32066d3979	-0.002782914834290992
96	0xbf561d2f5b271f77	-0.0013497316800669937
97	0x3f7699ce0ac84d0d	0.005517773487116584
98	0x3f627d39ef90d17e	0.002256978183618751
99	0x3f75dcccecee8ba4	0.005337524881641995
100	0x3f5060656553f4ca	0.0009995451158027351
101	0xbf6373410aaeaefc	-0.00237429336035244
102	0x3f6bb5b99bfb9f8e	0.0033825516874123667
103	0xbf6b9292fc7dfc3d	-0.0033657904459114805
104	0x3f6a66b4a27afae8	0.0032228019734640186
105	0x3f70523a6e3e739e	0.0039846689650432626
106	0xbf19e7cccd51ffeb	-9.882152092366397e-05
107	0x3f5dab83ede993e2	0.0018109119770539574
108	0xbf7116ea336b714e	-0.004172243926145859
109	0xbf76efe651531f8b	-0.005599879911819881
110	0xbf406cf65f0a2a9a	-0.0005012705788243921
111	0x3f619b023139e0db	0.0021491091554787073
112	0xbf686f3726c01393	-0.0029827191519892853
113	0x3f6b968bd0929628	0.003367684436471636
114	0xbf7cf4e730dcf3a5	-0.007069495286313653
115	0xbf634cc1b5a2948d	-0.0023559363736063766
116	0xbf687568961df98d	-0.002985672254850863
117	0x3f6e2e8a895fad32	0.0036843019288334217
118	0x3f600a3ceaa9d68c	0.001958006837692155
119	0xbf5a4e9ae18daca2	-0.0016056549559049578
120	0xbf630caaa4b1b20f	-0.0023253758313812665
121	0xbf7c1e295566b189	-0.006864701709144668
122	0x3f759b43380cc8a0	0.005275023054126887
123	0x3f713bada436876f	0.004207304274503317
124	0x3f73ebc7212e467e	0.004863527154968515
125	0xbf69a3b04df142dd	-0.0031298106619391656
126	0xbf5620479a36d579	-0.0013504695169620203
127	0x3f5090d450858928	0.0010110925087124054
128	0xbf45209f42e9276a	-0.0006447579997452661
129	0x3f74f01a735df242	0.005111792872295741
130	0x3f58202e5f42e280	0.0014725163319281587
131	0xbf73d35a4ddf37d7	-0.004840233565074534
132	0xbf41c1e495a98c89	-0.0005419126640159459
133	0x3f65651616fdb890	0.0026116782609540493
134	0x3f77e7e1cc20032c	0.005836374302817398
135	0xbf7c0196323110e5	-0.006837450698246016
136	0xbf52190b214f696b	-0.0011046036427076699
137	0xbf502d709d8ba237	-0.0009873962173349135
138	0x3f7648159b670269	0.005439838793279785
139	0x3f60221a41ce656c	0.0019693863709561634
140	0xbf6c443552bcda4f	-0.0034504929989467646
141	0x3f4b2be9d5a797b9	0.0008292094965411868
142	0xbf73c533f3e35bfd	-0.004826739254176535
143	0x3f60bea6eda9565d	0.002044034988368178
144	0x3f58237bf2d1cd4f	0.0014733038363175693
145	0xbf780f3304af94b0	-0.00587387017273959
146	0x3f7520ac9e9d7030	0.005158113761208269
147	0x3f56006ce4c654a0	0.0013428748526156734
148	0xbf572fe196cc89cc	-0.0014152243631505466
149	0x3f64522205000be0	0.0024805702632888366
150	0x3f5b3f4aba2c3c89	0.001663039184396616
151	0x3f717ff14ab4bfe7	0.004272406145261676
152	0xbf7cfc1b7f13da8b	-0.007076365859794219
153	0x3f7f4778d40efd8a	0.0076365203721587924
154	0xbf77e41185372106	-0.005832737387614145
155	0x3f5569cf02a74afb	0.001306965025481942
156	0xbf021cafe87b42a5	-3.454601124775373e-05
157	0xbf638db1d0903ef4	-0.0023869011824969536
158	0xbf519dbd8ed64618	-0.0010752059127735521
159	0xbf69a8ec3801a6e5	-0.0031323064468339206
160	0xbf30681ed98829a9	-0.00025034669082004774
161	0x3f51b1994a368a7d	0.0010799405070903983
162	0xbf5be2b41a973831	-0.0017019995524267912
163	0x3f6cdc8fcd2d9612	0.0035231407759279765
164	0xbf4ea739f6aea595	-0.0009354622865106905
165	0xbf5047550906944e	-0.0009935694143703602
166	0x3f611f158362f382	0.0020900173359152405
167	0xbf7b17c553c062c5	-0.006614466485210972
168	0xbf4c7694ca72b8fc	-0.0008686281697885263
169	0x3f68804c0e479321	0.002990864321179024
170	0x3f70d85234557a5f	0.004112549887706678
171	0xbf7434cd4c1a85aa	-0.004933168356417475
172	0xbf6b850fa4460609	-0.0033593469144654925
173	0x3f5fda094f66b241	0.0019440737647570402
174	0xbf3b735a1f331954	-0.0004188628219704744
175	0xbf624b8023331030	-0.002233267086554157
176	0xbf6c888f6064969a	-0.003483085663122787
177	0xbf6fa0b5e802137b	-0.0038608124596656835
178	0xbf79fa1457b160dc	-0.006342009986006949
179	0xbf73bfc18e5d2246	-0.0048215447221272075
180	0x3f706f4cbb2d297a	0.004012393694959088
181	0x3f6171ad82ddf660	0.002129401101170811
182	0x3f7e83e3f087cd8f	0.007449999226526129
183	0x3f7d0689843a89b2	0.00708631245984963
184	0xbf6c28603fa35813	-0.0034372215132902977
185	0x3f71a37b5e9c0b6e	0.004306299126031072
186	0xbf6563f13a284272	-0.002611132761792861
187	0x3f63df5f1a04f889	0.0024258477643846516
188	0xbf74aff8a16c71c1	-0.005050631726387812
189	0x3ee7fcd8408974de	1.1438214657372882e-05
190	0xbf536aafea6ac8a6	-0.001185104172389853
191	0x3f77884fcb5d7d19	0.005745231339317835
192	0xbf780a73a44a752e	-0.005869342542294915
193	0xbf70f57a6e7914dc	-0.004140356300529304
194	0xbf47a754c72d338d	-0.0007218517260781807
195	0xbf5eda5edd416823	-0.0018831182869889572
196	0x3f73afb5cfb37308	0.004806242180362082
197	0xbf712c4aac9557f0	-0.004192630477822576
198	0x3f7eaf57e7fa7a2e	0.007491439231357462
199	0x3f5856092dedb415	0.0014853562967929214
200	0x3f778920645114e4	0.0057460084254376854
201	0x3f646808a90e98d0	0.002491013445666025
202	0x3f515d3262534e4b	0.0010598175079409463
203	0x3f58be4c850cc40d	0.0015102145445775623
204	0x3f5ea8e4b97de20d	0.0018713220251510593
205	0xbef091c97976f71b	-1.5801887995207155e-05
206	0x3f4bba5c049ab496	0.0008461903864450833
207	0x3f53376fd824d5ce	0.00117288515373325
208	0xbf44ebaf05dbe73a	-0.0006384472469271659
209	0xbf5746b3186e6d61	-0.0014206646899087227
210	0x3f50fff37957055d	0.0010375859904886077
211	0xbf83a2428429deed	-0.009586829813300802
212	0xbf825c7f18adccfc	-0.008965485516205345
213	0x3f7c65a7674ee4b0	0.006932882232768708
214	0xbf5cef7da6bed6fb	-0.0017660834373435786
215	0x3f7a2846bc3f75ea	0.006386066732344523
216	0xbf7a8bc5ef9b35f2	-0.0064809543488997135
217	0xbf670e06b595ece3	-0.0028143054047952017
218	0xbf77776ca0b20a58	-0.0057291262884314395
219	0xbf71ba26a3155a98	-0.004327917982058914
220	0x3f61d0d9fda6343f	0.0021747834809447138
221	0xbf34506d5d7e1fbc	-0.0003099696164032791
222	0xbf8591ecc51d60d0	-0.010532235875573198
223	0xbf3a827fa2bd754f	-0.0004045068369487774
224	0xbf566677555db9ba	-0.0013672032705148566
225	0xbf679ef2a6c72ac3	-0.0028834094320918393
226	0xbf4a2d7ea76a33a2	-0.0007988804271278247
227	0xbf45c423964e522f	-0.0006642507329269238
228	0xbf8044a1af569546	-0.007943404353521043
229	0x3f5c16fddb2651ec	0.001714466005613531
230	0x3f671b2390535a02	0.0028205580334585987
231	0x3f6035f63036c686	0.0019788559308942548
232	0xbf62e6e421e73ec0	-0.002307363101159726
233	0xbf63d681ed906e4d	-0.002421621099086646
234	0xbf4e65cb3a5fda86	-0.0009276621174184186
235	0x3f7775f59a634264	0.00572772921277984
236	0x3f480031fe6bebd8	0.0007324451551932133
237	0xbf7884618619b62b	-0.005985623314342751
238	0xbf730ff4ebb5fddf	-0.004653889390624027
239	0x3f5c2dd01b969005	0.001719907026520141
240	0x3f45124e21f6a0fc	0.0006430512911963777
241	0xbf663ec4f3c9484e	-0.0027154776310363343
242	0x3f7df410a20b2af1	0.00731283662089298
243	0x3f54bf31dc0ac7b9	0.0012662875089230875
244	0x3f3d48f68b4f1c0f	0.0004468538202754843
245	0x3f5446baf98e0c3c	0.0012375665594113313
246	0xbf7bbc135a06f7b1	-0.006771159737068475
247	0xbf5b185434a54a3d	-0.0016537496872685152
248	0x3f61ce1f6fbdc3c1	0.002173482322114201
249	0xbf5c299d064cb642	-0.0017189057773053938
250	0x3f5289ca6d8dbcee	0.0011314846835508946
251	0xbf4c0c492dd7240b	-0.0008559567756317733
252	0x3f7a461d91496355	0.006414523599766427
253	0x3f597edddfcbb09f	0.0015561262836696688
254	0x3f73bae64802d2cd	0.004816913162518599
255	0xbf433d114293fcef	-0.0005871137883843007

linear2.bias f8 [64]
0	0x3f57317168006ba5	0.0014155967219326795
1	0x3f4a893d19198c35	0.0008098171549132451
2	0x3f63382f5479ef55	0.0023461269773274265
3	0x3f6d9c0a64679dd3	0.0036144450161718993
4	0x3f819813923bda85	0.008590844059182654
5	0x3f4fad58007fc48b	0.0009667091080684127
6	0xbf6ec6581405c6b5	-0.003756687190780673
7	0xbf5d4e5d2a84ab7e	-0.0017887029480998236
8	0xbf7ea785a952e1cc	-0.00748398028843451
9	0xbf7e6f1ddbc26998	-0.007430187830460254
10	0xbf809c2b86c68639	-0.0081103706841673
11	0x3f8a5ae6751a1f06	0.012868690918608216
12	0x3f59a363dc706361	0.0015648341375309115
13	0x3f6c158a056de5dc	0.0034282394148561334
14	0xbf76fd7c3b7509e9	-0.0056128361532636695
15	0x3f5e146341a8b78d	0.0018359154988831534
16	0xbf67b6beadad6d22	-0.002894756716541062
17	0x3f724a235224cc49	0.004465234729923281
18	0xbf34fcca0564a380	-0.0003202431884284304
19	0xbf5f7393da1abd5c	-0.0019196456782245219
20	0x3f5c5edfba2efdbf	0.0017316040837015293
21	0x3f787a5ad75f7478	0.005976061676816184
22	0x3f5ec6d0976f1bc9	0.0018784558321713765
23	0xbf75ba7570845dd6	-0.005304774044155155
24	0xbf5cd6994537c917	-0.001760148695094948
25	0x3f0b9f75309122a2	5.268646607043305e-05
26	0xbf6ef83d0656b561	-0.003780478657708628
27	0xbf423282d02a7f61	-0.0005553377853466484
28	0xbf61b24239c30af9	-0.002160195681513041
29	0x3f7a4996f299ae0f	0.006417836798941603
30	0x3f81fee64f3f7dcd	0.008786963742692411
31	0xbf80c32a8c94b0c1	-0.008184749999223919
32	0xbf8014d8d8a54dca	-0.007852262603285438
33	0xbf382c8407987c07	-0.0003688642824232761
34	0x3f5bd01b4eac2305	0.0016975657151211976
35	0xbf651c7825c1f40c	-0.0025770517950705115
36	0x3f7c6bd9113eb060	0.006938789290796249
37	0x3f5e687e89d7bca0	0.0018559680678398652
38	0xbf540d44632695c5	-0.0012238662571716224
39	0xbf4d13d68bd5e7fd	-0.0008873746480013708
40	0x3f60d620ce9b62f0	0.002055229259763862
41	0xbf46e983c2477478	-0.0006992238382356316
42	0xbf4c5da28e3710b1	-0.0008656543472445236
43	0x3f39aa2db46afd17	0.0003916131576424271
44	0xbf62fa8d2352f1b8	-0.0023167378045327557
45	0xbf60d13683fdcf1f	-0.0020528855092666466
46	0x3f730a656bc23ead	0.004648586440580677
47	0xbf69873ceadd203f	-0.0031162442964252353
48	0x3f3216ad87cd9bd4	0.0002760099085236643
49	0xbf6ad26116217649	-0.003274144765824248
50	0xbf86b739ce6ad173	-0.011091662990431605
51	0xbf650a822897d422	-0.0025684873733049654
52	0x3f70387ebab13487	0.003960127865025537
53	0x3f80ee60dcc2086c	0.008267170655248367
54	0x3f47888a781e72b3	0.0007181812400066295
55	0x3f661bc53f6b7169	0.0026987888808049265
56	0xbf74c58da68df186	-0.005071214029950593
57	0x3f62fac8a86882e8	0.002316848668911898
58	0x3f6fa197a1dab4bc	0.003861232907033411
59	0xbf5dfb177552692c	-0.001829884441838357
60	0xbf5813486365b8a3	-0.0014694411198337496
61	0xbf5066230939564e	-0.0010009138249150898
62	0x3f7a40d452ae2e9c	0.006409482370951427
63	0x3f5d2f966b48ab05	0.0017813652931503731

linear3.weight f8 [32, 64]
0	0x3f603f98eae8ea57	0.0019834505722234152
1	0xbf47f68b0053adfa	-0.0007312945096180073
2	0x3f79ece9aa14340e	0.006329453231285432
3	0x3f7ee57276eb885b	0.007543036582065533
4	0x3f70f1de0d4de323	0.0041369127183024405
5	0x3f75025c30a97aa1	0.005129203908465969
6	0x3f690d1c71916e0c	0.003058009675937395
7	0x3f7d5e3e922b7327	0.0071699566057901514
8	0xbf82a93fdfdf0d78	-0.009111880321035257
9	0xbf810bfc83e69ee0	-0.00832364347009168
10	0x3f70de696af6993e	0.004118358410244048
11	0x3f822eeca3a1e71d	0.00887856363646083
12	0x3f59f25968d6c761	0.0015836594715037055
13	0x3f6911a8273fc4b6	0.003060177254149278
14	0xbf5dbbfdbc1f88c0	-0.0018148401145415133
15	0xbf6afefeb189b089	-0.0032954191668093697
16	0x3f73c917031c7d3f	0.0048304461395496925
17	0x3f6e11946032e02f	0.003670491978109445
18	0x3f7f22a727bb3d9a	0.007601407003405747
19	0x3f6ebd637223bea4	0.0037524168302452577
20	0x3f720ea2e0530196	0.004408489451805405
21	0x3f64300a0cf3cb49	0.0024643131542857783
22	0x3f7de1eec74647a1	0.007295544365108515
23	0xbf758cf1d282583e	-0.00526136838757024
24	0x3f67d5388402b791	0.002909288770829251
25	0xbf396c2229103ff5	-0.0003879149817871402
26	0x3ef537844bf282e6	2.0233976780861545e-05
27	0xbf6def8c3bb2542b	-0.0036542643479813472
28	0x3f6e72113b9cdeb9	0.0037165009097427063
29	0xbf799ec98038b242	-0.00625494681621014
30	0xbf633c77ce381e32	-0.0023481693222071826
31	0x3f7bd7ddc93140c1	0.0067976630699179705
32	0xbf624d91f82db83e	-0.0022342539754651993
33	0x3f60c3c5a07050cc	0.002046476354289428
34	0x3f45d730130f39ec	0.0006665215242891965
35	0xbf6c929fe168585d	-0.0034878847757325152
36	0x3f8514103a2e1089	0.010292174125204905
37	0x3f6013f39ab9526f	0.0019626386545417633
38	0xbf6237d210683d42	-0.002223882943560491
39	0xbf501149a3c5719d	-0.0009806841981890642
40	0x3f65a29bd523cc6c	0.002641014442923464
41	0xbf74084b6c94d8d4	-0.004890722871371451
42	0xbf76507d8625cac8	-0.005447855308704681
43	0x3f6d6ccb06e6a6c5	0.0035919156427624854
44	0x3f61c5886316a5a3	0.002169386273369782
45	0xbf7210e6d2939d56	-0.004410649920124262
46	0x3f8404a1c65f1d1d	0.009774459711378964
47	0xbf57831dd47171f9	-0.001435069208830629
48	0x3f54528c807c23c5	0.0012403843010721932
49	0x3f47ebf6359a82ad	0.0007300331301004125
50	0xbf7255774dc5af0f	-0.004476038008174545
51	0xbf5066115b7b2b92	-0.001000897360358553
52	0xbf7bd8fd4790d7fd	-0.006798734067208653
53	0xbf50558346c3f1dc	-0.0009969503399239665
54	0x3f772410a1b13f47	0.005649628607969088
55	0xbf531f4050621491	-0.0011671188417790338
56	0xbf7cb6fec6039667	-0.007010455330804888
57	0x3f5e2fefec4c57fb	0.0018424838064610139
58	0xbf82953847f05332	-0.00907367677249624
59	0xbf656c1874bb7f64	-0.002615020528409605
60	0xbf2b0a3780aef628	-0.0002062981369287825
61	0x3f2900a50e3130ef	0.0001907540782631954
62	0x3ee8671db4b28224	1.1636160385742707e-05
63	0x3f5332964eedd48b	0.0011717288832333885
64	0xbf65ca0a59056b08	-0.0026598169426227426
65	0x3f5dab7443cd6ff7	0.0018108973883590432
66	0xbf740a7d27d82156	-0.004892815484261645
67	0xbf7f8620ba66b889	-0.0076962736551832245
68	0x3f813cfb5e5d4c9d	0.00841709501006554
69	0x3f4ebae478987962	0.0009378066617420739
70	0x3f607fc91682e8b8	0.002014057874558519
71	0xbf42ac247f523e95	-0.0005698373994551137
72	0xbf6a6c65b9eee9a1	-0.0032255160180884733
73	0xbf866d31a53a8344	-0.010950458388209967
74	0x3f840bd6c441bcf0	0.009788205971032998
75	0x3f67ca56eabce6ef	0.002904100188882867
76	0x3f6687204e8e5c86	0.002749980067573046
77	0x3f71aa42b7718fa2	0.004312763797404447
78	0xbf46e2c32886dad4	-0.0006984188958572787
79	0x3f709c4ac4f0c0e6	0.0040553017307020985
80	0x3f71ffef6a5b0760	0.004394469467742329
81	0xbf6aaf05aff4a597	-0.0032572852211571568
82	0x3f7dc2ec6b12ec64	0.00726597166902385
83	0x3f79c627de6dc3fd	0.006292491662734709
84	0xbf55cbf5e676c985	-0.001330366265261591
85	0x3f811533c2dcb6c2	0.00834122122213488
86	0x3f859d914af6b248	0.010554442501267705
87	0x3f2a442e22f6462b	0.00020039618673854792
88	0xbf6bd8b5980ef86c	-0.0033992335088149275
89	0xbf6f5fcb1899616a	-0.00382985751347691
90	0x3f6f4e028d805d67	0.0038213777406885144
91	0xbf6f2fcc6925d55f	-0.0038069717785968317
92	0x3f8291bdb24e087e	0.009067041400843797
93	0x3f64b1c0110c5caf	0.0025261641789132354
94	0x3f6dfd9ff3de68fd	0.003660976798483094
95	0x3f79e4e80908ced6	0.006321817767957779
96	0x3f869e4406fac2f4	0.011044055426596235
97	0xbf6838983364825f	-0.0029566738768525415
98	0xbf646e4ac0352cee	-0.0024939975716385876
99	0x3f63b7d74a56f8b5	0.002406998147050999
100	0x3f7d7b26797c52ec	0.007197523394798049
101	0x3f7e658d796e79eb	0.007421066888950704
102	0xbf3df0ddbcba468c	-0.00045686162477762897
103	0x3f664bac12629e75	0.002721630170601059
104	0xbf61cfcd5e20c3fe	-0.002174283131374909
105	0xbf5e189f13a96e71	-0.0018369248852171639
106	0xbf60ed6b89a99caa	-0.0020663357111519636
107	0x3f682b515c0cf367	0.002950343041816006
108	0x3f71d829aecccffd	0.004356539557921477
109	0xbf7c8921d2a4d615	-0.00696671688119956
110	0xbf74edf75ec1f5a1	-0.005109754838597353
111	0xbf74191c4c3ed6ea	-0.004906759775556083
112	0xbf6939d8cc2182cb	-0.0030793413471176027
113	0xbf79aaf541274c01	-0.006266553903020445
114	0x3f7263cbc780a864	0.004489704144399285
115	0x3f81d738d68109fd	0.00871128468145787
116	0xbf781a3cc7f14b29	-0.0058843969591915535
117	0xbf7313002200767b	-0.0046567921818031445
118	0xbf683b202ee4cd6c	-0.002957880838175766
119	0x3f55e170b1e305f4	0.0013354874168246518
120	0xbf681ce5a05a566d	-0.0029434666528896287
121	0xbf4c8fe3017fc5bc	-0.0008716448237448475
122	0x3f6ddbaa8fcb189a	0.003644784096056131
123	0xbf1b94bcc35b01a2	-0.0001052131854875128
124	0x3f8830c935d0ab04	0.011811801867300804
125	0x3f60c8dabda22828	0.0020488998680479216
126	0xbf7e595a4a1a27e3	-0.00740943211861553
127	0xbf3eec7c2c1dd32b	-0.0004718592791655314
128	0x3f55eaafbc841b9e	0.001337691896027705
129	0xbf84fd105f527cdb	-0.010248306187632774
130	0x3f7b92841ed4c6b7	0.006731525512167095
131	0xbf74fda20cd27ed1	-0.005124695785667392
132	0xbf7bceb706fd0630	-0.006788935613998556
133	0x3f698c4d06870939	0.0031186584858186287
134	0xbf59de5d9d142423	-0.001578895015258882
135	0x3f67610145deaa0a	0.0028538727628604254
136	0x3f64b41c004f7dbc	0.0025272890948000153
137	0x3f6eb3f737d6eb53	0.0037479237059562603
138	0xbf805c5f62a26690	-0.007988686750013657
139	0x3f706915941b84a5	0.004006466189566603
140	0x3f846f8e32e7de84	0.00997840016223895
141	0x3f7cba46bab2c48e	0.00701358440999046
142	0xbf829671f96ad5d4	-0.009076013969528875
143	0x3f64a9d44dc182c0	0.0025223871762566075
144	0x3f72c5a70305227c	0.004583027257759494
145	0xbf788d81ce6f0571	-0.005994326645067148
146	0xbf7c8103cf004c40	-0.006958975674950685
147	0x3f7dc1487fbef16c	0.0072644073479149855
148	0x3f6809c7bb4c456b	0.002934351063580356
149	0xbf79c30d3b73d299	-0.0062895314106198525
150	0xbf6b2c9cefe63dc4	-0.003317171590601938
151	0x3f5e3e049d57bd7f	0.0018458409371041316
152	0x3f7684f8e97da524	0.005497906029497988
153	0x3f83c52347124e14	0.009653354269437954
154	0xbf79e697b363f111	-0.006323425847082357
155	0x3f7064a56afb9e24	0.004002233661345698
156	0xbf10011f23d0fe7b	-6.105186999238482e-05
157	0xbf5bd5125360cf1d	-0.001698749443232956
158	0xbf80c5b35a28d7d8	-0.00818958395857898
159	0xbf83e82cae5cff61	-0.009720181532997864
160	0xbf742a52d0a6abb5	-0.004923175331366038
161	0x3f5a2aee90bae6e6	0.0015971498241200087
162	0x3f6bacc3e75c4c10	0.0033782793278844883
163	0x3f5806ecb5a992b6	0.0014664947144861613
164	0xbf5d480d466df693	-0.0017871980323599698
165	0xbf74117f59f478d3	-0.004899499384263889
166	0xbf6b34efa7b8537e	-0.0033211403622410143
167	0x3f3fbcdff348042a	0.00048428027665187395
168	0xbf5fd55c271f3b2a	-0.0019429588251004917
169	0x3f7223ffa0e133fa	0.0044288621412080734
170	0xbf4e7e5714890a0f	-0.000930588264118905
171	0x3f50eda777991872	0.001033223669212127
172	0x3f6126fdc7597523	0.0020937878241925763
173	0x3f3026756f634d05	0.00024643294399347176
174	0x3f623f533c9c872c	0.0022274614065204337
175	0x3f7c9689642122b8	0.0069795004693068916
176	0x3f76f6cfbd6821c8	0.005606471523158914
177	0x3f69b60ac8d51f41	0.003138562262993278
178	0xbf70703f4d91b65a	-0.004013297345506562
179	0xbf5384b67b9d709a	-0.0011913091716087344
180	0x3f65da306807903f	0.0026675172268700027
181	0x3f74520de041f5e9	0.004961065486097629
182	0x3f55de3265f0000e	0.0013347141427857453
183	0x3f731549d8533a47	0.004658974129780952
184	0x3f871036cfc5f6c8	0.011261394706476038
185	0xbf70253ea09133f2	-0.003941769254265802
186	0x3f7358a5200d8d5d	0.004723210354174637
187	0x3f50f373e87914d2	0.001034606162549513
188	0x3f7436ed0642909d	0.004935193897981941
189	0x3f5f79849b30abef	0.0019210619909795187
190	0x3f480e9b754bdc00	0.0007341631959140171
191	0x3f81b35f446b8efc	0.008642906451718606
192	0x3f7c623081eef384	0.006929578287722008
193	0xbf7198714c541c2f	-0.004295771189624139
194	0xbf7a7527c19d2593	-0.00645938424879357
195	0xbf555fa312af1ad3	-0.001304539919816318
196	0xbf6478f2324bd79c	-0.0024990778350639353
197	0x3f51982357e51cf2	0.0010738701963235978
198	0xbf702527c2b8782d	-0.003941684069586099
199	0xbf38fc1bd3ab47d4	-0.00038123778692267
200	0x3f6a57222b216b72	0.0032153766015147684
201	0x3f7533d0b2a5e24a	0.00517636797518912
202	0xbf801a3a9990cc67	-0.007862527667475484
203	0xbf369fb0d5c501de	-0.0003452116705098522
204	0x3f82f2db10319329	0.009252273017588646
205	0xbf748a5cc06e08c7	-0.00501476508259397
206	0xbf6f9474bc307181	-0.0038549690230082483
207	0x3f61a55cbb11a3eb	0.0021540461680626863
208	0xbf6bdc62917c2837	-0.003400986210071923
209	0xbf5f4d9ca6525ca2	-0.0019105939657373745
210	0xbf75d9e2a044f5c5	-0.0053347446994939695
211	0x3f69c71a13fa470c	0.0031466969811128117
212	0x3f379362e27d3ab3	0.0003597370546132669
213	0xbf64537f85e6a415	-0.0024812212643223843
214	0xbf70768061ed77bd	-0.004019261831528395
215	0xbf81fa0a175eed2f	-0.008777693594189088
216	0xbf722f4007045739	-0.004439592463560343
217	0x3f67115f6435ce4e	0.0028159010996036465
218	0xbf5656fd6a81ffeb	-0.0013635134473872722
219	0xbf8af2052f49957e	-0.013156929498289168
220	0xbf48fa1e0c5a23a5	-0.0007622381896946652
221	0xbf4bba3638a1b465	-0.0008461727859533473
222	0x3f2c72ed4368745a	0.00021704813271209122
223	0x3f7f061f365db386	0.007574197696027412
224	0xbf3fd8d9fd01cc9f	-0.0004859478185672092
225	0xbf7c05b4f91fd0f4	-0.006841380049071189
226	0x3f694ad6e0d57006	0.0030874440041497335
227	0xbf868ba75e10b7ea	-0.01100855594458135
228	0x3f72363e7aa021be	0.004446262415520539
229	0xbf512a515f764f9b	-0.001047687020990096
230	0xbf664efa33642192	-0.002723206208546888
231	0xbf62716db74620e5	-0.0022513525856916344
232	0x3f50448cade6bafe	0.0009929059811885628
233	0xbf735a55e3e3617a	-0.004724822529361789
234	0xbf5e22eabdc4d42e	-0.0018393795390470136
235	0xbf78a33f7856b248	-0.00601506035802097
236	0xbf887d0471e6a205	-0.011957201696376716
237	0xbf82e04ae42f2ee6	-0.009216866577751625
238	0x3f6afe4126a95e04	0.00329506611641839
239	0x3f6e0e8a851bed01	0.003669043108741499
240	0x3f7d27c873fc8d09	0.007118018169225645
241	0xbf7ef8cd3febcee9	-0.007561494595154741
242	0x3f5d973b314254a3	0.0018060758639298145
243	0x3f47176f1158378a	0.0007046978304871981
244	0x3f82b6b5fd279e25	0.00913755587403304
245	0x3f89354993c01510	0.012308668920022942
246	0x3f5febe9a174c51a	0.001948335795372741
247	0xbf81c1375079741c	-0.00866931166017975
248	0xbf5877a47e39b057	-0.0014933687570204601
249	0xbf7175663aa2ab6d	-0.004262351352887756
250	0xbf3681f30ebfae7e	-0.000343438949811349
251	0xbf60202401f82cad	-0.001968450858617374
252	0x3f74e3d79443f9e0	0.005100099664785834
253	0xbf6d34cbdfbc2bcc	-0.003565214339578548
254	0x3f73cd9388bead05	0.004834724717436294
255	0xbf6f9c11e47cbabb	-0.0038585996116105837

linear3.bias f8 [32]
0	0x3f49fe511e670ee9	0.0007932563865371253
1	0x3f588f4b1955a9c6	0.0014990075481714367
2	0x3f92b5f303615da7	0.01827220638400964
3	0xbf7ef402d36bf98c	-0.0075569258103754915
4	0xbf570a05b91ea753	-0.001406198109615582
5	0xbf4e0d89e232b589	-0.0009171412715624365
6	0x3f84fec7f179c05e	0.010251581246137838
7	0xbf74ee24703676a2	-0.005109922730665824
8	0x3f758ee7ee1eb533	0.005263238885089993
9	0xbf66c53074b9710f	-0.0027795740514148302
10	0xbf85e5aa152cfbdb	-0.010691956301910046
11	0x3f582ee6b92d1bcc	0.0014760258824979442
12	0xbf63c0c7c77331f7	-0.002411260789449306
13	0xbf76e3f963e4c006	-0.005588506870751081
14	0xbf59f4b1c53bed37	-0.0015842186011799217
15	0x3f4bed5571002e95	0.0008522669977550518
16	0xbf633e41dc6714fc	-0.0023490225168837347
17	0x3f46279e0ef975ae	0.0006761094827642444
18	0x3f89fcb6e9d97438	0.012689045917051542
19	0x3f70cc6ae8f0fa4e	0.004101197831060844
20	0x3f7407ef92733c23	0.004890380695726146
21	0x3f6d3e247cab606f	0.003569670928623529
22	0xbf775b839030dfc3	-0.005702508849076029
23	0x3f58eba64be30d7a	0.001521026991711276
24	0x3f7f51e374d5f845	0.007646454335711599
25	0xbf6cb1c444df909a	-0.0035027345065704154
26	0xbf75c07f9a10cf8d	-0.00531053394756843
27	0x3f6fb99b4d4fd2a9	0.0038726838342831482
28	0x3f6f75878d2504da	0.0038402221190670773
29	0xbf5762289c0b3b0f	-0.0014272114350892295
30	0x3f8a1fa532a07b50	0.012755671126851859
31	0xbf5501c5e456cc7a	-0.001282161001068953
