checkpoints/RNN.NINO.0324113228.pth (torch_old, 77756 bytes, 12 tensors)

encoder.weight_ih_l0 f8 [64, 4]
00000000: 7944 45ac 0536 b7bf c729 6873 bf4e b63f
00000010: 0624 97c5 4de1 c03f bdd2 6e7c 8453 bf3f
00000020: 26a2 98e4 d978 b6bf 6391 3fe1 ddd7 b03f
00000030: 1dbb 8c07 4c9a a4bf 8f39 ad8c 175a b93f
00000040: 6777 05eb d4a7 b4bf eef9 4409 4ca8 aabf
00000050: c632 4e6b d719 963f 0a74 5979 1cb1 8abf
00000060: 93b6 daca 51a9 ca3f 731d eaa1 ad5c ac3f
00000070: 7446 d2ab 86f2 b53f a843 0d27 710e b3bf
00000080: a7e2 dc70 7160 c8bf 3512 2418 ace2 acbf
00000090: 157b 2771 4d4a adbf ea86 9602 acee bf3f
000000a0: 828d cb34 e106 a53f ded9 040c a19a 893f
000000b0: d644 7c8d 64cd c03f 44df f258 b9b8 bb3f
000000c0: ce2b 6419 d900 a2bf 62f0 a114 8e24 b4bf
000000d0: 9677 7f48 c37f bf3f 11e5 82c5 c001 b2bf
000000e0: 8b7f c7cd 04cb a0bf adb4 9ae6 4f1b c23f
000000f0: 8bed 255c 6bef 95bf bf05 fc4d 173b bc3f
00000100: d2cb d25b b20a b0bf 593e 6f26 6d53 b4bf
00000110: d1ad 9b6d be8d b1bf 8883 8e1e bdc0 a5bf
00000120: f701 c6a0 c0f0 b4bf 990f a1aa 68e1 7ebf
00000130: 350d c61c 2ad6 c3bf 5a58 c484 55f7 96bf
00000140: f481 3c5c 1198 a23f 4ce2 7f82 9734 9d3f
00000150: 301c 827e 83b4 ba3f b631 8f5a fe1d b1bf
00000160: 25cd ad71 9a39 7bbf d191 84b5 ed22 b83f
00000170: 6a48 8d17 0373 bd3f 690f dd12 e1a0 613f
00000180: f449 725c 1772 c83f 20dd 016d 0416 b03f
00000190: 224f a6bb 05e7 c23f 68bb ea74 3ad1 95bf
000001a0: 1fd0 4a86 6f33 a6bf 0c57 43e9 4fd5 babf
000001b0: 402d 495b dc89 b73f f903 ef88 ee68 97bf
000001c0: e36f 8775 c746 bdbf a103 7a9f cb55 b53f
000001d0: af23 7b2b ac01 bf3f 267a 67b4 66d4 a93f
000001e0: d3a0 2a73 6ae0 b8bf ccda 3490 2597 b4bf
000001f0: 23b5 c57b de8e c4bf 7da4 cb02 bbe6 c1bf
00000200: 30b0 ba04 798e d13f 7c57 e9f2 81d9 a0bf
00000210: 1847 fc7a d874 b53f 1fce 0874 951f a0bf
00000220: 589b 0b9d 4c0b c93f cde2 7dc1 e4c3 c83f
00000230: 3012 8a5c bcec a23f 9bad e148 1709 b83f
00000240: 5eb8 6ed1 4fdc 91bf 10c8 83c3 063a a8bf
00000250: 922e 5e4a 5e4c ab3f cc23 8e46 7afe b2bf
00000260: 27a8 475e 2a8d 93bf 3f44 b705 5027 b83f
00000270: 9106 0571 ccdd 9bbf fcd9 126d a434 c23f
00000280: 8709 f01a e989 d6bf 1cef 9f8c e2f1 c0bf
00000290: 9df7 cafb 64a9 983f 1295 b8ef b4c7 adbf
000002a0: dcae 72cd c807 dc3f 9e1f 58fb e577 cc3f
000002b0: 5655 1245 7292 9a3f dbcd 2f78 e0c7 a0bf
000002c0: b689 6f39 62dd c43f 6c32 68c4 b19d c63f
000002d0: 6e5d 2e9b f294 b83f 4573 8d09 d098 953f
000002e0: 5138 2f93 e5d8 d7bf a080 0e51 f202 c7bf
000002f0: 6390 88ff e90e a3bf fa4f 410a 6214 a73f
00000300: e5cb c5e0 5e53 c43f 2f85 6940 4089 b03f
00000310: 2bdb ee9a 1968 b23f 603c edcf 1698 c03f
00000320: e017 96fc 1a1e 94bf 765d dcee a0f7 7c3f
00000330: 62b0 aa35 7e44 9cbf 81d8 41e4 c851 b73f
00000340: c29e a299 a96e b53f ced9 b9f8 ef40 9f3f
00000350: 9bae 3371 518e babf 1142 9330 ec5d c0bf
00000360: 59fe 917a 960b b2bf 7819 d6f7 d32e 8abf
00000370: d710 403a 3237 a4bf db4f 17a0 367d 9a3f
00000380: 27e5 b63c 4215 cabf 4103 d13b 5239 bebf
00000390: a694 859e 8f64 a3bf 09fa 2a16 af29 b43f
000003a0: 858e 3c29 70ab a8bf 4af1 509f 4435 c6bf
000003b0: 835f 5a4e 0da9 bdbf 28d8 4632 1aae bcbf
000003c0: 5118 d5b9 506d c23f 6407 e950 ef3b c63f
000003d0: b89c 64f3 f5f9 aa3f 7f32 7cc1 43c7 b8bf
000003e0: f3da c275 475a b03f b03d 0b3f c9d2 b0bf
000003f0: 5a46 e6a0 dfe0 c1bf b706 db0b 38c7 c5bf
00000400: 59aa ffa0 9184 c63f dcc8 7819 de84 b63f
00000410: 868b a127 4e78 86bf 1347 b860 5349 bbbf
00000420: 1bd1 d56d b9ab d6bf e929 dc78 eab7 84bf
00000430: 3909 224e bfd4 bbbf 5da4 9c59 dfb6 ae3f
00000440: d39d 930d 5ca3 cabf ba1f b5ee 817e ad3f
00000450: 456e e29a a669 b63f a856 9af1 eaac ac3f
00000460: b9b6 99f7 4839 b8bf 9eab 4740 6561 b4bf
00000470: 56d3 d085 4322 c03f 26e2 faa4 f81c b9bf
00000480: a1d1 9d9a 2c94 a03f 21b6 edba f7ff c8bf
00000490: ac13 0df9 8d60 b5bf 85f1 ec7c 7a0d cbbf
000004a0: 18c2 e91e 1eb9 cd3f 884f 3cb6 9f4a 9abf
000004b0: 2a3a a8c6 7023 93bf 82d2 e4ff dfd6 babf
000004c0: fc3e af50 2bdc b4bf 23c5 2886 e51c b1bf
000004d0: 3936 ecb8 52ac 98bf 7071 d3bf 35e8 b43f
000004e0: 07cb 6d25 a1ef cebf 1927 fcde 743e 873f
000004f0: 3b53 ee62 99df c03f c316 3a11 9d2c ad3f
00000500: 20c2 6ab4 9b89 cbbf 923c 1005 c017 913f
00000510: 642a 5171 b26c c33f 9291 31c8 e82b a7bf
00000520: a737 4306 bca0 ccbf 0656 3aa3 c455 5e3f
00000530: 0b39 5e55 7fd0 acbf 4f98 d021 c7d0 b33f
00000540: 0371 eb03 85f8 7ebf e971 cf88 310f 94bf
00000550: 7f4c f0ec f353 b1bf bd7b 4b3f 2d89 c3bf
00000560: 184b b988 522a 9b3f aa00 695f e887 0dbf
00000570: a7e1 31a4 51ff a3bf 78a6 f884 8a46 b6bf
00000580: b5a1 3287 2f3a b93f ceba fd46 c12d c63f
00000590: e520 6d1e 72f2 b23f 01ef a539 d0c8 bf3f
000005a0: 35df 5f5f 4ca9 b1bf d7eb 623f 83b4 c1bf
000005b0: 0148 40ee 7e5f b2bf 7573 b5c1 6fec a3bf
000005c0: be0b 8f4c 7b07 c7bf b034 ecfd 6e0d bf3f
000005d0: c68e 3695 2bcd c43f 4375 52dc 8442 9abf
000005e0: 8507 6ac5 5978 d7bf 695d cc57 d018 c3bf
000005f0: b268 d171 4508 a63f b45b 3c96 a828 b3bf
00000600: e5fa 6419 c0c5 bebf 2f43 555e 2b40 c2bf
00000610: 8d3f e6f7 01f4 b5bf 610b e1bf 807d b0bf
00000620: eb55 912f 9901 ca3f 88f5 615b e61f 923f
00000630: 71a5 e6f4 931b b0bf 82e3 2adb 730d 7c3f
00000640: e003 f902 e6cf c2bf 99d1 eb74 dce5 c3bf
00000650: 4190 4a4d 26c1 c4bf e0c0 0c61 d86e 98bf
00000660: 2dd4 4826 57e4 b53f 5ba1 0bad 0dd9 c73f
00000670: 97d2 d2ab ad7b c83f 5f04 8965 14a2 98bf
00000680: 8024 0f6e c85b c03f ed56 2b15 ecd0 b63f
00000690: a087 26ae 7bb0 a33f 6338 da7d 1420 afbf
000006a0: 08a3 39ab 1296 d73f 2fac 8662 cb54 a4bf
000006b0: eca2 0edd 9acc ba3f e4ff df34 5fdc aebf
000006c0: 45d0 5ff9 45f6 c93f a8b4 25ad 96f5 78bf
000006d0: 89b4 6a84 539d c13f 9e02 5a51 7313 63bf
000006e0: d278 3506 68e5 d3bf 282f 230e 1522 aebf
000006f0: a9cb 2eb0 6c3e adbf ec76 e1e4 1e86 a73f
00000700: 8773 7db9 8318 c0bf 5473 3d66 a00b b1bf
00000710: 8e7d 22f3 4a59 8f3f d2b3 547a 5999 ad3f
00000720: 1174 dec2 caf0 cfbf e403 69ec d48c c8bf
00000730: 638a 25e6 4c04 abbf 7651 4d09 13ca b9bf
00000740: 9cc0 c675 0be8 ca3f 6195 1b2d fe3c a9bf
00000750: 64ae afc2 6adf c33f 92bf b053 61a0 c23f
00000760: 9cb5 9206 d933 df3f 4f60 0726 aa0d 9fbf
00000770: b434 1839 2500 c1bf fe23 add0 de5b c7bf
00000780: 0a8d f84c a0b6 d1bf 3f4c 0d3a 356b a2bf
00000790: 3ef6 ffdd 01d4 aa3f 575f 897a d668 c13f
000007a0: d182 38c4 4f4c ce3f d183 bed0 4c25 bb3f
000007b0: 0501 9c3a 1d0b be3f 800d c5c2 5116 b2bf
000007c0: b898 ed40 9269 9bbf 2e09 6613 e0fd c2bf
000007d0: eddd 6181 d2ac a6bf b17d 606b 3103 9c3f
000007e0: 69e8 a484 a9e0 bc3f 6585 c431 f982 c43f
000007f0: b702 e651 695f aa3f 840e fe69 3889 b0bf
-0.09066806274246798 0.08713909690428699 0.13187572620361737 0.12236812627709077 -0.08778154211962227 0.06579386471964237 -0.04023969261321823 0.09903094467629202
-0.08068590867830282 -0.052065254336856145 0.021582952427297263 -0.013033125355997672 0.2082922211169956 0.05539457894797808 0.08573190398080915 -0.07443911746419352
-0.19044321070557155 -0.056416871973884154 -0.0572075081470215 0.12473559439834117 0.04106811303588655 0.012501962832726695 0.13126809032886538 0.108287414756771
-0.03516272005989372 -0.07868278506970364 0.12304325599640573 -0.0703392488675443 -0.03279891025499556 0.14145849952675374 -0.021421124934460727 0.11027665761868997
-0.0626632188967016 -0.07939798534720789 -0.06856908966044918 -0.0424861049461987 -0.08179859089978679 -0.007539185384363289 -0.15497328190768092 -0.022427879551365805
0.03631643534595588 0.02852093442922614 0.10431691969471113 -0.06686391554757773 -0.006646731659987003 0.09428296739185461 0.11503619503972265 0.0021519084902212227
0.19098178876863836 0.06283595715818935 0.147675243974498 -0.021305955301325424 -0.04336117281255291 -0.10481738514803512 0.09194733837755553 -0.022861220462576857
-0.1143612539230499 0.08334038394424549 0.12111927091167617 0.05044861747932243 -0.09717431365664035 -0.08043131609597792 -0.16061001819199658 -0.13985383640764218
0.2743208452400294 -0.03290945139148868 0.08381417276930525 -0.03149096528468597 0.19565732639531563 0.19347819755400622 0.03696240071898094 0.09388871697745176
-0.0174419852807478 -0.04731770645766187 0.053317019060242235 -0.07419552061595808 -0.019093191151036273 0.09434986247585274 -0.027213282011195054 0.14223151517735733
-0.3521673930228179 -0.132381743111062 0.024083688610282306 -0.058164266836948766 0.4379751211479126 0.22240900776546096 0.02594927355365447 -0.03277493922351101
0.16300609402158067 0.17668745126902097 0.0960227612362041 0.021090746481934337 -0.37261332868081803 -0.17977742154926535 -0.03722316021256302 0.04507738471207286
0.1587942693255108 0.06459428379595943 0.07190094025177689 0.12964139130278607 -0.019646093050617597 0.007072094578482227 -0.027605030084189137 0.09109168598829066
0.08371982575283268 0.030521153980282816 -0.10373410237996909 -0.12786629077756165 -0.07048931591452269 -0.012784629822601742 -0.039483613596560545 0.02586827613943386
-0.2037737652260969 -0.11806215248453801 -0.03787659463959274 0.07876104632575943 -0.04818296912551737 -0.17350061205969275 -0.11586077845492863 -0.11203159072360391
0.14396103929374474 0.17370406580635767 0.05268829914194256 -0.09679053758390842 0.0638775503638092 -0.065716340915279 -0.13967509609624323 -0.1701421792877704
0.17592068063034352 0.08796489831800919 -0.01097165163463899 -0.10658761130642018 -0.3542312214479055 -0.010116416753153739 -0.10871501596014789 0.05998895615477615
-0.20811033881112326 0.057605800999737736 0.0875496032844519 0.056006757729091305 -0.09462410015995716 -0.07961113757452984 0.12604564699145254 -0.09809831645805697
0.03238047969253733 -0.19531151416178807 -0.08350455599163692 -0.21134883022194742 0.2322118426268538 -0.025675292489793416 -0.018689882397717884 -0.10484123227508671
-0.08148451537931217 -0.06684717679378997 -0.02409486058882335 0.08166824277163243 -0.24168791129667275 0.011349595122300426 0.1318237050114933 0.05698099932946612
-0.2151369696562293 0.016692161854788674 0.15175467045840485 -0.045256876409243266 -0.223655226762671 0.0018515033997678078 -0.05627820889559317 0.07740444732243755
-0.007561225501117488 -0.01958920857929228 -0.06768726858745032 -0.1526238020951193 0.026528634638746856 -5.632570166769328e-05 -0.03905730370837839 -0.08701387163514507
0.09854409266211557 0.17327133146633006 0.07401192896680049 0.12415791900087571 -0.06898953751067156 -0.13832130999602896 -0.07176965061833586 -0.03891324271783151
-0.1799158214399465 0.12129872988971857 0.1625112989978474 -0.02564437479724303 -0.36672062185981985 -0.14919475829149612 0.04303185476665429 -0.07483915012231429
-0.12020493144971629 -0.14258329492670316 -0.08575451185447332 -0.06441502270267342 0.20317377874987072 0.017699813201479425 -0.06292080620791808 0.00684876686380498
-0.14696955819275015 -0.1554523058799873 -0.16214445852267725 -0.02386034099907952 0.08551544842414734 0.18631144475444725 0.19127436532803152 -0.024055784890382955
0.12780099271757095 0.0891253997500276 0.038455834396941 -0.06079162632259807 0.3685347244377657 -0.039709430482013246 0.1046845235529294 -0.06027505417296178
0.20282816578367338 -0.006093586520688955 0.1376137157980433 -0.002328610639608832 -0.31087685209594185 -0.05885377690864707 -0.057116886622132164 0.04594513458208191
-0.12574812466746385 -0.06658365722746612 0.015307031197436396 0.05781058901116122 -0.24953588976941934 -0.1917978433939701 -0.05276718434722196 -0.10073966004467202
0.21020644427108415 -0.049293463712994486 0.15525564676441939 0.1455194147724766 0.4875395359220762 -0.03032556397542435 -0.13281693733043698 -0.18249116124414394
-0.27677161709489495 -0.03597418149606612 0.0523987372871315 0.1360118959735199 0.23670384484377974 0.10603790375036161 0.11735708886044811 -0.0706530666839651
-0.026769910061738428 -0.14837265917965098 -0.044287279409157644 0.0273559304988546 0.11280307281859482 0.16024699144422097 0.05150918125855724 -0.06459381663995073

encoder.weight_hh_l0 f8 [64, 64]
00000000: 2860 da88 9b74 c03f baa1 7f6b 2f33 aabf
00000010: 155c 05b4 4d2b b33f 3b3e 3529 be88 873f
00000020: 73d3 92a6 af5a a33f 3448 ff70 9228 bebf
00000030: 8395 0c8c b9e7 bbbf d2c5 5a7c 6ab7 afbf
00000040: 781e 77b6 9609 bdbf 0e56 9e9d 4171 c1bf
00000050: a07b 2cac 4b3a b3bf 8b3c 9d8c 4a1c 53bf
00000060: ad04 e426 72e3 b0bf 0828 468c 93d8 bc3f
00000070: 8539 443e 050d c03f 476d fbbd 49bc 9d3f
00000080: 701c 92c7 c303 b3bf 562e d55e eb23 c2bf
00000090: dc98 8147 7106 b73f 96db 78fb fc94 b2bf
000000a0: b7d8 6e65 295c 82bf 2d79 edb7 80da a4bf
000000b0: 303a 9362 0144 ac3f 38f0 4b3f f2c5 b1bf
000000c0: d9b7 6237 fe2a c33f 79a0 434d 3533 ca3f
000000d0: a3e5 1b82 cc51 b23f 5a63 b527 f99c b03f
000000e0: d254 1114 a09e b83f 1754 de2e bf44 a13f
000000f0: 48e7 5a59 c12d c43f e9c1 5349 5b70 b53f
00000100: f51c 06ca f31b c03f a291 3885 aec7 bb3f
00000110: ef6c 6143 70cd 93bf f19b 3b8c ab57 b2bf
00000120: 8e0e 20fc fd61 b23f f60d 0053 cd76 9ebf
00000130: 83ae d8e3 eba5 a9bf fcb6 d25f 8a90 b63f
00000140: 18e6 dccf de87 9f3f 4ddd a22c 5957 82bf
00000150: 4d0a a99e 17f9 b3bf 5e55 2dd6 f445 a63f
00000160: cf14 a0a4 6648 73bf dd27 4311 a3db c0bf
00000170: b1c6 a6e9 2c2b bfbf d852 66a3 f939 a23f
00000180: 88df 84ca e7da 903f 7774 470c 37c7 aabf
00000190: 3db6 431b f64a ba3f a010 77aa fb5d 70bf
000001a0: e87d 0a33 899e b9bf 2938 2117 2bd6 b6bf
000001b0: ff8e 404c e586 bcbf b266 b4ff f7df b2bf
000001c0: f78f 8770 5a7b c33f 41bd 2163 2513 b03f
000001d0: b314 7854 c297 bbbf f4a2 a03f 43ef c5bf
000001e0: 4dd9 997e dd0d bd3f 2342 ce9a f9f4 91bf
000001f0: 9932 2518 3a13 bd3f 7cdf 7cc2 0d68 d1bf
00000200: fdca cb99 8432 b3bf 986e 1153 fe2a b33f
00000210: 792a d5ae 2760 893f 3482 fbfa bd18 bcbf
00000220: 3edc 76e2 a08d af3f 60a2 2fe9 24fc b4bf
00000230: ebe5 3199 104b 913f 07ef 8271 5b7e c43f
00000240: 3d3a 60d4 0879 adbf 694a fd8d 00cb a8bf
00000250: 99f2 80fe 36ea 9d3f eb68 7245 2f37 9b3f
00000260: 84ea 51f8 b2aa 973f 1b6f 6e72 67e4 ba3f
00000270: 6b48 9e4b b7e7 b4bf 748a 8652 2a91 b83f
00000280: 4ce7 842b b932 a6bf 192c 616a df06 b63f
00000290: 1c54 df8a 34d7 a63f 62ff 0775 c96e b1bf
000002a0: 9ebb b1e4 444b a5bf 8fb4 358b 0c9b 913f
000002b0: aa9c 2f60 062b b43f f0c3 f033 8a53 b23f
000002c0: ee1a 33a9 e393 a33f 95d6 7771 80dd 923f
000002d0: 712a 3762 c510 b5bf dd5f aacd 92e9 7dbf
000002e0: 4ae4 6fbe 7723 aabf 34b3 0aa7 bd31 aabf
000002f0: 35d7 05bf b1ae bebf 9a6f 1af3 eb22 b33f
00000300: f37d f68b 3455 71bf 130f 7224 e0c9 9a3f
00000310: dc2b ee6e 29f4 acbf 9782 5d31 2d83 47bf
00000320: 4644 e116 e83e bcbf a04c c2aa cb9c a9bf
00000330: 36c0 0f12 e688 a9bf 5014 9180 8c80 aebf
00000340: b039 7f32 6430 b33f abfc 5e69 6b92 943f
00000350: 186a 55bd eb73 69bf e2d6 2372 a8ef b3bf
00000360: 0c55 8a4e b9e8 b3bf 98aa f7b6 8343 953f
00000370: c435 c921 b5b0 c0bf 072d 3a50 7bbe 983f
00000380: 4d18 ed8b b612 b83f d97e 769f 1907 b4bf
00000390: 0d9a da17 92ae c03f 6345 0f10 2ec6 9f3f
000003a0: 6608 4367 67b0 c0bf d891 e4c7 b554 c03f
000003b0: 537a 79ed 7888 bc3f 968f a935 ad9f babf
000003c0: fa7a c726 1d32 823f 173a c6c5 78e1 ad3f
000003d0: 4c48 17b2 9b0c a13f 2f65 8d0a 1213 ab3f
000003e0: a4ff 6e35 e812 85bf 353d d0b6 ea8e a43f
000003f0: b494 a27a fcac afbf 58bb c959 476e b73f
00000400: 7be6 5848 0d38 b13f ab96 df3f ee45 b73f
00000410: 27d6 bf74 97a9 af3f 8362 0c84 86ab a23f
00000420: 53b3 0562 ae6d 94bf 8fce e986 76a7 b93f
00000430: 5c25 fefb 9bda b93f bd60 a93e 3ba4 af3f
00000440: 69dd 80da 54e6 ab3f 213d 07c1 cb6a a83f
00000450: ce24 0d3b e80c 9f3f a768 1a4f dfbf bd3f
00000460: 8738 4088 7d3d a73f 8e05 e77b c535 b13f
00000470: 66ed ba31 542d adbf 11a9 8f7a c8fb aebf
00000480: 5ef9 cda8 8903 a13f 5e6a 8f82 3af3 b83f
00000490: af39 89a1 5479 b53f c91c fabe 1c21 ac3f
000004a0: 17bd e532 7c6f b7bf 54f6 8e2f 5bb8 b93f
000004b0: d7fe 53b6 4978 b0bf 00f8 7043 51df a93f
000004c0: 403a f232 1e27 b8bf f966 2784 e43d ab3f
000004d0: 3e98 3388 0789 b9bf fd79 92ac d0bc b13f
000004e0: 22ff 8408 b06b b7bf cb89 b4b6 892b a4bf
000004f0: 6bc8 861d a292 933f 3509 ad0b 3303 c2bf
00000500: e18c 4a25 6145 ac3f 5809 429a b3ec 63bf
00000510: 3dbf 7bf5 26bb ba3f d83d 2c7d 6221 b8bf
00000520: db33 78c2 abbd b03f ad9a 16ed 9a2c 973f
00000530: b99e 4e28 0038 b7bf eaa8 3751 4d5e bbbf
00000540: b20a 7ad4 9ab3 753f 6326 038a af49 c3bf
00000550: 534b 0006 0f7c b9bf dcca a5eb c4dc c1bf
00000560: cdf0 fa52 3a6d abbf 98b9 de59 1c51 bf3f
00000570: f646 2db4 65e2 a0bf d155 3d39 fd40 9cbf
00000580: f9cf ee8b 69e4 c0bf 4b50 dca2 7f54 c1bf
00000590: 111b 39e3 f9f3 b53f a948 0c8a cf57 a0bf
000005a0: 0cdb 3432 9e22 b53f 8c14 6382 f7c8 a73f
000005b0: 62f6 2dca 946b 9fbf ff37 ea69 56ba b3bf
000005c0: a35a 8e67 4a89 a7bf 6f39 8b8b c1c7 ae3f
000005d0: 38af 6d2f 9527 b9bf f3a6 c7ea af11 c0bf
000005e0: 2bdb a1cf cd0d a63f d415 f7da 5ed5 a9bf
000005f0: 8cbf 8974 6062 b1bf ed25 b368 5df1 bb3f
00000600: 2c93 31d1 60f9 b33f 142e 98d9 3693 a3bf
00000610: 24a3 6117 c9bd 74bf 7f40 d478 5c2a acbf
00000620: e93b cc8e d990 99bf 1e13 d0c0 da38 b03f
00000630: 1072 2059 c7d8 7fbf 8fa6 aacb f943 9d3f
00000640: 38f9 6021 58cc b2bf 11a4 0bb5 7fe7 99bf
00000650: d9a6 19a0 195f b0bf 940e 9e59 a1f0 ba3f
00000660: b9e0 377b 346e b3bf 8851 c5bc a64d bfbf
00000670: 3010 033f 2b3a 723f 5af4 246f c057 b1bf
00000680: c5af 149a 8930 96bf 4d7c 75a5 7a76 bebf
00000690: 4d33 22dc daa5 bdbf e089 4f17 19c1 8ebf
000006a0: 3ea4 25b5 6b03 81bf 6676 af62 64d4 c13f
000006b0: 364a 09fa 25d3 b8bf 6dfb ad8b d828 b0bf
000006c0: ee52 9a5b 7fab 9bbf 392d c724 2085 a03f
000006d0: 596e 2509 3d57 b8bf 8584 e574 49b9 79bf
000006e0: 17af 2f64 992a c0bf 2a37 46d0 4ea4 78bf
000006f0: 10f4 3159 562e b53f 4dc2 530e d712 b0bf
00000700: 71fa 95a5 1a14 923f 1ec3 c02a 0eba a73f
00000710: b1d9 9104 435e 8d3f 8a3e a6a6 d1d7 bfbf
00000720: 015a 7a0f 1866 88bf 1aa6 91a5 84f3 b9bf
00000730: 5f65 e21d 20e2 b8bf 5558 bc23 37c8 adbf
00000740: 7387 9152 024e b8bf 0825 e1f6 dfe2 a23f
00000750: e6ae c5b6 74ba b8bf d261 9a38 8189 70bf
00000760: f7c8 6a94 fa59 983f d56b 88d6 9f5f ad3f
00000770: d65e e1bd 2c32 51bf e60e fafe bb9c b8bf
00000780: 7525 a53c 325b a23f 4582 02ef 7547 a73f
00000790: d2be 9bfb 780f b6bf 2626 43b5 f37d b9bf
000007a0: 76dd 3d11 99e4 b43f 5811 64dc 16e9 b1bf
000007b0: e7c4 1b60 4bc1 b73f 0df1 0053 7ff7 bc3f
000007c0: 2779 3746 a5cf a33f 2599 1078 8f88 b2bf
000007d0: 51bc 8244 0aee c03f 3b18 764e 58bf 9a3f
000007e0: 8cad 038b 8168 82bf 7e38 2346 40ab b8bf
000007f0: 8c4d 01b5 2f02 b6bf 68ed cd06 2a7b b7bf
0.12855858022953837 -0.051171762344725605 0.07487950940172568 0.011491284973686003 0.03780125530594249 -0.11780658014984696 -0.10900458974045617 -0.06194622772217041
-0.11342756228179407 -0.1362688083287797 -0.07510827020131083 -0.0011664131183868633 -0.06597054910163776 0.11267969298037894 0.12539735355717255 0.029038574429120414
-0.07427619573910405 -0.14172117357735442 0.0899420547080782 -0.07258587970214445 -0.008964847000111893 -0.04072954411707239 0.05520634010610015 -0.06942667050674423
0.14974954323173398 0.20468775055565283 0.07156065155495255 0.06489522189566568 0.09617043008741469 0.03372762152790914 0.15764634001771527 0.08374567547048851
0.12585303654143556 0.10851565124955312 -0.019338373291572116 -0.0716502396931984 0.07180774121666841 -0.029750068846636744 -0.050094005168230836 0.08814301337653413
0.03079174178785679 -0.008955666231811899 -0.07801959632437523 0.04350247492281299 -0.004707718801005358 -0.1317027887619692 -0.1217525549352796 0.035598565288784634
0.016460057960301394 -0.05230114006892788 0.10270631948125071 -0.003995879239884342 -0.10007531639211431 -0.08920544924441799 -0.11143334495187317 -0.07372999184408505
0.15220194334608525 0.0627921454449636 -0.1077844101165109 -0.17136421782313216 0.11349281636089366 -0.017536068032827267 0.11357462968335098 -0.27197593682239307
-0.07498959307467241 0.07487477806119569 0.012390432379693938 -0.1097525346517692 0.06162741436440243 -0.08197241490382501 0.016887912130618615 0.1601061157469916
-0.057564044880667777 -0.048423783619587386 0.02921377113692589 0.026577700246527874 0.02311210289597422 0.10504766982779438 -0.08166070552968711 0.09596504702362002
-0.04335573822250058 0.08604236933858579 0.04461063571185539 -0.06809672457893393 -0.041589882771283046 0.01719302749318224 0.07878150795260078 0.07158721702650417
0.0382376808207051 0.018423087049049675 -0.08228715560759682 -0.007302831125933521 -0.05105184745475151 -0.05116074241718707 -0.11985312379496522 0.07475161252153698
-0.004231648693717715 0.026160719131907827 -0.056550307074836076 -0.0007175417583589913 -0.11033487852661591 -0.05002438029728151 -0.04987257929303761 -0.05957449979226992
0.0749571440967205 0.020089796358430927 -0.003107033184887042 -0.07787564074154887 -0.07776983420838607 0.02076535991902037 -0.13039268636423007 0.024164129993136132
0.09403553882757017 -0.07823333876740025 0.1303274742578683 0.031029433946803475 -0.1303834203918683 0.12758514652627073 0.11145740316121903 -0.10399897155872248
0.008884647127101786 0.05836083807217934 0.03329931782685999 0.05287987116634906 -0.010289968615211205 0.04015286904916097 -0.06186665532121918 0.09152646963205535
0.06726153389254279 0.09091080722245219 0.06184075641787628 0.03646488534849814 -0.019949650509647764 0.10021153253347335 0.10099196340720112 0.06179986133491997
0.05449166457440919 0.04768978816320613 0.030322674373825013 0.11620898896436192 0.045391009218392724 0.06722673678361543 -0.0569864569383423 -0.060514702759819745
0.0332301157532011 0.09746137321000378 0.08388260787726297 0.05494012671720722 -0.0915448784123679 0.1004693022832382 -0.06433544827813918 0.050531901819780956
-0.09434689277461761 0.05320657838065119 -0.09974715304596857 0.0692873402899536 -0.09148693283077283 -0.03939466815269873 0.0191140490075629 -0.14072263784516684
0.05521682338919632 -0.0024322040426919926 0.10441821568724392 -0.09425941043831843 0.06539414880553755 0.02263109275886659 -0.09069825157223023 -0.10690768463942715
0.005298237614285982 -0.15068620909578376 -0.0995492353106731 -0.13954984194022912 -0.05356771719877571 0.12233140176861068 -0.03297727417397127 -0.02759166395056473
-0.13197058994921898 -0.13539119198014968 0.08575403020323004 -0.031919942475853454 0.08255947805160363 0.046455130258928085 -0.030683827247676716 -0.07706203542531397
-0.045969319478151215 0.060117767604981213 -0.09826023490830671 -0.12553976978170275 0.04307406577657099 -0.05045601294436222 -0.06790736050765939 0.10915168577334784
0.07802395922915356 -0.03823253065283097 -0.0050638060693948585 -0.055010690450331794 -0.024966620770154355 0.06336753089278743 -0.007775095657077916 0.028579619460890767
-0.07343054594909837 -0.02529716055406445 -0.06395111235329 0.10523422658848808 -0.07590034492739307 -0.12227861508046634 0.00445000546477918 -0.06774523461804574
-0.021669530896516926 -0.11899534739994629 -0.11581199526172022 -0.015016742729078325 -0.008307305780094972 0.13929419344542565 -0.0969718680801542 -0.06312325868746678
-0.02702139851187984 0.032265667428499296 -0.09508115266128793 -0.006280219020795679 -0.1263000239554166 -0.006016071191323561 0.0827383010636853 -0.06278747653755908
0.017654816013868705 0.046341364592427534 0.014339946343380957 -0.12438688582028071 -0.011913478824948422 -0.1013720421048209 -0.09720040063475242 -0.058168147194167
-0.09494032398063527 0.03688716782250806 -0.09659509145938791 -0.004037384767479018 0.023780741985953004 0.05737018102464445 -0.0010495602541790625 -0.09614157652873309
0.035852022078482294 0.04546707670784093 -0.08617359297545171 -0.0995781247649111 0.08161312743128754 -0.06996291046750025 0.09279318901441834 0.11315151001412378
0.03869358522546156 -0.07239624673147611 0.13226440758941974 0.0261205480469686 -0.008988391928560067 -0.0963630839571312 -0.08597086113996094 -0.09172308603404178

encoder.bias_ih_l0 f8 [64]
00000000: a454 a2ed 3f9d 64bf 95bc cb17 0bd1 bebf
00000010: 3433 5cc7 dd37 bc3f ae2d 4775 c694 b9bf
00000020: 2581 9df1 fd47 943f 3674 8773 1722 c1bf
00000030: 26a3 db60 be28 bcbf 1b33 499b 923a b3bf
00000040: a49d 7050 da53 b43f 7104 8f28 d38a a83f
00000050: e9a5 3ced f018 91bf 51bc d20d 9a26 b9bf
00000060: 0606 70c8 6f35 babf daa7 a40a c854 99bf
00000070: b53b c038 d0f4 6abf ae12 98f0 9cf8 a03f
00000080: 183c 5741 037d c1bf 6a23 2722 22fb 81bf
00000090: 021d 85b7 c46b b33f dd2a c2e9 d2d3 a23f
000000a0: b1cd c154 f194 ca3f 592d 967e e86c bdbf
000000b0: 7e38 63d8 c4dc 653f 62de daba f92a bd3f
000000c0: 33f1 120a 8b5d 843f d5fe c9f7 86d3 83bf
000000d0: 7973 ded6 540e b9bf 9f36 92ed 95b2 6d3f
000000e0: 3d1b 2b70 85ee c33f 9444 4ea8 a1d7 c43f
000000f0: b5f0 cdd0 1039 94bf 2816 965d 457d a63f
00000100: 1d2a 893c 2545 97bf e9d4 628a 36dd c53f
00000110: d715 9cb3 5e6e b9bf 1c6b 0946 a924 a23f
00000120: 5ee6 0d35 1718 b83f f126 9ac7 ce78 bebf
00000130: e000 8783 efa2 abbf eea5 6a9a 4158 bc3f
00000140: 4a02 118f 47de c23f b75e 8fcf cac2 9abf
00000150: 11e2 b792 8e36 b1bf 38b1 5688 3eed 4d3f
00000160: 4522 5f03 099b b0bf fd92 7bab 87e2 bb3f
00000170: 4d59 76b7 c611 a1bf 35e8 8bbb 7f05 c23f
00000180: 17c2 0bcc 59d1 8e3f 3ebf 3e69 aaee c1bf
00000190: 9dd0 3acc c113 a6bf eed6 fea9 65bd b2bf
000001a0: 36a0 ede0 d793 bb3f 03fe 31bd b89e c4bf
000001b0: 4c3f f58b 9382 ac3f 4749 63f4 95e8 b5bf
000001c0: 5acc 240b af25 bf3f 7d01 1976 868b 973f
000001d0: 8a1f 64d8 a543 993f 8efd acb8 4906 b0bf
000001e0: f69f e18c a494 c03f f9a0 61d2 1612 ab3f
000001f0: f290 1d07 48c7 ab3f 0e35 a42f 7d68 c4bf
-0.0025163887594979607 -0.12037724810555724 0.11022745244208637 -0.09992637980683725 0.01980587756350007 -0.133852893267347 -0.10999669899650807 -0.07511249819908665
0.07940449203362349 0.04793414945698594 -0.01669670532206694 -0.0982452663181317 -0.1023778786038961 -0.024737477922066244 -0.003290564234709826 0.0331467670148745
-0.1366275853201564 -0.008779780070555982 0.07586316566913712 0.03677233794686228 0.20767037046935635 -0.1149430569695843 0.0026687473901808026 0.1139370042027337
0.009944044346746317 -0.00968079990093377 -0.09787492986511194 0.00362519533934498 0.15571659066173452 0.1628305503659574 -0.01974893831673859 0.04392449157152739
-0.02272470647793955 0.17081338650829217 -0.09934036145212786 0.03543595294896404 0.09411759419699581 -0.11903087971782235 -0.053977474980912765 0.11072168369232546
0.14740843282381128 -0.026133698385676776 -0.06723872262944776 0.0009132914862468927 -0.06486564953150616 0.1089253228815998 -0.033338746924686725 0.14079281480354813
0.0150477424044491 -0.140095998181545 -0.043119484119786146 -0.07320247078208883 0.10772465936099782 -0.161093799953946 0.055683718523708764 -0.0855802270555489
0.12166875860275309 0.022993184049711502 0.024672118504013997 -0.06259594687161593 0.12953621748897576 0.05287238424426905 0.054254771107283065 -0.1594387514709656

encoder.bias_hh_l0 f8 [64]
00000000: b4b7 5a8f 1c47 77bf 05d1 5237 6a54 afbf
00000010: 81ed 1b22 0e5f c13f 4023 2c6e e672 a23f
00000020: 350d 56e9 23cc a6bf 62de e664 8a3f a63f
00000030: 5438 de89 c1fc b2bf 60b6 3b0c 7d57 b43f
00000040: c91b f49f cca3 ba3f 1c9a be30 d484 b33f
00000050: 3360 f576 1f4e b63f df3b 3939 1f55 bbbf
00000060: aabf 7264 83ff 90bf 828b 9b29 8cb5 a73f
00000070: 3ec5 cb18 ec0b 66bf 876c b717 c8e4 b83f
00000080: a1d5 34e3 a7ff b2bf a28f 4d76 0d05 aabf
00000090: dcee 4d39 7c38 91bf 6cbe 43f0 31b2 af3f
000000a0: cbc5 07db 3c21 b43f 5c0c e904 64bc c0bf
000000b0: 59f9 fb29 fbfa 973f 0e01 3ba6 08b3 c33f
000000c0: 0586 3672 3720 c7bf 5ff0 404e f0a2 8dbf
000000d0: c435 ff2a ca2c a6bf 516f 88b6 5d6d ab3f
000000e0: 5b4f 38aa 740b c23f 06c5 7a44 3a9c c23f
000000f0: c0c7 0056 730f af3f 41be 136b a114 b2bf
00000100: 88d4 483d 9dfe 893f 8e6b c4c6 44d0 b73f
00000110: 4a8c dac6 ec28 b13f efb3 f47c 459c b5bf
00000120: 5534 6ef6 626a b63f 62e9 6682 c719 a2bf
00000130: 5219 ee2e 093c a23f f6cb ba53 6b3e a7bf
00000140: 6cc4 df47 ef73 c03f e3f5 8dbc ffff b73f
00000150: 823e a469 77ed be3f 36e6 4b67 65a6 a8bf
00000160: 67e3 2d51 aa02 81bf ff1a 58ed 2a50 ac3f
00000170: 583c f022 0222 adbf f087 1ca0 d081 c13f
00000180: b658 08b4 9ac3 913f d149 77e4 a8e8 923f
00000190: 2296 ccc3 b840 95bf 7ebb fd4e 8b4b 41bf
000001a0: f7b7 44d1 4e8f b23f e4f8 2f23 f69d b5bf
000001b0: 9f9c 6784 8b75 ba3f b817 6600 1ee5 a3bf
000001c0: 7060 c4dc 90ec a13f e413 c802 d14f c13f
000001d0: d1d9 4d14 a4f1 9a3f e93a 52e2 3f36 62bf
000001e0: d0d1 f1a8 4cf3 adbf 57c9 0b34 1523 b8bf
000001f0: 5282 897e fc7c 713f 6796 763d 6bc7 b1bf
-0.005683051645673776 -0.06119090962730137 0.13571335473521276 0.03603286833646857 -0.04452621672956029 0.04345352632247736 -0.07416925064009777 0.07945996807731026
0.10406187920680944 0.07624555769016478 0.08712956098804696 -0.10676760813770113 -0.01659970570170769 0.04630697257905238 -0.002691231848409941 0.09724093035713298
-0.07421349808722379 -0.050819798175125955 -0.016817036626419632 0.061906395510843065 0.07863216731472915 -0.13074922790301258 0.02341835445167226 0.15390117756579297
-0.18067067219548974 -0.014470937145340366 -0.04331046843399691 0.053568771869520256 0.140974600901809 0.14539268821457813 0.06066475319711584 -0.07062729705989403
0.012692669327501585 0.09302167751995524 0.06703071455790269 -0.08441576290779527 0.08756083027238167 -0.03535293070622704 0.03561428735615614 -0.04539809605685001
0.12853804597355933 0.09374998429662855 0.12081095055713756 -0.048144501552041793 -0.008305864908594264 0.05529913089053728 -0.056900088086074774 0.13677413766805513
0.017347733724897473 0.018465651459175284 -0.02075470633567112 -0.0005278043954442949 0.07249920472233372 -0.08444155081813026 0.10335609419381563 -0.038857400463754244
0.03500797934447142 0.1352483047086529 0.026312412013305867 -0.0022231338248909116 -0.058496852515336095 -0.094285321432641 0.0042695868547473915 -0.06944914103095244

decoder_in.weight f8 [4, 64]
00000000: bc27 65f9 2195 b83f 902b 55ff bd9d aabf
00000010: 6806 359a 832c babf a098 d1a5 17de 70bf
00000020: 32ee 4321 9f01 b63f 40f3 7497 71e1 b2bf
00000030: 08a1 b5a6 c515 9fbf f631 af10 7bb0 b1bf
00000040: d0e0 d417 8c4e be3f 48bf 0f84 419a b9bf
00000050: 4420 40e6 f99c a23f a832 77d0 51c6 a73f
00000060: 34d1 beb4 470c a73f c671 0f67 be91 b13f
00000070: ec8e 17c2 609d a4bf ec99 8269 9995 ac3f
00000080: 70de 36c8 ab19 843f 0ce8 9d14 07d3 b93f
00000090: 8090 98be 871b 7cbf 3a34 2a0b b062 b8bf
000000a0: 46e8 16e1 74f1 b73f 4c4a 6c95 7630 a63f
000000b0: c6e7 faff 9583 b93f 408d 4a15 529c 7abf
000000c0: c099 30dd d8f8 8fbf 5018 e9e9 3522 a23f
000000d0: 004c 263b 6c46 633f c230 3ec1 db1e b7bf
000000e0: a8c5 5f66 46f7 a4bf 1018 1068 f650 bcbf
000000f0: 1092 8b44 fadf a63f 066f e4fa 7c20 bdbf
00000100: 5c6d 01b5 6ee3 b23f e851 aa6e 5858 bfbf
00000110: 9ce2 c7a3 9aed a6bf 70d1 10a3 6dd8 98bf
00000120: 984d 26da b901 adbf 6029 ba38 321b 77bf
00000130: 307b 2b44 da5d 9a3f 7c51 500b 77db af3f
00000140: b091 6eff 9d0d 94bf a4aa 0b34 e795 a53f
00000150: 1898 31c3 ae18 9d3f 083c c8a3 0fb2 9b3f
00000160: 50fd 8e9a 3fe5 88bf bc27 9c41 70e5 babf
00000170: 3cd2 2085 f113 b1bf 0448 495a d937 b2bf
00000180: 541f 454c 41ed bd3f 30d5 24b2 87a9 82bf
00000190: de22 b3a3 b29f babf 2827 773f f637 bf3f
000001a0: f80b ef83 5df5 a03f 1cc7 b45c 194a bebf
000001b0: 6c0b f3c4 98ac a2bf 50eb 6e86 4fb5 b6bf
000001c0: 58d5 b0d4 a215 acbf d0d2 83bc d9f8 b43f
000001d0: 40df 5c4d facd a53f 924e 788b 53a0 b9bf
000001e0: 604d 6789 99ef 953f 1af1 cab3 b62b bcbf
000001f0: 008c 4471 2b13 5bbf 3876 fc6c 35be bbbf
00000200: 50a4 7e74 2599 9a3f 268e 0b9c 496b b6bf
00000210: c022 7cc9 646e 633f 784b 5caf 6dd0 a93f
00000220: 1047 f1ab c6a8 babf e48d f362 5208 a73f
00000230: 14e7 d3c4 1db5 a13f 28e3 8559 9443 9e3f
00000240: f414 54d3 42de a5bf bcc8 46a6 81af aabf
00000250: 0611 111b a17f bcbf 4063 cc81 6baa 7bbf
00000260: 9e18 a3fe bb06 ba3f 688a f80f a2cc 95bf
00000270: 2ab7 726d 84dd bebf 18fb d233 18f4 a83f
00000280: cce6 cdda 79cc aa3f 7448 4a29 1843 b9bf
00000290: 9cb6 998f 21dd b7bf 7c9c 3ad5 2296 a4bf
000002a0: 58dc a040 26a0 99bf 688f 69fd e2ab 93bf
000002b0: a225 6fe9 07c2 b1bf 1c4c 9f45 9e49 b8bf
000002c0: 900c 9687 03d8 81bf 6090 1acb 99bf a43f
000002d0: d4e4 adf9 c292 b03f 0c95 8b95 fd45 babf
000002e0: 007f 4125 cf66 99bf 70d9 9723 df52 a8bf
000002f0: 9cac 1490 f863 bcbf d898 7021 d135 9bbf
00000300: 78fd 7909 c070 abbf b6c6 dbf3 7ef5 ba3f
00000310: 70dc 7fd2 81ec a73f a01b d622 f20a bf3f
00000320: 2e79 cfc2 d5c5 b9bf 8ea9 c9f3 809d bbbf
00000330: 960d 0291 1a53 bd3f 7416 c230 eca0 abbf
00000340: 825f 8038 14f0 b9bf 6238 0ec0 cd98 bb3f
00000350: 7e9f d363 b3e0 ba3f 6c65 db91 cb9f ac3f
00000360: 4879 e9f9 2aa6 963f 3e8b bcb7 0944 b5bf
00000370: 40d6 f500 1357 b0bf 345b bc84 f67d ae3f
00000380: 98b1 caa5 6e24 91bf 44c8 60aa 6a93 a03f
00000390: 2c6a fcc6 16e8 a83f da3e f2f4 955e bd3f
000003a0: ce58 0078 0812 bfbf 582e e047 bdf9 983f
000003b0: 404f 83bc f596 b03f 00e6 d739 5cee ab3f
000003c0: 3ccf 6d46 85b2 b5bf 4468 fe8f 2456 b3bf
000003d0: 160e 3c5e c618 b73f 62ba b170 07b0 bf3f
000003e0: d05e 66ab fcc2 a03f e0a7 a3ef 97b4 923f
000003f0: e83f 22f5 ff75 a5bf 4676 44ab 8b7d b53f
00000400: fa05 a419 e7e6 bcbf e8ae 23c1 5742 aebf
00000410: 58af 66b6 c18d a33f 482d 7b32 04b7 953f
00000420: b620 03fc 3c2a bdbf f813 3553 3dd4 953f
00000430: ecab 0a66 a611 a43f 76a8 25b4 09fc be3f
00000440: fc1b 137f 8bfe b6bf 2c79 82bb 1c37 babf
00000450: 1606 61bd 0e9b b43f 0050 f3ea 134f 1a3f
00000460: 2aa6 988d 64ac b83f 16e7 02dd 2c61 bfbf
00000470: 5ce8 17c2 6134 abbf 00f5 0023 e2e4 983f
00000480: 30a3 3410 1466 a53f 80a2 0dd7 3a40 9e3f
00000490: 029b 1af5 052b be3f 9c3a 3945 a692 aebf
000004a0: acb0 9083 3c7b a63f 2c3b da98 3f70 b3bf
000004b0: 088e bcd6 6efa 933f f2fa ab6c 7a72 b83f
000004c0: 6cba 0547 028b bfbf a82f 0453 d3e4 9d3f
000004d0: 2e41 0857 24d9 bd3f 1832 9f34 77d2 913f
000004e0: 60a5 4ae1 669c a23f 24d9 bc68 9eea b83f
000004f0: d4e4 0e94 fbc9 b6bf e04c 2e12 eb43 7cbf
00000500: d06a d25f bfb0 89bf ec25 8aaa c0b4 a93f
00000510: d474 9714 c335 b8bf 706c 8bac efaf aebf
00000520: 6034 7bc3 eafd 853f 5acf 61a6 cafe bfbf
00000530: f0ab d995 cfa1 91bf 7aca c252 152f b6bf
00000540: 4400 cba0 06b3 bcbf 70f4 0091 9485 8fbf
00000550: d2ff 7012 83c0 b73f 4c01 9b27 8b66 b33f
00000560: 9cff 7d7c 6aac babf 0896 b977 1cfd 95bf
00000570: ecaf 1d03 b9f0 a7bf 30d2 9424 6fd7 a03f
00000580: 607e 3d05 6055 bbbf 80da b9b9 8fa0 8b3f
00000590: 924d 88ba 052f b73f 30b4 dba0 feb9 a33f
000005a0: 88f7 dc6e 10da 9f3f 8479 aaef 55c4 af3f
000005b0: 5895 fa64 3ad4 bf3f c8a4 1015 cca6 98bf
000005c0: 98aa 1f6d ce7b bdbf a24c c89f 2499 bfbf
000005d0: 70cf 49ce ed5d a53f e81a 1ab3 a476 bfbf
000005e0: 4626 5a66 ac78 bf3f 329b 0d5a af16 b0bf
000005f0: 3e3d 3ccd 4c81 b23f 9003 69d5 589a b5bf
00000600: 28fe 77e9 d544 ac3f 70c7 7753 5682 bf3f
00000610: 3880 d924 e110 a03f 205d f36f ea59 b13f
00000620: e078 c276 b0fa 94bf 5010 93c8 6450 90bf
00000630: 3c0b 8740 47ff abbf 7037 e01d d9c9 87bf
00000640: 20d7 a2e9 6571 a83f a85d a647 2a8a 98bf
00000650: 9005 07d7 dfdc ba3f 3a21 559b d58a ba3f
00000660: 2438 eecb 30f6 b13f 4cf8 d6cb 9ff1 ab3f
00000670: fcd7 31cb 3051 bdbf e414 a5b8 2980 bb3f
00000680: 48cd dd7b 865e a5bf 8e4d cdcf 32b8 bfbf
00000690: 042d b308 33eb b43f 8055 e5b0 1562 8d3f
000006a0: 70ce a75b 315d babf ea3e 320e 65c1 b9bf
000006b0: ee16 1ffe b178 b03f 749f 03a1 5ff7 a23f
000006c0: 6c8a c92c aad3 be3f 68e2 d115 2387 a4bf
000006d0: 8838 f3ed 5207 9b3f 1cf3 a9a6 1959 be3f
000006e0: 1808 8647 fbdb a2bf a802 3ca4 2620 b3bf
000006f0: 2895 dcc5 66d9 a2bf 848b 280a 5627 bebf
00000700: 248c 26e1 1447 b43f f812 d24e 4e66 a6bf
00000710: 486a f311 f56a b9bf e22a c49b 8885 bcbf
00000720: 12c7 bdb4 2b06 b2bf 60a6 bc0d 22db 82bf
00000730: 9022 a681 9be5 b23f a01f dd4f a08c b73f
00000740: 3c48 38a8 48b0 a23f 289c 0868 ea0b 93bf
00000750: 5073 4a7d 2644 92bf 7c86 cdb3 a576 b63f
00000760: 803e e546 c27f 743f 0c04 7bc1 31a7 a83f
00000770: 2aa0 4a2e cf36 b83f 8ac4 adca a282 b13f
00000780: 7400 4f46 365f ad3f 28c2 7c1e 5f1a a7bf
00000790: a08e 97bd 251f abbf 2099 713b 291a 753f
000007a0: a081 7049 6fb6 973f 206e bbcf 44af 72bf
000007b0: 68c2 4847 dbdb aabf 206a 9c62 d98a 8cbf
000007c0: feb8 8837 36d3 bc3f 8834 0e4e b214 af3f
000007d0: 309c b98b 4950 953f 6032 a2eb ff83 b6bf
000007e0: 2048 3a82 68cb bdbf a8c4 c6f8 a673 ab3f
000007f0: 2240 861d c0e6 b33f f056 f462 b487 8b3f
0.09602558459042049 -0.0519847273049755 -0.10224173083136068 -0.004118053792899229 0.08596224367277541 -0.0737524981277149 -0.030356491375102684 -0.06909913213093674
0.11838603574585993 -0.10001000856550235 0.0363538831298347 0.04643493337389276 0.04501556474079607 0.06863012329217275 -0.04026319855964097 0.055828851823480935
0.00981458859210635 0.10087627652492887 -0.00686219239426944 -0.09525585434512687 0.09352808471058535 0.04333849500666939 0.09966409205927027 -0.0064967352269918455
-0.015611356973818213 0.035417256167918354 0.0023529161346202976 -0.09031461208195693 -0.04094905852970082 -0.11061039009663909 0.0446775635407769 -0.11377698064137229
0.07378284377175731 -0.12244179441251613 -0.044781525128148675 -0.024263108327617855 -0.056653793220131365 -0.005641170671547208 0.025748644266850806 0.06222126019580096
-0.019583195414854593 0.04215929518052988 0.028414469398193004 0.02704643666407594 -0.012156006721737583 -0.10506345369154152 -0.06671056270790471 -0.07116468862776065
0.11690147506771825 -0.009112415431995119 -0.10399929520202586 0.12194766091775178 0.03312198863525134 -0.11831816209158003 -0.0364730587403049 -0.08870408088743642
-0.05485257002184579 0.08192215778747003 0.04258711046571628 -0.10010263590839433 0.02142181302208479 -0.11004201783629633 -0.001652519630689353 -0.10837110434337027
0.025974831805488485 -0.08757457790084597 0.0023719757554128973 0.050418307930292394 -0.10413781831564628 0.044985365466142985 0.03458493259127074 0.02955467029957784
-0.04271134214108399 -0.052120257899689076 -0.1113224688606956 -0.006754322003666158 0.10166525809026658 -0.021288425659927418 -0.12056758567879614 0.048737293554486694
0.052341278037557254 -0.09868002899227851 -0.09321794277067358 -0.04020794728176555 -0.025024984068491157 -0.019210383145391502 -0.06936692666126601 -0.09487332534563148
-0.008712794852505007 0.04052429775518429 0.06473940463719724 -0.10263047123915586 -0.024806248330036418 -0.04750726041304432 -0.11090043561550761 -0.026572482744222053
-0.053594590336611014 0.10530847028328591 0.046726281114325086 0.12126077032563254 -0.10067497259249045 -0.10787206603860097 0.11454931297526225 -0.053962117149279815
-0.10131956462316619 0.10780034960609577 0.10499116122411853 0.05590664058190495 0.022118255141657245 -0.08306942687754046 -0.0638286473602756 0.059554771140190615
-0.01674054037964509 0.032374699876883045 0.04864569834736118 0.1147245142949446 -0.12136891298027594 0.024390180122323052 0.06480346538893134 0.054552919445949755
-0.08475525826889635 -0.07553318515275104 0.09022178459786576 0.12377974034618824 0.03273763267787688 0.01826703453199474 -0.04191589228969389 0.08394692355474218
-0.11289829612726257 -0.059099905325494195 0.03819089271141135 0.021205964642644376 -0.11392575409547842 0.02131744213444972 0.0391971587717633 0.12103329322931863
-0.08982154705437034 -0.10240344598648637 0.08049099086294861 0.00010036048000766629 0.09638050515118182 -0.12257652660164484 -0.05313401693634098 0.024310620676478045
0.041794421175217145 0.029541892410096526 0.11784398302061663 -0.059712596845760774 0.04390896898289162 -0.07593152505635875 0.01951001344344941 0.09549679902191224
-0.12321485742516253 0.02919321245376208 0.11659457325754793 0.017404425226958592 0.036349501611151025 0.0973299985606429 -0.08901951183988227 -0.006900709386985698
-0.012544150459054576 0.050207157914950645 -0.09457034352040533 -0.05993603688485727 0.010738214579214922 -0.12498156129896412 -0.017218822022567026 -0.08665593405275188
-0.1121067183075875 -0.015391503024256376 0.09278125000218942 0.07578344075137017 -0.10419335879669095 -0.021473355109625586 -0.04675844347988786 0.032893632140631346
-0.1067714703362923 0.013489840369613093 0.09056125453962796 0.038528401504528964 0.031105286375570113 0.062044797426312776 0.12433209386161559 -0.024073780809122508
-0.1151703850188518 -0.12343052769601795 0.04173224585693347 -0.12290410397154583 0.12293508051711752 -0.06284614513934342 0.07228546152713464 -0.08438639841280193
0.05521267390212997 0.12308253801145752 0.031378780124896755 0.06777825577897945 -0.020487553833498207 -0.015931677572339986 -0.05468199408234972 -0.011615463470686399
0.0477401588154136 -0.02396455824199753 0.10493277549450952 0.10368094484613702 0.07016282061360407 0.05457782138135822 -0.11452012024696495 0.10742436178141507
-0.04173679601708585 -0.12390439580240395 0.08171385729217567 0.014347238026554576 -0.1029845093506141 -0.10060721966351208 0.06434166387688453 0.03704356041435988
0.12041724770964785 -0.04009351388316845 0.02639512612659492 0.11854706114713703 -0.036834576111701434 -0.07470933446530614 -0.03681489148429257 -0.11778772113807007
0.07920961853828651 -0.04374928199925948 -0.09928828895810071 -0.11141256144416503 -0.07040665781621794 -0.00920702557012304 0.07381603160150463 0.0919895358066456
0.03650118878808015 -0.018600142097195654 -0.01783809795107355 0.08774791373937235 0.005004652876166582 0.04815059172461397 0.09458632354892474 0.06839959572040946
0.05736703499087606 -0.04512307402763255 -0.05297201098781312 0.005151902259149105 0.023156870705976496 -0.004561680598012013 -0.05245862240952165 -0.013936708757275318
0.11259783607303928 0.06070477679086489 0.02081408419908487 -0.08795165541432359 -0.11638501338373475 0.05361673151799923 0.07773972245036068 0.013442429799890715

decoder_in.bias f8 [4]
00000000: ba82 0cd6 73ea b63f 00c9 79d4 782d 40bf
00000010: d0fd b22b 9ffd a2bf f0c3 f2f4 2228 a23f
0.08951496101191028 -0.0004937019338753512 -0.03709123047292062 0.03546246757594662
