checkpoints/TCN.NINO.0324113315.pth (torch_old, 64541 bytes, 37 tensors)

input_T_transform.weight f8 [76, 64]
0	0x3f8cb127ff9e02e1	0.014009773720091658
1	0x3fbdc1dd19a59bbb	0.11623937488694384
2	0x3fb8b0de6d698a39	0.0964488045806683
3	0x3faa3fa96f709818	0.05126695142125487
4	0x3fb13eb8016ca6e8	0.06736326250816271
5	0xbfbb9bb209c37e5c	-0.1078444742047337
6	0x3f95f79ffd90db19	0.021452426768713815
7	0x3f8c1b493f969736	0.013723919156131009
8	0xbf7a317a25020e97	-0.0063948413154581085
9	0x3faca9fe364d48ac	0.05598444378723974
10	0xbfb84e532ea7d5f5	-0.09494514359524671
11	0x3f89c84f2f59364e	0.012589090950451933
12	0x3fb81337330645a5	0.09404320712771737
13	0xbfb98400d2c942be	-0.09967045923373072
14	0xbfa5d1c529a87d39	-0.042616044364189816
15	0x3fbdd0b00718302c	0.11646557019429399
16	0x3f960ac2a84ce72d	0.021525422594300615
17	0x3fb0cd122c1eba0d	0.0656291349139126
18	0xbf98cc0f0fe4624d	-0.024215922684648828
19	0xbfb99066852d5fd9	-0.09985962630651048
20	0x3fbaf08bb703db8e	0.10523293703214007
21	0x3f97ee44f7822a67	0.023369863135068416
22	0x3fb815e3cdbbdebc	0.09408401272582528
23	0x3fae1efe9a2b16fc	0.0588302195733785
24	0x3fbf4fd3fdd476a9	0.1223118300153724
25	0xbfb8873e17cd5e81	-0.09581363755330054
26	0xbfbb2ddda10c112f	-0.10616860563101647
27	0x3fb3d8f672b5a526	0.07752933788801339
28	0x3f9f1dd4953b9946	0.030387231453368878
29	0x3fb2deacf93e4527	0.07371026120224099
30	0xbf99beef8a792529	-0.025142424418196505
31	0xbf97cc94d60b4c81	-0.023241353573052684
32	0x3fabe9a98e68073e	0.05451707709654706
33	0x3fafe5997030a852	0.06229857916362448
34	0xbfa1084898344ffd	-0.03326632364237978
35	0xbf91e12d29c2e23d	-0.01746054236784488
36	0x3f9f647b8bcc3453	0.030656748206684913
37	0x3fa89d1832aae7cc	0.04807353609562845
38	0x3f7391136ee9dfaf	0.0047770270453994365
39	0x3fbe74191ec5a924	0.11895901681206006
40	0xbf74180cc0fbccff	-0.004905748195358272
41	0xbfb2dfc2a16246b8	-0.07372681083713928
42	0xbfb39272e48ad433	-0.0764533813442803
43	0x3f8a180e73d8cc7e	0.01274119654690353
44	0xbfb08d7334411382	-0.0646583559583416
45	0x3fbd79e286ace1f9	0.11514106548282389
46	0xbfb04cbd5b6fd300	-0.06367095453590466
47	0x3fb755b1b5ddfaf9	0.09115133943667421
48	0x3fc0a7e22c475b34	0.1301233974652064
49	0xbfa0f0d663d6ca8f	-0.03308744400728358
50	0xbfb5566480e2cbc0	-0.0833494963324446
51	0x3fbe334dfd09d032	0.11797034671491316
52	0xbfb817b0d61919fc	-0.0941114924145054
53	0xbf8a2771ba7e1c25	-0.012770546439936645
54	0x3f8daa9564e5cac6	0.014485518590594448
55	0xbf99405e5d25bedf	-0.02465960925604704
56	0xbf97e93aff981caa	-0.02335064110777966
57	0x3ef2daa994da1c1c	1.7980718715306888e-05
58	0x3fa3af53dc6885a5	0.038447018294628856
59	0xbfac16d76b1fbfd0	-0.054861766649878185
60	0xbfb79e1dd3285e1c	-0.09225641637055343
61	0xbfb4db9416537f3f	-0.08147550149032855
62	0xbf770c39d766e2f4	-0.005626893942854084
63	0x3fb382b8b7504313	0.07621340251376933
64	0x3fb9320320efb659	0.09841937593565699
65	0xbfb2a3fb3a50ae3b	-0.07281465696058202
66	0x3fb0cb043bdc37fe	0.06559778653556234
67	0xbfae0a875c1e7c77	-0.05867407798290796
68	0xbfa6e8cbe7e16508	-0.044744846397131666
69	0xbfadafedfefa33de	-0.05798286187664535
70	0xbf7c2e439d637e9b	-0.006880058403310986
71	0xbfbc717bde1c5fcf	-0.111106626249579
72	0xbf9f6119648e2367	-0.030643841516880068
73	0x3fc117e11b40f2f7	0.13354123907802037
74	0xbfada87cc59ffdd6	-0.057926081775800206
75	0x3faaf6b68ed845c7	0.05266352170668714
76	0xbfb00a6529334e9b	-0.0626586175524672
77	0xbfb75bc46c1df9a4	-0.09124400748803524
78	0x3faa4f5818b71456	0.05138659764956148
79	0x3fb9e452f7261950	0.10114019903094129
80	0xbfa52b80b744afbd	-0.04134752499734826
81	0xbfaebefa2574cb82	-0.06005078990201353
82	0xbfadc71563d38357	-0.05815951198179075
83	0xbfb0087f4d707e04	-0.06262965813265714
84	0xbf8401bb1ba99e97	-0.009768926412291363
85	0x3fb2425237f3cab9	0.07132448068640941
86	0xbfb05f08b574e981	-0.06395010404677316
87	0xbfa9861b1cfbd68e	-0.04985127190404369
88	0x3f95d4735680dbdc	0.021318246989007736
89	0xbfb588ed02095da1	-0.08412057208749114
90	0x3f8a457bf9d4f500	0.01282784324814168
91	0xbfa3bdd2996c14b2	-0.03855760691480138
92	0x3f8e3023c5135cfc	0.014740256740351836
93	0xbfb0f830ae90dcfa	-0.06628708135473352
94	0xbfa0770129adb2ff	-0.032157932603558585
95	0x3fb31c159600bd5e	0.0746472827165596
96	0xbfb33080841d6d42	-0.07495883202993972
97	0x3faeebfe7d82fd44	0.0603942421162125
98	0x3fb2ee51b8785dc1	0.07394896272341268
99	0x3fbeac0a74570ae2	0.11981263485271712
100	0x3fc1639084b1f371	0.13585096816305112
101	0x3fb15aa7281c3841	0.06778950433019394
102	0x3fc12511a3a47a03	0.1339437531505184
103	0x3f90703682e66e92	0.016053058375844538
104	0xbfbc71cc15f90157	-0.11111140762750914
105	0xbfb0377efca47930	-0.06334680240658908
106	0x3fb2d0aa4d1340a8	0.07349647886008148
107	0xbfb85f44e749da00	-0.09520369192782852
108	0x3fae4148b562534f	0.05909182752762964
109	0x3fc17839fbc32476	0.1364815215404495
110	0xbf931a3ee67f70b5	-0.01865480691763884
111	0x3fafe9cea70597d9	0.06233068264809533
112	0xbf9d5b42f087229b	-0.02866844742837547
113	0x3fab26b76d7fc0e3	0.05302975856455008
114	0x3fae306db9f18679	0.05896323103730778
115	0x3fb3994eb253391d	0.07655803540840052
116	0x3f93dcd93878b8c7	0.019397157737494532
117	0xbf76cd08f146267a	-0.005566630298184822
118	0xbfa2645117d52e67	-0.03592160621573442
119	0xbfb70632053d2069	-0.08993828418636131
120	0xbfa511820903b1a5	-0.04114920005835935
121	0x3fba86abdfd47bab	0.10361742224311736
122	0xbf9827273386d431	-0.023586857337893178
123	0x3fbcdc2d5f571265	0.11273463800086743
124	0xbfbcbce6d86d742b	-0.112257411803015
125	0x3fb192f3d659cbea	0.06864856703923264
126	0xbfbee38f6de12e26	-0.1206597941647308
127	0xbf81814a398f586d	-0.008547382241811808
128	0xbf878830f89e63c3	-0.011490233027687929
129	0xbfb05b4db24ada5a	-0.06389318087426812
130	0xbfa250af5a51fa34	-0.0357718274835758
131	0xbfa3df8e6b87f57f	-0.03881497442851422
132	0xbfbc64ddb5b0e498	-0.11091409383597506
133	0xbfb2b7ca7457a2ec	-0.07311692562474165
134	0x3fb8cf0b8aaa7952	0.09690925727270397
135	0xbfbff6011e26a191	-0.12484747873407388
136	0xbfa0d756b39792f0	-0.03289290373121456
137	0xbfa8e49eceb3df0a	-0.048619234783414525
138	0xbfb0b72491749d4a	-0.06529453803215293
139	0x3fb68a48c3b5b51f	0.08804754999228635
140	0xbfbd7d0b2d5e744c	-0.11518926484718967
141	0x3fb51d6c6ddd1458	0.082480217764059
142	0xbfba2e2c5eb0f092	-0.10226704894825137
143	0x3fa79f519aafc2d8	0.04613738072646861
144	0x3fa4dca619e383a1	0.04074591699623587
145	0x3fa27cfa801706e0	0.03610976041410452
146	0x3fafef4ddff5de22	0.06237262114421706
147	0x3fa53fcde7c06417	0.041502413310986856
148	0x3f733e99a66e4ba4	0.004698372073920352
149	0x3f9e6ffb9cef03af	0.029724055722684713
150	0xbfbbe2e2ac190fdc	-0.10893074704750866
151	0x3fa4e506616761e3	0.04080982150088965
152	0xbfa20485a7648618	-0.03519075077407424
153	0xbfbc8c3b6501f5e6	-0.11151477066046986
154	0x3fb92eac81e91100	0.09836843654290206
155	0xbfb846592579fda1	-0.09482342877344375
156	0x3fb034e0cdcd031a	0.06330685638841907
157	0xbfa68d9434711985	-0.044048911477648146
158	0x3fb8264ee8ccf686	0.09433453734978955
159	0x3fbd03b60e18433f	0.11333787769423241
160	0xbfa765e53fa39fa8	-0.04569927598805573
161	0x3fb12644ec645fc0	0.06699019213954127
162	0x3fa02bbeaf3b9ccc	0.03158374680588735
163	0xbfb1536161d1273b	-0.06767853391752691
164	0xbf99d4f6037a5be0	-0.02522644420841036
165	0x3fb4cb48cf647043	0.08122687400140287
166	0xbf9b49d68582140f	-0.026648857020081403
167	0xbfa17a1b74067bcf	-0.03413472930264271
168	0xbfbd9426b707a298	-0.11554185837270337
169	0x3fb22825bfee36f4	0.0709251016216646
170	0xbfae72f363a1ae29	-0.059470754539543265
171	0x3fa5817ba57da292	0.04200350184584524
172	0x3f9f864053199255	0.030785565444960323
173	0x3f7073eb7f2f76b4	0.004016799840398089
174	0x3f49d468e6c86355	0.0007882606710750509
175	0x3fbba3e837e212af	0.10796977390607297
176	0x3fb4bd11b5db0c81	0.08100996675334395
177	0x3f823c1b196ee4da	0.008903705323847811
178	0x3fab704b236392c6	0.05359110648149605
179	0x3fb327310b1c4eeb	0.0748167659879148
180	0x3fa8646840d0ec81	0.04764104644024148
181	0xbfba15e41f17cf98	-0.10189653166872714
182	0x3f8adafdc3c67341	0.013113005196652263
183	0x3fb6ad6a5babc768	0.08858360994397929
184	0xbfafcfb1e8176251	-0.06213146169801987
185	0x3fb98d81a1e2f32b	0.09981546594913186
186	0x3fb1b74d5b18ae79	0.0692032191661215
187	0xbf99d4b33a13a839	-0.025225449008680043
188	0xbfbc3c192566ef6d	-0.11029202616822227
189	0xbfadecc78ffba5a4	-0.058447109533356995
190	0xbfc14a33db142e1c	-0.13507698247154643
191	0x3fb06662b2aed11c	0.06406227934241254
192	0xbfb7fd868c1d58e9	-0.09371224327819373
193	0x3fab10bdbda4bbf8	0.052862100028839565
194	0x3fbb20f44c9030bd	0.1059715926095945
195	0x3fb041f451265401	0.06350638371652907
196	0xbfa56caa715c7249	-0.04184467920115204
197	0xbfc0bfbff3525dff	-0.13085173970169703
198	0x3fb7cd5560704b6f	0.0929768906064916
199	0xbf8cc16c1b23fc5c	-0.014040798738731812
200	0xbfb8eeee10b6a721	-0.09739578159374364
201	0xbfa2d80358a11ebb	-0.036804298943534396
202	0x3fade47ed9b19efe	0.058383907388643394
203	0x3f87bcd72bfebaa9	0.011590653448221149
204	0x3fa360e976599a0d	0.03784875459387047
205	0xbfad53bcc700b9e8	-0.057279490749681916
206	0x3fab83be37213cf7	0.05373949454280507
207	0xbfb1f2078ccd1152	-0.07009932696843649
208	0x3f838f33ac6d89c0	0.009550479602414508
209	0x3f651037383887ac	0.0025712088115747624
210	0xbfb6d74cc2c83568	-0.08922271495267398
211	0x3fb371e9af76d989	0.07595692189975102
212	0x3f98d58e4f8dde21	0.024252151113129842
213	0xbf805c86283fe3ce	-0.007988975623435392
214	0x3f7f4de372374554	0.00764263960032115
215	0xbfb80bcd19f61c55	-0.0939300716764689
216	0x3f862a185dd89a5d	0.010822477687793592
217	0xbf88918f9139b6a1	-0.011996385211399842
218	0xbfba4fc92c5d6962	-0.10277993519904308
219	0x3fb75bc57ac20c3b	0.0912440705015322
220	0xbfaf2ccc648b9202	-0.060888659738143516
221	0xbf7acd4358fd8e5d	-0.006543410374294814
222	0x3f82fa16960f870b	0.0092660679383161
223	0x3f6c6bd794c2b756	0.003469391877010712
224	0x3fb67639dab947c7	0.08774148549971904
225	0x3fb051d89956ca74	0.06374887221935827
226	0xbfb32a21306e0418	-0.07486159736983244
227	0xbfaf4ca1f41df50d	-0.061131535577240916
228	0x3fb63c770fd55948	0.08686012398297749
229	0x3fbec5d2fb60fd89	0.12020605694941912
230	0x3f6d43f991103dc8	0.0035724520062172284
231	0x3fa67a6de91e2f28	0.04390281172444893
232	0x3fb8639d16ba0912	0.09526998333788964
233	0xbfa8eb5f072c4ba0	-0.048670739770521054
234	0xbf88465ba28ebb98	-0.011852947138178568
235	0xbf7bb95af1dbd4ad	-0.00676856541916952
236	0xbf95b3dc5bf0b2dd	-0.02119392691763521
237	0x3fb0dbdbc0b23e41	0.06585477308748812
238	0x3fb05c265bf8fcbf	0.06390609498429266
239	0xbf734fd2aa099976	-0.0047147969313300255
240	0xbfb045efe2bc39cc	-0.06356715474632962
241	0xbf9d5f69bc3ce756	-0.02868428431904787
242	0x3fb295e73d81bb0c	0.07259984256391422
243	0x3f9ab8e222e15089	0.026095898989595887
244	0xbfb7c5ce2a8a562b	-0.09286201990683966
245	0xbfb79ebee52dd17e	-0.09226601691427125
246	0xbf87657e8542c903	-0.011424053613471324
247	0xbf95b6cfd442fe24	-0.021205184297967375
248	0xbf8c5acc7753ee3b	-0.013845059768292525
249	0xbfab3f3aeefef3a8	-0.05321678321295248
250	0x3faae2cc4a3c2479	0.052511581479913035
251	0x3f9f4ddab978ffba	0.030570428438522625
252	0xbfa591170e60e7ac	-0.04212257433432795
253	0x3f99407a541db97e	0.024660025962867753
254	0xbfb7bac65b783417	-0.09269370778220352
255	0xbf81fcd7138360e9	-0.00878303554820588

input_T_transform.bias f8 [76]
0	0xbfa4bc522a3cec28	-0.04049927487945865
1	0xbfa45c8f24129dbf	-0.03976867022839369
2	0x3fbe7508079f965b	0.11897325693242904
3	0x3fb7129d498dc2b9	0.09012778325792227
4	0xbf9d502d01ae87ab	-0.0286261589313949
5	0xbfc2df1802fa1395	-0.14743328233103328
6	0x3fa82a5ce13b49e5	0.047198202604380936
7	0xbfc20d58675d39a9	-0.14103226706579378
8	0x3fb275c07ef734bc	0.07210925197360302
9	0xbf8b89528cad2da8	-0.013445515554528623
10	0xbfb84aa545f23832	-0.09488900144262472
11	0x3f812c1a79ece922	0.00838490185343638
12	0x3fbcdbcd30b33b6f	0.11272890509574805
13	0x3fb5aabc42a019db	0.08463646532627626
14	0xbf93e73307be7fb5	-0.019436642978348313
15	0x3fb71f13eddfc603	0.09031796033357158
16	0x3fa1c2446a9a36c2	0.03468526650713734
17	0xbfbb333ed22e722e	-0.10625069266684115
18	0x3fc2ed05f89e02d3	0.1478583778334924
19	0xbfa3018221316f31	-0.037120882560627406
20	0x3f943a09cf44da04	0.01975264861649785
21	0x3fa1b08a493c71c9	0.03455001968379496
22	0x3fc0bf896b6fcb2e	0.1308452391236527
23	0x3fb8aa990c936bdd	0.09635311657932229
24	0xbf9f39c6359e0746	-0.030493828794994536
25	0x3fbcc43723a22e7f	0.1123690092082885
26	0xbfb7adf92d71bfa1	-0.09249837264519424
27	0x3f7e39e570d7940a	0.007379432919582216
28	0x3f94b79c8ce1d5f0	0.020231672381177235
29	0xbfb49c7f7a955dde	-0.0805129694248232
30	0x3f9dd15859939306	0.029118900744737018
31	0x3fb3173b9ab0237f	0.07457325483859555
32	0xbf95fd2ce91b92a5	-0.021473600127949983
33	0x3fb5140b2538a321	0.0823370900985876
34	0xbfaa225278261378	-0.05104310719165189
35	0xbfc53772628ba2a1	-0.16575460254468502
36	0x3fb4913a192c8094	0.08034098734470013
37	0xbfb16cd8d026d793	-0.06806712228612204
38	0x3f813cd9fd662a15	0.008416846318842134
39	0xbf9331b0d0b5a26d	-0.01874424241887811
40	0x3fb8f4482477f1ca	0.09747744455666588
41	0x3f9d0252ac2b5bb5	0.028329173811325343
42	0x3fb9f87708babf16	0.10144752467271831
43	0xbf86013b6572f2e3	-0.01074453738544307
44	0x3fb646303f52ab01	0.08700849100084086
45	0x3fb2e0c929149df4	0.0737424588484073
46	0x3f9ff4d199e1599b	0.031207346932512797
47	0xbfc13a9e2b641f5b	-0.1346013748045561
48	0xbfbf377d51d190a8	-0.12194045302891487
49	0xbfb26c4513fa7957	-0.07196456659082649
50	0x3fb8d79d3013e5fc	0.0970400087716356
51	0xbfb4e3b128c2077e	-0.08159930462900708
52	0x3fb89f00a1216e67	0.09617618497707668
53	0xbfb8454aa625b77f	-0.09480730587321594
54	0xbfbe1d291165adc8	-0.11763245272384559
55	0x3fb7dc27c13ceee0	0.0932030531666288
56	0xbf97d2b20a8ccdd1	-0.02326467694656548
57	0xbfbfaa03aeced403	-0.12368796365520045
58	0x3fa668bddf80bf95	0.04376786568934602
59	0x3fba2af9c678387e	0.10221825690698158
60	0xbfbfeae7ef67eedd	-0.12467813105461852
61	0xbfb237c7132a7b6e	-0.07116359918516732
62	0xbfb88e77e52e2b12	-0.09592389435981044
63	0xbfa70ac05307051b	-0.04500390065687495
64	0xbfb2ca6f21134e29	-0.07340139920716439
65	0x3faf635d89c7edc7	0.061304972714391996
66	0xbfbd7b4cc29ec5f3	-0.11516265632123872
67	0xbfb69773d57b1056	-0.08824848138743965
68	0xbfa43bb260872aad	-0.039517950328066355
69	0x3f97a0e933ff67b0	0.023074764059721253
70	0x3fbb48073af20c00	0.10656781376933111
71	0x3fb15f25394525c1	0.06785805366703014
72	0x3f7a9c7120c01331	0.006496850877742586
73	0xbf8c4b033946bf6c	-0.013814950166164151
74	0x3fa9a71c2d71d6fd	0.050103073642203434
75	0xbfbab78e30c495f8	-0.10436333361266026

conv0.network.0.weight f8 [1, 1, 3, 1]
0	0xbfd7c1fbec74dc24	-0.37121484843686603
1	0xbfd9b3518661e429	-0.4015697300270085
2	0x3fcb739c75c5d6f4	0.21446567297578378

conv0.network.1.weight f8 [1]
0	0x3fca6395188249d4	0.20616401383138216

conv0.network.1.bias f8 [1]
0	0x3dc35e4c8ef338b2	3.52308337614117e-11

conv0.network.1.running_mean f8 [1]
0	0x3fca8e3228c3a86e	0.20746447554057873

conv0.network.1.running_var f8 [1]
0	0x3fd35382f1e57edd	0.30197213766767367

conv0.network.2.weight f8 [1, 1, 3, 1]
0	0xbfdd962b91c214f2	-0.4622906611842402
1	0x3f82536adeb7ad90	0.008948168679998841
2	0xbfd8fc666c412c64	-0.39040527889000587

conv0.network.3.weight f8 [1]
0	0x3fdcd50e7362f256	0.4505039336034192

conv0.network.3.bias f8 [1]
0	0xbfa1352ad4d9155d	-0.033608759386462884

conv0.network.3.running_mean f8 [1]
0	0xbf6675e597d268ea	-0.002741764472898746

conv0.network.3.running_var f8 [1]
0	0x3f91eccf524553bf	0.017504920383845986

conv0.network.4.weight f8 [1, 1, 3, 1]
0	0x3fc2a56ac6c9533d	0.14567312914246058
1	0x3fdecc9632894e2b	0.4812369817275079
2	0x3fd68d44121c8c27	0.35237218636229034

conv1.network.0.weight f8 [1, 1, 3, 1]
0	0x3f63a6f429d60c35	0.0023989456955759944
1	0x3fb1df57d218a07d	0.06981419448186617
2	0xbfdadff10037e76c	-0.419918298924691

conv1.network.1.weight f8 [1]
0	0x3fdd439ed71da82e	0.45725222594649295

conv1.network.1.bias f8 [1]
0	0x3da7c5bf27a82c56	1.0810457771389317e-11

conv1.network.1.running_mean f8 [1]
0	0xbfad53e9b44e13d6	-0.05728082967747354

conv1.network.1.running_var f8 [1]
0	0x3f94b7185d5145b3	0.020229702659269665

conv1.network.2.weight f8 [1, 1, 3, 1]
0	0xbfcf3a134b07a172	-0.24395981944622808
1	0xbfc028092bef62f4	-0.12622179646748288
2	0x3fc464a79f644260	0.15932173998637023

conv1.network.3.weight f8 [1]
0	0x3fd1144c0c4ec84e	0.26686383439949146

conv1.network.3.bias f8 [1]
0	0x3fa2ca451a29948e	0.036699447101264146

conv1.network.3.running_mean f8 [1]
0	0x3f87c4d2dd5f051f	0.011605880146705659

conv1.network.3.running_var f8 [1]
0	0x3f919bbf6699a777	0.017195692670078224

conv1.network.4.weight f8 [1, 1, 3, 1]
0	0xbf836da44a21012e	-0.009486468803630101
1	0xbfddc7cf22349410	-0.46532038059587055
2	0xbfd9ae2ee90b7a8f	-0.401256301482058

conv2.network.0.weight f8 [1, 1, 3, 1]
0	0x3fd82456213a5031	0.37721780056859006
1	0xbfbffbe7162b10f2	-0.12493747988907325
2	0x3fe08bb3ca224648	0.5170535037925186

conv2.network.1.weight f8 [1]
0	0x3fe5123d4b01443d	0.658476492399252

conv2.network.1.bias f8 [1]
0	0x3d9168bbb0b377a9	3.958374219509479e-12

conv2.network.1.running_mean f8 [1]
0	0x3fbb379f8629e2b0	0.10631749177435768

conv2.network.1.running_var f8 [1]
0	0x3f9b746a413bb52b	0.026811275702972964

conv2.network.2.weight f8 [1, 1, 3, 1]
0	0x3fb3708e92a6967a	0.0759362323793428
1	0xbfccaf9fd2ec3655	-0.22410962866745146
2	0x3fda7c5e74f693ef	0.41384087965189925

conv2.network.3.weight f8 [1]
0	0x3fdfe63fd1639264	0.49842830131664173

conv2.network.3.bias f8 [1]
0	0x3fa2732ed34d55ff	0.036035025876724795

conv2.network.3.running_mean f8 [1]
0	0xbf684bea99369483	-0.00296588726060293

conv2.network.3.running_var f8 [1]
0	0x3fabeb551a260e53	0.054529818956350916

conv2.network.4.weight f8 [1, 1, 3, 1]
0	0x3fe0d99a65957532	0.5265628799494719
1	0xbfe065dfe76d7dd1	-0.5124358673164641
2	0xbfbbfc52ccc4811d	-0.10931890010079255

out_linear.weight f8 [16, 136]
0	0x3fb043bf55fc2f23	0.06353374337430444
1	0x3f9d03d9ce1fde34	0.028335002141800028
2	0xbfa8b7554e03b737	-0.048273721478706504
3	0xbfb750aa9190ed15	-0.09107461980686467
4	0x3fa259f83092a223	0.03584266274384997
5	0x3f8d21c3b7f16a50	0.014224556971545926
6	0x3fa9e43d405944a6	0.050569452385965705
7	0xbfaabc60cfcc7526	-0.052218461385772394
8	0xbf9970f4098bcbd6	-0.02484494503273623
9	0x3f9c3c50125b1cc7	0.027573824997287468
10	0x3fb62dbc5d6eb457	0.08663537293496525
11	0xbf870a1ed52d3148	-0.011249771957999713
12	0x3fb89e60c67e8e19	0.09616665693334205
13	0x3fb0208445ea06f7	0.06299616534127127
14	0x3f9febfa4ab0463f	0.031173620995167402
15	0x3fa08779cdbbefb5	0.032283598293332195
16	0x3fa73ee800df4502	0.04540181170126269
17	0xbf8feddad0ec6bce	-0.015590390683021395
18	0x3fa1540c06027d9a	0.03384435246811819
19	0xbfa636d3b085e8df	-0.043387046144703005
20	0xbfe1a1fa0b7ea809	-0.5510225510126939
21	0xbfc9c687d787b84f	-0.2013711740868893
22	0x3fbb35498db096e3	0.10628184994910898
23	0x3fd7330eff8545ee	0.3624913688009589
24	0x3fab6f388d9b9c38	0.05358292320834618
25	0xbfb0d98bcbd37972	-0.06581948972914178
26	0x3f9cbbc2829d4513	0.028059996816698417
27	0x3fafedf729eea13f	0.062362407559080506
28	0x3fc5dbce3a896886	0.17077043398132136
29	0xbfa1977219c657cf	-0.03435856403954995
30	0x3fa5bea747981546	0.04247019528342348
31	0xbfac86cb0fa5b5e3	-0.05571589056021844
32	0x3fb963bb67b7dc12	0.09917804033453617
33	0xbf599cd398bc49a0	-0.001563269269301594
34	0xbfc0d1ad2d23219e	-0.1313988180538787
35	0xbfa54760b4b0f9d4	-0.041560194069905215
36	0x3fac0a987a6aba7e	0.05476833814951919
37	0x3f7374d44196beeb	0.004750088811689794
38	0x3f66c9122fb2300f	0.002781425018445922
39	0x3f8c740ab36e2446	0.013893207169319532
40	0x3fc3e3b76e99d0a3	0.15538685703689223
41	0xbfb13ed2e9a7a0c7	-0.06736486629927461
42	0xbfb3d452df6d7124	-0.077458552882892
43	0xbfa37960184286fd	-0.038035395585451305
44	0xbf8b97c65fa587c1	-0.013473081392195387
45	0x3f923049f5d2c15f	0.017762332562314295
46	0xbf8c1820ac0ae827	-0.013717894792865405
47	0xbfa001d3613079e1	-0.031263928998885644
48	0xbfb9f81bafd26a8c	-0.10144207994964399
49	0xbf91232462a8d982	-0.016735619088842586
50	0x3fb6563b6814a1aa	0.08725329676656793
51	0x3f7798674b6f6d15	0.005760577673721974
52	0x99c4552ed46eb78a	-1.4953701188565737e-184
53	0x99b1c4146f6ff530	-6.532971810878633e-185
54	0x19d3950a3bb0d9ff	2.880340723093497e-184
55	0x998164addabb833a	-7.994919912090658e-186
56	0xbf70e397f50f5787	-0.004123300154750604
57	0x3f9e5312216b3cc2	0.02961376503918412
58	0xbf9aac8870ef162c	-0.026048786061229887
59	0xbfa08f1203a8466c	-0.03234154028554034
60	0x3f99c8b474d814f1	0.025179690963359872
61	0x3fb187c52cd5b713	0.06847793907737935
62	0x3fb571bf8ed49365	0.08376691090650253
63	0x3f87ecf2f6d74004	0.011682413251861597
64	0x3fc515bc15e1e5c2	0.16472579067685272
65	0xbf88433cf5e4531d	-0.011846996549630224
66	0x3fb74db758b1c1ca	0.09102960505857208
67	0x3f9f6e8210fcc639	0.030694992338970748
68	0x3fb65e7c00cd3ae8	0.08737921733448284
69	0x3fb1c6dcd4ba75d0	0.06944065278590661
70	0x3fb61643dc12c5f8	0.08627723811039079
71	0xbfa0ddb7fc79561b	-0.03294157940824168
72	0x3f887a2af50589c8	0.011951766588656279
73	0xbfa7feb65d213225	-0.04686517607533273
74	0x3fa10e6fd59439b1	0.03331326944509117
75	0xbf7b786d70f2f7fd	-0.00670664549323696
76	0x3fb0ee9dba03fae7	0.06614099303622432
77	0xbf95a2bfdbc5091e	-0.021128652371097727
78	0x3f80a2a69f57f8ac	0.008122731912404944
79	0x3fafa794927c9339	0.06182541168371931
80	0x3fac99d30d1f52dc	0.05586108718094859
81	0x3f9b8153964127b0	0.02686052898960839
82	0xbfb3a3059a735192	-0.07670626660121219
83	0x3fa37951af3ff67c	0.0380349661281629
84	0xbf9a2e92b4425568	-0.025568287136214535
85	0x3f9a2999ee9e4249	0.025549321354960495
86	0x3fa15b06e7827525	0.033897605667542664
87	0x3f8776255bb84526	0.011455814229551619
88	0x3fb1adbf2161148d	0.06905741276666984
89	0x3fb0f1540badaaa8	0.06618237767330959
90	0xbfb7be59ff801e9c	-0.09274828422359821
91	0xbfa279631d04c4e8	-0.03608236054641073
92	0x3f9bc59489426744	0.02712089622273274
93	0x3fb1869ca1f589a3	0.06846026376800877
94	0x3fb07ba4a7189b2b	0.0643866451215273
95	0x3faeb7e38a3720c6	0.05999671041678449
96	0xbf9ff24c90c931d6	-0.031197735154181526
97	0x3f45ee6da900625e	0.0006692920160303419
98	0xbfaaeeb4d3cfb101	-0.052602434974547314
99	0x3f978ed125c7c4c4	0.023005741053513842
100	0x3fa5dcf4981226ef	0.04270138126692113
101	0x3f9d48f14ac4cdde	0.028598566235087712
102	0xbf636eb256f6240a	-0.0023721202084670033
103	0x3fa42fe5d64d8735	0.039427931222930125
104	0xbfa02ceecfdb33d3	-0.03159281050975662
105	0xbf9255cac3808266	-0.017905395681852808
106	0xbfb5f24f2020e424	-0.0857285932005572
107	0xbfaee359c5c995c4	-0.06032829799077491
108	0xbf82366c7714c57a	-0.008892867454593601
109	0x3f9198962f8f9f03	0.017183634426969806
110	0x3fa4e065fed4e744	0.04077452407587015
111	0xbfa084ca5d3b7ef7	-0.03226311100092787
112	0x3fb88117b574e461	0.09571979694455159
113	0x3fafff33e3383628	0.06249391697575063
114	0xbfad68c1aaf22041	-0.05743985378018169
115	0x3f8c6d56c0b9b416	0.013880422359955385
116	0xbfa1f85e20c95b38	-0.035098020078910996
117	0x3fa6961db8b0253f	0.044114044947557655
118	0xbfb0f4f3419894d5	-0.06623764373269421
119	0x3fa5a93dccf557ec	0.042306834477741834
120	0xbfb65eb2abca1fd9	-0.08738247579651616
121	0xbf9de79b441fe59d	-0.029203821213717885
122	0x3fb0f3c2cb1d95f6	0.0662194963348027
123	0x3f9feaa5b1c2e071	0.031168545698819054
124	0xbfa3ceaaf00aece2	-0.03868612461288891
125	0xbfa633b9b8d0d9cc	-0.043363384066129024
126	0xbf806fe0931e481d	-0.008025888910001605
127	0x3f7a49a7b95e3bed	0.006417899296038404
128	0xbfb9aa37137daf6c	-0.10025352693417994
129	0x3f684922f4c3ec48	0.0029645617233860257
130	0x3f90b4e6806a0c05	0.016315080249579967
131	0x3f9b4a4e9291cc05	0.026650645919698252
132	0x3fba1c09a5820cd1	0.10199032107088903
133	0x3f730c1ff3952f56	0.004650234995391708
134	0xbfabb7705b6788f5	-0.05413390270020272
135	0xbfb0c935e6dd181d	-0.06557022939986763
136	0x3fb7794455ead3eb	0.09169413659658658
137	0xbfa591c5f7f6c7da	-0.04212778713134897
138	0xbfa532d241f7ef93	-0.041403360894008
139	0x3faf7378bbcde4fd	0.06142785351307543
140	0xbfacc2f3a606b0b2	-0.05617486383138849
141	0x3f68d7004b5f75ae	0.0030322080374236204
142	0xbfa49c350d8f61be	-0.04025426664856323
143	0xbfa6ad9fb3bb352b	-0.0442933947466407
144	0x3fb1666ee58222c5	0.06796925643187553
145	0xbfb2738130453191	-0.07207496098016565
146	0xbfa17976e4cc61fb	-0.03412982504795888
147	0xbf816b57e9876855	-0.008505522550809422
148	0x3fb3e4f94f104141	0.07771261387120366
149	0x3fb438dc7d947916	0.07899263444821644
150	0x3f7c7a8108e7c511	0.006952766458639973
151	0xbf81795390eb3c21	-0.008532193050454552
152	0x3fb049d12f115b48	0.06362635993114651
153	0x3fa2c398d584b515	0.036648536743408545
154	0x3faa96d208901a62	0.051931918664241974
155	0xbf97f559dc2d5317	-0.023396877349415392
156	0xbfb8c5ec2c4b6b11	-0.09677005845462029
157	0xbf9ff4c43309f9a6	-0.031207147231265296
158	0x3fa86e9bf5204c9a	0.04771888129484943
159	0x3fcac6268aadee72	0.20917207499939
160	0xbf85735df4cb6c29	-0.010473951371230044
161	0x3f466cfd407bce78	0.0006843792516221933
162	0x3f81216792b8a888	0.008364495434836763
163	0xbf7c05c1d366a554	-0.0068414279288984865
164	0x3fa2db456647ca5a	0.03682915566959784
165	0x3fb31086308dcc70	0.07447088895223586
166	0x3f9dfa84904c07bf	0.02927596216887429
167	0xbfb5a75e1fcc8907	-0.08458507801382008
168	0x3f9be6ccf4225d27	0.02724762191846
169	0x3f9513d2d3e682a7	0.020583433326126024
170	0xbfb603d48a1a9977	-0.08599594470670079
171	0xbfb2026868059407	-0.07034924068064195
172	0x3fb0309321169018	0.06324119146171403
173	0x3fb97baee9162a3a	0.09954350653257729
174	0x3f80404958a9318c	0.007935116785255734
175	0x3f93371ed3f84cba	0.01876495522271846
176	0x3fb379ea4c3fabe0	0.07607902871647765
177	0x3faaea62edc8ffc9	0.0525694766297416
178	0x3fa56992d509d5fc	0.04182108736578624
179	0x3faf0c802b0c82c3	0.06064224744318871
180	0x3f786bdd98b733ee	0.00596224366331642
181	0x3f86182b5814ed62	0.010788286805669404
182	0xbfa683e580621b14	-0.04397504036119507
183	0x3fadf06968d6f821	0.05847482113630088
184	0x3fb4ebc66f1853f0	0.08172264301568055
185	0xbfb53a8e63973b77	-0.08292474681296179
186	0xbf6dc5185fdea058	-0.0036340213836929917
187	0x3f9cadfb3efbe0f5	0.028007436484558352
188	0x1a1dd250b6ddc97a	7.018313627089997e-183
189	0x19a677b812b9ac0c	4.130954135264269e-185
190	0x99b044db1387c12f	-5.982499508619219e-185
191	0x19c3319d594107e2	1.4116069719800663e-184
192	0xbf627fe43f90efb9	-0.002258249089690492
193	0x3fb9751850893769	0.09944297758303623
194	0xbfa115029da3cb4a	-0.033363420241491484
195	0xbf621f321c0f9cc4	-0.0022121409133323017
196	0xbfb0335bbf2490db	-0.06328366676877144
197	0xbf9c7d5e4e38a78a	-0.02782199242043463
198	0xbfb3ed233d5b9ea9	-0.0778371834563766
199	0xbfa75f5a8b3b7122	-0.045649365898244434
200	0x3fc07dad63d8b16c	0.1288353669673471
201	0x3fb46c995e6be695	0.07978209071361626
202	0x3f775548dfe676d5	0.005696568170973489
203	0x3fa9c4bb23834a6b	0.05032906349665186
204	0xbfa742334a1c6082	-0.045426943585142446
205	0x3f66e6273a0d6400	0.002795292486933665
206	0xbf905da64f97d0d3	-0.015982245071385414
207	0x3fb793b9ae43b595	0.0920978594255842
208	0x3f9eb26e46db77a6	0.02997753436544994
209	0xbfba8e12bc17f9c8	-0.10373036472444774
210	0xbfb5771b0f632835	-0.08384865880648891
211	0xbfaffd1981624f35	-0.0624778719367484
212	0x3fb47cbd684283de	0.08002837939649463
213	0xbfa0727009384833	-0.03212308991000192
214	0x3f9cfcbea6237541	0.028307894602098264
215	0xbf89c7e80fb64e21	-0.012588322619911331
216	0xbfa6e3b041cfdfd2	-0.04470587542886019
217	0xbf8f614689d02429	-0.01532225711891229
218	0xbfb00c6201e30f4e	-0.0626889471632783
219	0xbfa08ee21a80d946	-0.0323401124336891
220	0x3fa6ad3002915967	0.04429006606430868
221	0x3fb4f1ea30c64ac1	0.08181632700715637
222	0xbfb3be0f56f21f82	-0.07711883423519164
223	0xbf74a0fa19b4b410	-0.0050363320872692935
224	0xbfae061de5ae0914	-0.05864041737278761
225	0x3f8190dad20e36bf	0.008577069793115453
226	0x3fb61b5e1b9c141f	0.08635509656967642
227	0x3fb1cbac3084386b	0.0695140474747135
228	0x3fa768a68c384fe1	0.04572029554051916
229	0x3f90be30f41ce77d	0.016350521945447383
230	0x3fb4a02c366a26bb	0.08056904152376891
231	0x3fb19888a4860180	0.06873373047529263
232	0x3f8335d3d45bd0fb	0.009380011480495378
233	0xbfa6952174e94c93	-0.04410652687206453
234	0xbfa00d0a961b45fc	-0.0313494976268309
235	0xbfb454db83b12360	-0.07941982236037637
236	0xbfb163e28f8d563d	-0.06793037419023391
237	0x3fa232651324fcc3	0.03554073198983467
238	0xbfba280f66b9fe9a	-0.10217376955005833
239	0xbfb5ef4c590ae917	-0.08568265127079076
240	0x3fb7108f72a6683a	0.09009644078324267
241	0x3f7b3f7920486b1e	0.006652329586837506
242	0x3fb251c5cd03825b	0.0715602517625568
243	0x3fb64691531c7ed7	0.08701427725872733
244	0xbfa63607e08e6af5	-0.04338097206274042
245	0x3fa860d9ac1f0563	0.04761390901650022
246	0xbfb25447ef334acf	-0.07159852590420289
247	0xbf98e1903175227c	-0.024297955530786272
248	0xbf89db8585e34e39	-0.012625735424456429
249	0x3fbceed2882dbfd4	0.11301914047885414
250	0x3fa0ab0e252c600c	0.03255504802490358
251	0xbfae6b7f64bada20	-0.059413891836289645
252	0xbf9e60cd5ae8c1ae	-0.029666145967156936
253	0x3f946ec869313cf6	0.01995385305445737
254	0xbfb2e0c14747e4fa	-0.07374198904280496
255	0xbfb1970c9821980a	-0.06871107782498612

out_linear.bias f8 [16]
0	0xbfb25f83893e60cf	-0.07176992512393386
1	0xbf32c0e6c7168892	-0.00028615602703941604
2	0x3fb45db9bf59c459	0.07955513879439148
3	0xbf97b6038c0e7c5a	-0.023155265258193537
4	0x3faa04029577bdc6	0.05081184458310477
5	0xbfb03d9523a1b5ea	-0.0634396755210315
6	0x3fb24a90a2aeed53	0.07145027133713215
7	0x3f92cffe48c496fd	0.018371556464578543
8	0xbf97e1aaf7099c87	-0.023321791961646212
9	0x3f883d6365eb29fe	0.01183583884030259
10	0x3f86627e62c137f2	0.010930049313312627
11	0x3fb6708c4ce3a10c	0.08765484692742492
12	0xbf98c11649e32f37	-0.024174068698626896
13	0xbf836ba1b84933bb	-0.009482634960613958
14	0x3fb73ac7dcba4fe5	0.09074067248212676
15	0xbf93855ff7b3ec09	-0.019063472264843315
